models/checkpoint.pth (torch_old, 156634 bytes, 6 tensors)

fp1.weight f4 [128, 37]
0.10584824 0.1266646 -0.2178038 -0.12122441 -0.10687761 0.095819294 -0.14026353 0.24828525
0.030485066 -0.012947663 -0.03398836 0.017470835 -0.19129519 -0.098764226 -0.12592348 -0.05946457
0.051572427 0.30905458 -0.23746297 -0.16428539 0.0782646 0.22662245 -0.11520632 0.13895166
-0.07237818 -0.028835585 0.16626458 -0.075853504 -0.12605044 -0.03250731 -0.056589592 0.21040761
-0.16043098 -0.03520366 -0.11375454 -0.20758411 -0.040473837 0.18998034 0.017026 0.034821842
-0.07550881 -0.26525345 0.044908464 -0.24059112 -0.10905923 -0.16967376 0.20793112 0.14089504
-0.3033238 0.058068737 0.108220406 0.21699394 0.1500944 -0.02472603 0.06266372 -0.16229106
-0.07605403 -0.11860514 -0.16933973 -0.14855425 0.1303444 0.22910318 -0.068947166 -0.11232758
0.17240992 -0.047410615 0.09595405 0.048337243 -0.08815019 0.13967516 0.043303 0.07243123
0.047800384 0.014817294 0.25088927 0.100087434 -0.07996551 -0.07492604 -0.07151208 -0.15345527
-0.12518546 0.23468685 0.010716276 -0.20650153 -0.04622479 -0.022869423 0.044219494 -0.054306585
0.14432123 0.01961106 0.10432524 0.032728653 -0.056572363 0.1208044 -0.21161632 -0.15166989
0.21268092 -0.01964648 -0.15683612 -0.23609069 0.27068123 0.11286771 -0.13989338 -0.06837737
-0.10345245 -0.052889284 0.05174533 -0.2824775 -0.028635714 0.20481174 -0.03640476 0.009620212
-0.27003208 0.2725947 0.07146717 -0.64230293 -0.5276409 0.027709177 0.104736485 0.12657307
0.025418358 0.11702074 -0.25814316 0.13924263 -0.2894371 0.005259661 -0.022640357 -0.14670552
0.015053531 -0.238863 -0.1829271 0.045746338 -0.119820006 -0.2525701 0.28010407 -0.02082144
0.005762599 0.090192184 0.021239694 -0.061038308 0.105515 0.05180187 0.11734783 -0.09730093
-0.06390677 -0.19896503 0.20963027 -0.0008835155 -0.088433005 -0.1350174 -0.10764987 -0.0825785
-0.038265303 0.076362774 0.126869 -0.13679217 -0.060407124 -0.43876886 -0.17110555 -0.083504446
0.107693814 0.0050773416 -0.30318215 -0.2611416 0.046932515 0.008314684 -0.10745823 0.19185175
-0.12759271 0.1125786 0.051543295 -0.2203371 0.12318683 0.026280757 -0.02755262 0.054165743
-0.26575887 -0.22689895 0.2053931 -0.30858156 0.05947863 -0.28370586 0.016683342 0.048237156
0.05659503 0.02561338 -0.008955992 0.014858117 -0.19417986 0.16540712 0.1738926 0.103376836
-0.18536265 -0.13629952 -0.5526531 -0.067216195 -0.14898914 0.054496735 0.037465613 0.1267599
0.018133374 0.08303797 0.021246085 -0.21988583 -0.18775609 0.18530028 -0.07719413 0.14909291
0.06994699 0.060008064 0.07001432 0.007166085 0.00616494 -0.10156053 -0.15098818 0.15678096
-0.18523592 -0.15726937 0.05711443 -0.13572656 0.042921998 0.07629601 0.21382685 -0.089963615
-0.24793501 0.004005754 -0.2984388 -0.049464896 -0.043964904 -0.072411485 -0.10866699 0.018797006
-0.08560465 0.17313856 0.14692551 -0.107296064 -0.023715802 -0.027541678 -0.24488425 0.13181789
-0.037747443 -0.014300774 -0.041374743 -0.07227007 0.17040707 -0.28684226 0.066006824 -0.1775641
-0.014494873 0.07511468 -0.3046337 0.08234813 0.23287304 -0.11005526 -0.08003007 -0.18723123
00000000: f6c6 d83d 5db4 013e f607 5fbe 8144 f8bd
00000010: a6e2 dabd e83c c43d 3ea1 0fbe 7d3e 7e3e
00000020: d1bb f93c 6f22 54bc 6137 0bbd ff1e 8f3c
00000030: e3e2 43be e644 cabd 16f2 00be 1f91 73bd
00000040: 9c3d 533d 673c 9e3e 7e29 73be 6e3a 28be
00000050: 3149 a03d b70f 683e 4bf1 ebbd 5849 0e3e
00000060: 033b 94bd 9b38 ecbc 4341 2a3e 1559 9bbd
00000070: 5e13 01be 6326 05bd 7dca 67bd 1875 573e
00000080: 0548 24be b731 10bd 24f8 e8bd ee90 54be
00000090: e5c7 25bd 358a 423e 1c7a 8b3c 59a1 0e3d
000000a0: 5da4 9abd 4dcf 87be f0f1 373d 855d 76be
000000b0: 725a dfbd f5be 2dbe e5eb 543e ca46 103e
000000c0: 424d 9bbe 7cd9 6d3d a9a2 dd3d a933 5e3e
000000d0: 59b2 193e 3e8e cabc d655 803d a12f 26be
000000e0: 37c2 9bbd 40e7 f2bd 6567 2dbe 9b1e 18be
000000f0: 0179 053e 069a 6a3e 2c34 8dbd 010c e6bd
00000100: 3a8c 303e a231 42bd 8f83 c43d 46fd 453d
00000110: 1688 b4bd 0107 0f3e 7d5e 313d d356 943d
00000120: 56ca 433d 3cc4 723c 8f74 803e a4fa cc3d
00000130: f5c4 a3bd d372 99bd ed74 92bd 6123 1dbe
00000140: 9e30 00be c051 703e 5293 2f3c 2375 53be
00000150: 3556 3dbd a858 bbbc 801f 353d 9570 5ebd
00000160: f2c8 133e 60a7 a03c 79a8 d53d 7b0e 063d
00000170: 6cb8 67bd 4c68 f73d f3b1 58be 5a4f 1bbe
00000180: 07c9 593e a8f1 a0bc a699 20be c2c1 71be
00000190: bb96 8a3e 3027 e73d 3640 0fbe 6f09 8cbd
000001a0: e1de d3bd 6fa2 58bd e9f2 533d e4a0 90be
000001b0: 7295 eabc 2bba 513e 281d 15bd 189e 1d3c
000001c0: a541 8abe 8891 8b3e 615d 923d f76d 24bf
000001d0: 7913 07bf 5bfe e23c 1580 d63d 5f9c 013e
000001e0: 293a d03c 92a8 ef3d 572b 84be 9f95 0e3e
000001f0: 1931 94be 3c59 ac3b 4578 b9bc f939 16be
00000200: 16a3 763c 8198 74be 3e51 3bbe 8360 3b3d
00000210: 3164 f5bd de50 81be cd69 8f3e b991 aabc
00000220: 2fd4 bc3b aeb6 b83d defe ad3c 4e03 7abd
00000230: 4018 d83d 332e 543d 0f54 f03d b645 c7bd
00000240: 8de1 82bd 7dbd 4bbe 51a9 563e b99b 67ba
00000250: 5d1c b5bd 0042 0abe 8977 dcbd eb1e a9bd
00000260: 14bc 1cbd 1664 9c3d f2e9 013e 3f13 0cbe
00000270: 766d 77bd 50a6 e0be 4b36 2fbe 6104 abbd
00000280: 938e dc3d d45f a63b b13a 9bbe 5ab4 85be
00000290: 4f3c 403d 503a 083c 0f13 dcbd c974 443e
000002a0: aaa7 02be 9c8f e63d 101f 533d 0ca0 61be
000002b0: 6049 fc3d be4a d73c 08b6 e1bc e6dc 5d3d
000002c0: 8c11 88be 3358 68be 9252 523e 67fe 9dbe
000002d0: dd9f 733d e541 91be 81ab 883c 5394 453d
000002e0: 31d0 673d 27d3 d13c 27bc 12bc 766f 733c
000002f0: 16d7 46be 7c60 293e e710 323e 3cb7 d33d
00000300: b5cf 3dbe 1a92 0bbe ac7a 0dbf a5a8 89bd
00000310: 9c90 18be f837 5f3d 8b75 193d 59cd 013e
00000320: 718c 943c d00f aa3d 450c ae3c c029 61be
00000330: 2243 40be 5bbf 3d3e f517 9ebd d0ab 183e
00000340: 5e40 8f3d 04cb 753d ab63 8f3d 7ad1 ea3b
00000350: 4403 ca3b f8fe cfbd a59c 1abe 308b 203e
00000360: 7cae 3dbe 390b 21be d2f0 693d e7fb 0abe
00000370: face 2f3d 1541 9c3d 6df5 5a3e d83e b8bd
00000380: ade2 7dbe b342 833b f8cc 98be b49b 4abd
00000390: 8b14 34bd 794c 94bd cd8c debd 2efc 993c
000003a0: 7e51 afbd 3c4b 313e a473 163e 0abe dbbd
000003b0: a447 c2bc 169f e1bc f0c2 7abe 45fb 063e
000003c0: 109d 1abd cb4d 6abc 9078 29bd 5502 94bd
000003d0: 317f 2e3e fddc 92be 962e 873d 5dd3 35be
000003e0: e77b 6dbc bad5 993d f3f8 9bbe 23a6 a83d
000003f0: 4576 6e3e a764 e1bd cee6 a3bd 8bb9 3fbe

fp1.bias f4 [128]
0.0012705249 0.004168659 -0.050038222 -0.0298269 0.012505578 -0.06816785 0.0917528 0.10822821
-0.1475476 0.04147325 -0.081084125 -0.065873384 -0.072253995 -0.019295733 -0.09727347 -0.03362724
0.026103638 -0.053035904 -0.05041668 -0.009699465 -0.11262711 0.059951324 0.123291366 -0.031901274
-0.0017245581 0.14097755 0.15754792 -0.14083186 -0.10554785 -0.0828653 0.06433433 0.105033584
-0.060894694 0.012901994 -0.012995787 -0.20046823 0.04669478 0.12564585 0.00095366116 0.011761423
-0.0043059755 0.118463755 0.17478363 -0.010907842 0.03832496 -0.08197737 0.05291457 -0.10677733
-0.13577415 0.056050237 0.024650462 -0.06551187 0.044314194 0.117114544 0.056352515 0.06760737
-0.005261028 -0.012134739 0.016091522 -0.075080745 -0.12810716 0.017572599 0.087823406 -0.064425394
0.1653585 0.04509039 0.06711548 -0.042950287 -0.14376548 -0.112143174 -0.03568883 -0.039681755
0.13188273 -0.14662808 -0.08859373 -0.013949991 0.17261031 -0.16826925 0.08405707 0.06254075
-0.011128852 0.066837564 0.09338759 -0.062330257 -0.07115706 0.17057376 0.0813179 -0.08227346
-0.009686493 0.03067998 0.07886389 -0.034308847 -0.10977983 -0.1525931 -0.032809645 0.08403634
0.027150448 -0.16953926 -0.05368008 0.13989688 -0.11483039 -0.18631025 0.07861481 0.15627424
-0.18028763 -0.19021444 -0.096612275 0.08501075 -0.11329181 -0.030573454 0.09924898 -0.09553899
-0.06952124 -0.117168814 -0.0015756825 0.13457195 0.05804405 0.09808839 -0.0489647 -0.032116007
-0.10292967 0.053880937 -0.027119292 -0.19172437 -0.069508575 0.04945612 0.15396371 0.0034192638
00000000: be87 a63a 3f99 883b e1f4 4cbd 8b57 f4bc
00000010: 32e4 4c3c 969b 8bbd e4e8 bb3d c0a6 dd3d
00000020: b816 17be dbdf 293d 6f0f a6bd a0e8 86bd
00000030: e7f9 93bd 1612 9ebc 5037 c7bd b8bc 09bd
00000040: 4cd7 d53c 2d3c 59bd b881 4ebd 81ea 1ebc
00000050: 0ba9 e6bd 858f 753d 2f80 fc3d e9aa 02bd
00000060: 910a e2ba 6b5c 103e 3e54 213e 3a36 10be
00000070: 7929 d8bd 48b5 a9bd b8c1 833d d91b d73d
00000080: b76c 79bd e362 533c 48ec 54bc 8b47 4dbe
00000090: 0743 3f3d 4ea9 003e 1eff 793a fcb2 403c
000000a0: 2419 8dbb 209d f23d 7bfa 323e ceb6 32bc
000000b0: a2fa 1c3d c0e3 a7bd f3bc 583d 13ae dabd
000000c0: 6108 0bbe ef94 653d c4ef c93c 162b 86bd
000000d0: cd82 353d c0d9 ef3d e5d1 663d bc75 8a3d
000000e0: b464 acbb c9d0 46bc 5ed2 833c efc3 99bd
000000f0: 862e 03be 69f4 8f3c c2dc b33d 76f1 83bd
00000100: bd53 293e b3b0 383d d773 893d a4ec 2fbd
00000110: 4237 13be 52ab e5bd 732e 12bd 5689 22bd
00000120: 440c 073e ac25 16be a170 b5bd 818e 64bc
00000130: c2c0 303e c64e 2cbe 1d26 ac3d 5d15 803d
00000140: ca55 36bc 22e2 883d fe41 bf3d 034e 7fbd
00000150: cbba 91bd e3aa 2e3e 008a a63d fd7e a8bd
00000160: 19b4 1ebc 9554 fb3c 6483 a13d 6f87 0cbd
00000170: 3fd4 e0bd 5e41 1cbe 6863 06bd 3f1b ac3d
00000180: 9e6a de3c b39b 2dbe a5df 5bbd 2141 0f3e
00000190: 322c ebbd 1dc8 3ebe cd00 a13d 5b06 203e
000001a0: 529d 38be 93c7 42be a8dc c5bd 1e1a ae3d
000001b0: 8905 e8bd 2e75 fabc 0d43 cb3d f2a9 c3bd
000001c0: 2761 8ebd 34f6 efbd 2287 ceba 3bcd 093e
000001d0: 99bf 6d3d 91e2 c83d 368f 48bd 138c 03bd
000001e0: cacc d2bd 42b2 5c3d 4729 debc 6553 44be
000001f0: 835a 8ebd 8092 4a3d aaa8 1d3e ba15 603b

fp2.weight f4 [256, 128]
-0.038942046 -0.12185592 -0.036299203 0.07440752 -0.0033107297 0.03973197 -0.05539625 0.010233595
0.18400842 0.14250225 0.04527635 -0.016920112 0.1758762 0.00045566048 -0.116244584 -0.076159604
-0.095484994 -0.06834144 -0.089485765 -0.051938757 0.084361464 0.05922774 -0.025215335 -0.04589191
0.0062831743 0.0795725 0.06354108 -0.07138309 -0.07394162 0.10358772 0.008998083 -0.09190038
0.02610636 -0.0071804146 -0.009152675 -0.05099584 0.056240015 -0.04102436 0.09900651 -0.12784116
-0.0008410041 -0.10239817 -0.14097507 0.077461004 0.019015502 -0.16204266 -0.038961485 -0.050317165
-0.01041801 -0.15345673 -0.102683336 -0.06872218 -0.07248447 -0.106840186 -0.072984 0.09149355
0.11427946 -0.012228315 0.06413606 -0.11467683 0.0433007 -0.07539197 0.07777739 -0.17287749
0.11268465 -0.04175595 -0.080440834 -0.11416085 0.020357516 -0.007985997 0.12793362 -0.12207609
-0.009915365 -0.06089273 -0.017057294 -0.10006693 -0.048903015 -0.072605796 0.06739731 0.07101609
0.0579072 0.064279914 0.09281491 -0.024419008 -0.025617478 -0.03928898 0.0140632875 0.022694016
-0.008194892 0.10951963 -0.0056776046 -0.20365079 -0.025437726 -0.08920244 -0.021673243 -0.20403774
-0.1517173 0.13158436 -0.17055126 -0.14041694 0.09926339 0.045364052 -0.13153069 0.06468485
-0.077439986 0.0484099 -0.01990529 -0.09126347 0.05146751 -0.30516544 -0.053120814 -0.12690336
-0.160806 0.115294896 -0.107568584 -0.15029879 0.006999502 0.1771608 -0.15678981 0.065511405
0.1351731 -0.30989388 0.050035577 -0.07564242 0.030608531 -0.053723432 0.018847952 -0.067049414
0.013491623 0.016664013 0.048751514 -0.032952208 -0.12139176 -0.035558328 -0.0057288264 -0.12946607
0.05721148 -0.08910371 0.015208848 0.0006256393 -0.025520477 -0.02068887 -0.29432726 -0.004045761
0.018874584 0.025615385 -0.02589166 0.026685761 0.016227411 -0.0135655105 -0.025275635 0.038832773
-0.11714662 -0.016629301 0.02361865 -0.063470036 0.11648813 0.02020501 -0.046034243 -0.045139797
0.013495299 -0.09160346 0.03193259 -0.07756243 -0.04501156 0.11577825 -0.13343023 -0.111716785
-0.20598096 0.054262105 -0.06680366 -0.018716238 -0.13962041 -0.09452438 -0.0013387223 0.10077069
-0.15110224 -0.04564158 0.06744499 0.038151953 0.07061326 0.094941154 -0.026607994 -0.04198296
-0.07435816 -0.11021615 -0.15500659 0.045036346 0.0071435757 -0.13710211 0.08670182 0.09561033
0.17015691 0.11940311 0.14649145 0.13843048 0.04829183 0.084754534 0.044112045 -0.093779065
-0.008162544 -0.04294127 0.05628611 -0.034602996 0.110532165 -0.050973844 -0.057005312 0.04864652
-0.068245694 -0.12973231 -0.08435198 -0.065193444 -0.01687948 0.013261953 -0.030287527 -0.05591828
0.123592734 0.008750888 0.16051124 -0.10226922 0.008616614 -0.14789404 -0.21839753 -0.058681864
0.00022587269 -0.05997463 0.019261451 -0.03216017 0.09633327 0.0664808 0.2168469 0.055465464
-0.06346063 -0.12398351 -0.031312376 0.021880964 -0.006857246 -0.072538696 0.05689954 0.02520903
-0.11666365 0.015658733 0.06717893 -0.06302956 -0.119805984 0.12175434 0.0619698 0.022557393
-0.05629387 -0.016331697 0.021510037 -0.03316979 -0.044329815 -0.037916303 -0.09890823 -0.057114124
00000000: b281 1fbd 998f f9bd 79ae 14bd f862 983d
00000010: d4f8 58bb fdbd 223d 2ee7 62bd cfaa 273c
00000020: b46c 3c3e 1cec 113e b273 393d 0c9c 8abc
00000030: e418 343e b7e5 ee39 a411 eebd 91f9 9bbd
00000040: a38d c3bd 99f6 8bbd 5044 b7bd bcbd 54bd
00000050: b4c5 ac3d c998 723d 6490 cebc 28f9 3bbd
00000060: 16e3 cd3b e8f6 a23d d321 823d 4c31 92bd
00000070: b46e 97bd cc25 d43d b26c 133c 4436 bcbd
00000080: 01dd d53c af49 ebbb 1af5 15bc 04e1 50bd
00000090: ee5b 663d 2909 28bd edc3 ca3d cbe8 02be
000000a0: d476 5cba 22b6 d1bd c55b 10be e0a3 9e3d
000000b0: 66c6 9b3c 83ee 25be 1496 1fbd 5f19 4ebd
000000c0: 4db0 2abc c323 1dbe a44b d2bd 37be 8cbd
000000d0: bd72 94bd 07cf dabd a378 95bd f860 bb3d
000000e0: 590b ea3d 4559 48bc c459 833d b0db eabd
000000f0: 135c 313d 1b67 9abd c149 9f3d cc06 31be
00000100: 36c7 e63d 4908 2bbd 2abe a4bd 2acd e9bd
00000110: cec4 a63c b3d7 02bc 0801 033e 0703 fabd
00000120: 0e74 22bc a86a 79bd bdbb 8bbc e4ef ccbd
00000130: 874e 48bd 59b2 94bd 9a07 8a3d e270 913d
00000140: 1a30 6d3d 30a5 833d be15 be3d 5f0a c8bc
00000150: bfdb d1bc 7bed 20bd b469 663c cde8 b93c
00000160: de43 06bc d44b e03d 330b babb d589 50be
00000170: c762 d0bc c5af b6bd 168c b1bc 45ef 50be
00000180: c85b 1bbe 0dbe 063e fda4 2ebe 75c9 0fbe
00000190: 9b4a cb3d a8cf 393d fbaf 06be 7e79 843d
000001a0: db98 9ebd 7649 463d 6b10 a3bc 58e8 babd
000001b0: 99cf 523d a53e 9cbe 3695 59bd f4f2 01be
000001c0: 54aa 24be bb1f ec3d eb4c dcbd ede7 19be
000001d0: 145c e53b a469 353e 828d 20be d82a 863d
000001e0: d16a 0a3e 69aa 9ebe 1bf2 4c3d 6aea 9abd
000001f0: bebe fa3c 1a0d 5cbd 0567 9a3c 3451 89bd
00000200: f80b 5d3c f882 883c abaf 473d e5f8 06bd
00000210: 3e9c f8bd 9ca5 11bd e1b8 bbbb c192 04be
00000220: 9656 6a3d 027c b6bd 882e 793c f101 243a
00000230: 5210 d1bc b57b a9bc 10b2 96be 4e92 84bb
00000240: df9e 9a3c 5bd7 d13c bf1a d4bc 199c da3c
00000250: 59ef 843c e041 5ebc d90e cfbc 1d0f 1f3d
00000260: 91ea efbd 2c3a 88bc e67b c13c 94fc 81bd
00000270: 5491 ee3d fa84 a53c 678e 3cbd 82e4 38bd
00000280: 631b 5d3c 989a bbbd bfcb 023d 0dd9 9ebd
00000290: 0b5e 38bd 261d ed3d efa1 08be c5cb e4bd
000002a0: acec 52be f141 5e3d 5bd0 88bd cc52 99bc
000002b0: a7f8 0ebe 0096 c1bd 1178 afba dd60 ce3d
000002c0: 8cba 1abe aaf2 3abd 9920 8a3d 3945 1c3d
000002d0: af9d 903d 8270 c23d 02f9 d9bc 53f6 2bbd
000002e0: 1749 98bd 01b9 e1bd 0cba 1ebe 0878 383d
000002f0: a814 ea3b 7f64 0cbe b990 b13d 59cf c33d
00000300: 9d3d 2e3e 9e89 f43d db01 163e b8c0 0d3e
00000310: a7cd 453d c993 ad3d d5ae 343d 3d0f c0bd
00000320: 31bc 05bc 2fe3 2fbd 448c 663d dfbb 0dbd
00000330: b05e e23d f3c9 50bd 677e 69bd 9341 473d
00000340: 66c4 8bbd 8cd8 04be bbc0 acbd 2484 85bd
00000350: d646 8abc aa48 593c 8c1d f8bc 910a 65bd
00000360: 301e fd3d e25f 0f3c 0f5d 243e 8672 d1bd
00000370: b32c 0d3c 8971 17be 9aa3 5fbe 655c 70bd
00000380: 3dd8 6c39 f5a7 75bd 31ca 9d3c 62ba 03bd
00000390: 614a c53d 1627 883d 1d0d 5e3e c12f 633d
000003a0: a6f7 81bd 11eb fdbd 6841 00bd b53f b33c
000003b0: c0b2 e0bb 2b8f 94bd 7e0f 693d 2b83 ce3c
000003c0: 5aed eebd be46 803c 1b95 893d a415 81bd
000003d0: d75c f5bd 575a f93d 0cd4 7d3d 48ca b83c
000003e0: 6794 66bd 0dca 85bc d135 b03c 0cdd 07bd
000003f0: 2e93 35bd 204e 1bbd 6690 cabd 80f0 69bd

fp2.bias f4 [256]
0.016185783 -0.0051947497 0.062447626 -0.041624073 0.053689092 0.010427843 -0.07357627 0.20780276
-0.051744454 -0.01096662 0.004732452 0.070425466 -0.055436898 -0.063694105 -0.014640895 0.082414255
0.0042795613 -0.039572984 0.038845558 0.023988944 -0.08063765 0.00029752206 0.0133783985 -0.02968294
0.047335908 0.0715366 0.074903525 -0.02445821 -0.065241545 -0.08953594 -0.012015419 0.0007288685
-0.044211082 0.032085072 0.14091945 -0.01937558 0.0010680624 -0.1037029 -0.09432418 -0.034318198
-0.028819447 -0.031501144 0.19263986 0.04200504 0.06290913 -0.03080783 -0.089835465 -0.07042606
-0.07949417 0.029614283 0.013178034 0.15609851 -0.03147902 0.002342329 0.03954307 0.008549401
0.060910854 -0.097119726 -0.034594804 0.029687138 -0.065687984 0.100513294 -0.013238817 0.020320648
0.11327176 -0.07570744 0.042437233 0.027509004 -0.090446055 0.05194673 -0.01761475 -0.096976
0.027149636 -0.087999195 -0.027668182 0.03977539 0.052238323 -0.12846345 0.046907388 0.106806226
-0.07320082 -0.010957223 -0.017597558 0.061877105 0.0030232081 0.06322408 -0.111695714 0.03897466
0.09730874 0.07928377 0.09406028 -0.014336146 -0.002822705 0.11193757 0.16020122 -0.056215513
0.00086509116 -0.0048951 0.034320854 -0.03558305 -0.09930871 0.014969416 0.124551825 0.060044922
0.015334347 -0.06501574 0.07113279 -0.0007092385 -0.09796847 0.071843944 -0.05734926 -0.036683794
0.09188435 -0.036291398 0.030465271 -0.06417096 0.05879337 0.07051361 -0.039378986 0.08648349
0.026583387 0.03576562 -0.09929811 0.022859989 -0.03520496 -0.113166586 0.06989193 0.044494666
0.0814791 -0.028275186 -0.041303337 -0.0067775077 0.01879823 -0.020425675 0.053271744 0.0046392228
-0.06467256 -0.048307363 0.060317438 0.024738295 0.019469935 -0.010747739 -0.013089253 -0.104057655
-0.034131575 0.06447441 -0.003440313 -0.0029376564 -0.073761135 0.036187842 -0.040025942 0.0041141785
-0.0050969585 -0.074499875 -0.08171422 0.0746722 0.00838443 -0.044846695 0.029829409 -0.05688275
-0.009656446 -0.081936285 -0.031204976 -0.08260213 0.055575434 -0.034395706 -0.11159492 -0.029196128
0.01742181 -0.045204096 -0.06405804 -0.07192952 -0.07665945 -0.10255504 0.053781733 0.013143958
-0.0058515174 0.026429733 -0.005009316 -0.027592937 -0.092526264 0.08644773 -0.100788325 0.090453096
-0.048407312 0.11158146 -0.0039828806 0.00075053534 -0.035493862 -0.054961 0.064188845 -0.1208533
-0.07017888 0.0004846473 -0.066871904 0.113686174 -0.039804503 -0.011299662 0.03849195 0.039607577
0.03646837 0.0068408125 -0.022760533 -0.09318681 -0.1102557 -0.06293742 -0.08438583 -0.027013816
-0.032916777 -0.12848513 0.006452218 -0.0470267 0.023609066 0.0014641462 0.015062611 -0.0064194365
0.033046734 -0.045612548 -0.06053706 -0.034953326 -0.028278042 -0.08726305 0.011483793 0.008695954
0.070271306 0.15944274 -0.041066587 -0.08498835 -0.09695016 0.023093963 0.000240169 0.016777618
-0.058411106 0.0029064985 0.010819117 -0.08166818 -0.04858774 -0.018802622 0.01415607 -0.072914034
0.08245506 0.073707715 -0.063170895 -0.08486173 -0.019699654 -0.028376332 -0.027138624 -0.080875225
0.06879023 -0.10506609 -0.066363834 -0.07582163 0.017743718 -0.00856095 -0.040972114 -0.01756456
00000000: 0c98 843c b838 aabb 15c9 7f3d 017e 2abd
00000010: 18e9 5b3d 8bd9 2a3c 28af 96bd 3fca 543e
00000020: fef1 53bd 57ad 33bc af12 9b3b 3a3b 903d
00000030: cd11 63bd 0e72 82bd 5de0 6fbc cec8 a83d
00000040: 903b 8c3b 4817 22bd 851c 1f3d 7684 c43c
00000050: 5a25 a5bd bcfc 9b39 1231 5b3c a329 f3bc
00000060: 4ce3 413d c881 923d 0567 993d 965c c8bc
00000070: 5c9d 85bd 9e5e b7bd 52dc 44bc 8911 3f3a
00000080: ae16 35bd a36b 033d 304d 103e 89b9 9ebc
00000090: 3afe 8b3a 3062 d4bd 092d c1bd 3d91 0cbd
000000a0: c316 ecbc 5807 01bd 6243 453e 7a0d 2c3d
000000b0: 80d6 803d b460 fcbc a8fb b7bd 8a3b 90bd
000000c0: d7cd a2bd a799 f23c aee8 573c 4ad8 1f3e
000000d0: 25f0 00bd c281 193b eaf7 213d c912 0c3c
000000e0: a97d 793d b5e6 c6bd 48b3 0dbd 7132 f33c
000000f0: 6c87 86bd ead9 cd3d a0e7 58bc 7d77 a63c
00000100: 06fb e73d 810c 9bbd aad2 2d3d 905a e13c
00000110: c83b b9bd 18c6 543d cf4c 90bc 5a9b c6bd
00000120: ea68 de3c ec38 b4bd 62a8 e2bc 85eb 223d
00000130: daf7 553d ec8b 03be f621 403d 39bd da3d
00000140: 50ea 95bd ed85 33bc c128 90bc d972 7d3d
00000150: 0421 463b a07b 813d b9c0 e4bd e5a3 1f3d
00000160: ce49 c73d 875f a23d ada2 c03d 28e2 6abc
00000170: 22fd 38bb 863f e53d ca0b 243e 3d42 66bd
00000180: 49c7 623a 1367 a0bb 0694 0c3d 88bf 11bd
00000190: 5d62 cbbd 4842 753c 0715 ff3d aaf1 753d
000001a0: ea3c 7b3c f926 85bd 11ae 913d 31ec 39ba
000001b0: b1a3 c8bd eb22 933d 0fe7 6abd bf41 16bd
000001c0: dd2d bc3d 4aa6 14bd 4e92 f93c 106c 83bd
000001d0: 51d1 703d 7169 903d dc4b 21bd 421e b13d
000001e0: 67c5 d93c f97e 123d cf5c cbbd df44 bb3c
000001f0: 1333 10bd e2c3 e7bd 8023 8f3d 0a40 363d
00000200: 84de a63d 5da1 e7bc b02d 29bd db15 debb
00000210: bffe 993c bf53 a7bc 7933 5a3d 9f04 983b
00000220: 0c73 84bd f1dd 45bd 6b0f 773d f7a7 ca3c
00000230: 6a7f 9f3c 4917 30bc 4e74 56bc 2e1c d5bd
00000240: 8dcd 0bbd 290b 843d e076 61bb b285 40bb
00000250: 1410 97bd b439 143d 3ef2 23bd 3bd0 863b
00000260: 6304 a7bb 6493 98bd c959 a7bd bded 983d
00000270: d95e 093c 2bb1 37bd ce5c f43c e3fd 68bd
00000280: 1236 1ebc 36ce a7bd 94a1 ffbc 4e2b a9bd
00000290: 11a3 633d 83e2 0cbd e18b e4bd b82c efbc
000002a0: 2fb8 8e3c ee27 39bd dd30 83bd c94f 93bd
000002b0: a1ff 9cbd 6008 d2bd 3c4a 5c3d c159 573c
000002c0: 16be bfbb 2b83 d83c 3025 a4bb 950a e2bc
000002d0: 697e bdbd 820b b13d 1c6a cebd 793f b93d
000002e0: bf46 46bd d284 e43d d382 82bb 93bf 443a
000002f0: 0362 11bd c91e 61bd 7175 833d ef81 f7bd
00000300: f2b9 8fbd 4218 fe39 23f4 88bd 4cd4 e83d
00000310: 0c0a 23bd 3822 39bc bca9 1d3d 8e3b 223d
00000320: dc5f 153d e528 e03b 4c74 babc bad8 bebd
00000330: becd e1bd 56e5 80bd 7ad2 acbd 144c ddbc
00000340: bed3 06bd 9b91 03be 216d d33b 129f 40bd
00000350: cd67 c13c 98e8 bf3a 2bc9 763c 235a d2bb
00000360: 035c 073d 39d4 3abd b5f5 77bd 382b 0fbd
00000370: 5aa7 e7bc f8b6 b2bd 8526 3c3c 7a79 0e3c
00000380: 67ea 8f3d f544 233e 7035 28bd 5f0e aebd
00000390: ce8d c6bd 8d2f bd3c e0d5 7b39 3771 893c
000003a0: 7c40 6fbd f47a 3e3b aa42 313c a641 a7bd
000003b0: f003 47bd f507 9abc dcee 673c f453 95bd
000003c0: 33de a83d 12f4 963d be5f 81bd fdcb adbd
000003d0: 2b61 a1bc 7b75 e8bc d251 debc e9a1 a5bd
000003e0: e4e1 8c3d e42c d7bd c3e9 87bd 5f48 9bbd
000003f0: 465b 913c 3a43 0cbc 60d2 27bd 8de3 8fbc

head_advantages.weight f4 [4, 256]
-0.095155306 0.08536137 0.0015625881 -0.03387433 0.07792033 -0.015202326 -0.032097567 0.06989566
-0.05576217 0.019357603 -0.11451553 0.1539573 -0.101145074 0.07968951 0.026752884 -0.013903126
0.067689285 -0.0702023 0.010884273 -0.0075296424 -0.02630651 0.036522035 -0.046577815 -0.021582855
0.038848504 0.050183307 0.004158798 9.670379e-05 -0.032190666 -0.03203071 -0.032578703 -0.06348468
0.026842507 -0.13659927 0.038727045 -0.014593335 0.10649615 -0.009765539 -0.15553884 0.021482851
0.19160847 0.03051079 0.08754798 -0.014399027 -0.07688212 0.025630279 0.0094860075 -0.00066431623
0.0090467315 0.015657227 -0.006605765 0.055164028 0.024712626 0.16500816 -0.093900055 0.036929928
0.028392104 -0.12389209 0.12214177 0.08296027 0.06606395 0.058543734 -0.047900144 0.03438936
0.05091679 0.037008997 0.11116643 0.02559583 -0.12577327 -0.07350447 0.03443662 0.07771437
-0.06364495 -0.021257447 -0.002790052 -0.060959503 0.0628235 0.011300481 -0.14350206 0.059460018
0.014152757 -0.01977848 -0.09253362 0.10022657 0.0007445609 0.014422621 -0.039880354 -0.01565172
0.08607265 0.19370718 0.044616994 -0.07530678 -0.119451836 0.037821457 0.04014373 -0.0170479
-0.030467967 -0.06944983 -0.03156328 0.062000543 0.054912135 0.081100866 0.049052007 0.040489774
-0.20064567 0.043886963 -0.04692845 -0.17447168 -0.049970653 -0.26857564 -0.01896347 0.065861255
0.03357915 0.02256888 0.088712096 0.06481952 -0.22622512 0.0019255172 -0.060137574 0.09125202
0.03277826 -0.14485042 -0.06438623 -0.017743807 -0.11107843 -0.0069232592 -0.036230035 0.035089314
0.11766999 -0.0002751728 -0.021423435 0.0061868746 0.0058371546 0.0073051085 0.11566794 0.025293868
-0.0029095463 -0.21761522 0.032471363 -0.16196764 0.038491502 -0.11707886 0.023518784 0.080468476
0.014366868 0.0011605021 -0.0022007518 0.057080496 0.105132975 0.06412695 -0.17461972 0.024937179
0.04591831 0.13635711 0.08896058 0.038375262 0.011296599 -0.037020665 0.07640968 -0.017505493
0.038883895 -0.15589768 0.10428931 -0.07945927 0.08074258 -0.078269355 -0.062277503 -0.096753076
0.023111437 0.02919498 -0.03136606 -0.266847 0.1018644 -0.14676702 -0.063039154 0.050753817
0.00026185313 0.16294707 0.0541898 -0.1080285 0.074685566 0.022730527 0.020194592 0.06330523
-0.061620653 -0.002302128 0.06914918 0.19857347 -0.06688598 0.008885652 -0.013289177 -0.12729712
0.09092867 -0.041446805 -0.038516823 0.027339071 -0.13426091 0.06356207 0.08748685 0.022597987
-0.22216058 -0.01017757 0.07430751 0.022055022 -0.041082256 0.048875477 -0.06198945 -0.019782146
-0.06598475 -0.042738777 0.030638933 -0.086618245 0.09206167 -0.09485231 0.044658802 0.14247988
0.05098446 0.019387165 0.049434032 0.020789618 -0.20446894 -0.24649411 -0.070607945 -0.11251766
0.1633426 0.0476526 -0.13205984 -0.0045135194 -0.040509876 0.07275655 0.036664158 -0.024241775
0.14259325 0.10670838 0.096376516 -0.005302205 0.07242103 0.079086825 -0.0012158338 0.12667191
0.029814484 -0.04976837 0.01202222 0.1572989 -0.0046700323 0.102275215 -0.02023849 -0.058696937
-0.0019169886 0.14585945 -0.04191938 -0.10589589 0.036950205 0.16598962 0.07816291 -0.06629258
00000000: c9e0 c2bd f1d1 ae3d c2cf cc3a cfbf 0abd
00000010: b294 9f3d 2d13 79bc bd78 03bd 7525 8f3d
00000020: e066 64bd d693 9e3c 1e87 eabd fca6 1d3e
00000030: 2625 cfbd 4134 a33d dd28 db3c f0c9 63bc
00000040: aea0 8a3d 39c6 8fbd f353 323c 38bb f6bb
00000050: c080 d7bc 2198 153d 61c8 3ebd 87ce b0bc
00000060: 9c1f 1f3d 038d 4d3d 8746 883b 74cd ca38
00000070: 5cda 03bd a232 03bd 3f71 05bd 4204 82bd
00000080: d1e4 db3c aee0 0bbe 40a0 1e3d e218 6fbc
00000090: a71a da3d a4ff 1fbc 9345 1fbe cefc af3c
000000a0: 0335 443e c4f1 f93c 5b4c b33d e6e9 6bbc
000000b0: 5f74 9dbd 97f6 d13c 336b 1b3c 8225 2eba
000000c0: be38 143c 9643 803c 2c75 d8bb adf3 613d
000000d0: 2272 ca3c e6f7 283e ac4e c0bd d643 173d
000000e0: 8f96 e83c 23bb fdbd 7725 fa3d 13e7 a93d
000000f0: 894c 873d 8ecb 6f3d f132 44bd dcdb 0c3d
00000100: 208e 503d bf96 173d 3aab e33d 59ae d13c
00000110: b5ca 00be 8389 96bd 6a0d 0d3d b628 9f3d
00000120: 4958 82bd 1924 aebc 4ed9 36bb acb0 79bd
00000130: 9ba9 803d a725 393c 34f2 12be 598c 733d
00000140: f7e0 673c 7b06 a2bc 4482 bdbd 9743 cd3d
00000150: a32e 433a db4c 6c3c 9559 23bd 0938 80bc
00000160: dc46 b03d 2d5b 463e 4fc0 363d 713a 9abd
00000170: 2aa3 f4bd acea 1a3d c06d 243d 0aa8 8bbc
00000180: f597 f9bc b63b 8ebd 7f48 01bd 48f4 7d3d
00000190: 8ceb 603d 3618 a63d c2ea 483d 9bd8 253d
000001a0: 0f76 4dbe d1c2 333d 0c38 40bd b4a8 32be
000001b0: 07ae 4cbd bf82 89be 4759 9bbc 44e2 863d
000001c0: 4a8a 093d 5fe2 b83c b0ae b53d 19c0 843d
000001d0: 8fa7 67be a361 fc3a d152 76bd 57e2 ba3d
000001e0: 7f42 063d ab53 14be eedc 83bd 765b 91bc
000001f0: 177d e3bd 82dc e2bb f265 14bd d0b9 0f3d
00000200: f7fc f03d 1145 90b9 3380 afbc 44bb ca3b
00000210: 9a45 bf3b b15f ef3b 50e3 ec3d 1635 cf3c
00000220: 16ae 3ebb 86d6 5ebe b100 053d d8da 25be
00000230: 44a9 1d3d 0bc7 efbd 77aa c03c a8cc a43d
00000240: 0363 6b3c fd1b 983a 7d3a 10bb 3dcd 693d
00000250: f54f d73d fe54 833d 83cf 32be 0e49 cc3c
00000260: d614 3c3d 33a1 0b3e f730 b63d 612f 1d3d
00000270: 5f15 393c fba2 17bd ae7c 9c3d ae67 8fbc
00000280: b844 1f3d a4a3 1fbe a295 d53d 8bbb a2bd
00000290: 5e5c a53d af4b a0bd b216 7fbd 7a26 c6bd
000002a0: 3254 bd3c 502a ef3c b379 00bd 2ca0 88be
000002b0: 489e d03d 184a 16be ac1a 81bd 3ce3 4f3d
000002c0: 5549 8939 99db 263e 20f6 5d3d 0c3e ddbd
000002d0: bff4 983d 5f35 ba3c 216f a53c 2ca6 813d
000002e0: f065 7cbd 4cdf 16bb 169e 8d3d d856 4b3e
000002f0: 84fb 88bd 2095 113c d9ba 59bc 2d5a 02be
00000300: cf38 ba3d 20c4 29bd d1c3 1dbd 30f6 df3c
00000310: b17b 09be d52c 823d 4e2c b33d 6a1f b93c
00000320: 107e 63be d3bf 26bc 892e 983d bcac b43c
00000330: de45 28bd a731 483d a6e8 7dbd 2b0e a2bc
00000340: 0323 87bd db0e 2fbd 80fe fa3c e864 b1bd
00000350: d48a bc3d ee41 c2bd 26ec 363d 3fe6 113e
00000360: 15d5 503d d5d1 9e3c 577b 4a3d fd4e aa3c
00000370: 4e60 51be f468 7cbe e69a 90bd a96f e6bd
00000380: 4843 273e 5f2f 433d b23a 07be 25e6 93bb
00000390: afed 25bd 6301 953d 282d 163d b096 c6bc
000003a0: f703 123e ec89 da3d 0d61 c53d 1fbe adbb
000003b0: 7a51 943d 46f8 a13d 9d5c 9fba 48b6 013e
000003c0: 813d f43c ebd9 4bbd d8f8 443c f612 213e
000003d0: 1207 99bb ab75 d13d 31cb a5bc 336c 70bd
000003e0: 7743 fbba 2e5c 153e a8b3 2bbd f2df d8bd
000003f0: 1959 173d 2ff9 293e e013 a03d 67c4 87bd

head_advantages.bias f4 [4]
0.06133884 0.082383364 0.056528535 0.07448595
00000000: 6f3e 7b3d 9cb8 a83d 778a 673d 178c 983d
