models/dddqn.pth (torch_old, 157889 bytes, 7 tensors)

fp1.weight f4 [128, 37]
00000000: 12ff 033e 1f39 ae3d 7a62 6dbe f17f 9fbe
00000010: a634 e9be 5ad5 ae3d 892f 90bd b81c fe3d
00000020: 78aa 113e d06b 2b3d 92ff c7bd 5e2f 4b3c
00000030: 6b4d 39be a2f6 18bd f5a3 2cbf 993e 793d
00000040: d707 c53c 4a91 4b3e 1ee9 79be 82f3 2fbe
00000050: 7385 f73c 2772 233e 8c4e 57be 8994 993e
00000060: 4a42 f3bd 08bc 8fbc 2457 1f3e cb12 77bd
00000070: 2404 57be 0c61 aa3d 4e6f a3bc 8fe3 1d3e
00000080: fed0 acbd 8c84 0dbe e0b6 27bd d5ac 51be
00000090: 5210 64bd 540a 893e 04d1 533d 8afa 8abd
000000a0: 1e2b 9bbb ea2b 91be 494a c03d cbe8 d8bd
000000b0: 0705 2bbe 7af4 01bf 759e 6fbc 0860 a6bc
000000c0: 75d4 1ebe 3a6d c73d e8c4 e93d a7d9 463e
000000d0: 8947 943e 9671 11be 9c9e c33d 9d1c d7be
000000e0: 8a09 cfbe 4e1f 41be 225c 2ebe 62a6 a9bd
000000f0: 742c f93d 0400 3e3d b602 e6bd 8a35 1f3b
00000100: 0695 823d ccdc 413b 4f1a 663e f55c 90bd
00000110: 55cd e03d a7b7 4f3e df7f 05be 2f54 66be
00000120: d6f7 1b3d 20f1 d13b f558 213e 0a02 123e
00000130: fd7b 213e ee7a a3be 75c8 febd d97d 5dbe
00000140: 1c36 4abd ab2a 8c3e 4bcd 333d aed3 46be
00000150: 1f26 d3bd e806 60bd 622b 123e e6a9 cdbe
00000160: c3e4 3fbe df40 cabd bc27 cebd 63bf 823e
00000170: 7ea9 0a3e b700 ebbd c5e5 32be cd91 b6be
00000180: 51c3 853e fa4f 3abe d7a7 79be b5df d1bd
00000190: d3d5 9c3d 43cf 623e 9a16 0ebe 2eb9 ccbe
000001a0: b0ef 8cbe 841b d53c ce10 143c 47ac bfbd
000001b0: 29dd 3bbd 67c8 e63d 70d0 22bd 1e5b 7b3e
000001c0: 02e0 1bbf a29a 053e 3d77 083e 369d aebe
000001d0: 0713 5e3d 7c59 32bc a0a0 5ebc 6464 653d
000001e0: df88 083e fa3b 9d3d d297 20be 6077 7cbb
000001f0: 6ead 2dbd a36d 85be 12d4 923c 9fcc c8bd
00000200: 31c3 ffbd 5b36 9ebd 356a 9ebd 204f 0f3d
00000210: cb5d c8be 03b1 1d3d 09cd 8f3e 8d60 0dbf
00000220: 02c5 6f3d 958d 7cbd 710b af3d 9d25 a33d
00000230: 5bf7 573e 167c 913d 5a51 893e 0a85 09bc
00000240: f12a 6dbe c300 ac3b b99e 0e3e 3f91 00bd
00000250: 4569 f2bd f26e 85bd 104a f1bd fed7 18be
00000260: e57e 843c 94e5 4e3c 231a bd3e d36b 53be
00000270: 313e 103e d6e9 ddbe f7a8 053e 2b02 95bd
00000280: e617 e0bd 5280 40be d2b5 95bd 4c3f 65bd
00000290: ac49 ddbc ca18 823d 0334 62be 887f a5bb
000002a0: 8e9b 1abd 1439 48bc fef0 e03d 6909 88be
000002b0: 1eca 483e a747 a53c a5c6 bdbc c432 bf3d
000002c0: e1bd 04be 5154 64be 4d0a 753e de99 51be
000002d0: 2d9d 773d 30eb edbe e79d 753e 9a49 213d
000002e0: 2918 873c 7949 6f3d e8c2 103c 6563 f0bd
000002f0: 566c fe3c 34ca 103e bd26 893e ba50 003e
00000300: fd0d ddbe e1bf 64be 434f 87bf 0e76 32be
00000310: 4469 88bd d9a3 ae3d 6371 f03c 0d1f 053d
00000320: af08 253e 38e0 bc3c 0053 59be 74f5 2d3d
00000330: 83b2 f0bd 3a8f a73c 5d27 93bb 2f9d 563e
00000340: 68a1 483e b677 4d3e 436c bd3d 2c5a 10bd
00000350: abf6 363d 7992 4abd 1b0a f2bb 4fa1 013d
00000360: 1029 46bd 739c 07be 1e14 433e 90b0 dcbb
00000370: 28bd 373d 5905 103d fb4a 8fbd 7776 0dbe
00000380: 813c 12be fa77 953e bd2e 26be 382f 01be
00000390: 87f6 9bbd 29e0 b43a 6ac5 b13b 25bd a13e
000003a0: 6df4 413e 2225 fcbc ac44 ec3c 5c6d 13bf
000003b0: d701 00bd fe29 b6bd e330 27be c396 053e
000003c0: 4c1a 65be bcef 923e 8a58 94bd 22dd 2ebe
000003d0: c36f 813d 0004 e9bc 4d57 293e 1668 24be
000003e0: 1f04 1dbc eeb7 b2bd 420b 93bd 82fc 803e
000003f0: ff8a 243e 15e9 3cbd 1d0b 56be 125d 363d
0.1289027 0.08506989 -0.23182097 -0.311523 -0.4554798 0.08536787 -0.070403166 0.124078214
0.14225185 0.041850865 -0.09765543 0.01240143 -0.18095939 -0.037344582 -0.6743768 0.060850713
0.02405159 0.19879642 -0.24405333 -0.17182735 0.030215 0.15961514 -0.21026057 0.29996136
-0.11877878 -0.017545715 0.15560585 -0.060320657 -0.20997673 0.083192915 -0.019950535 0.15418838
-0.084382996 -0.13820094 -0.040945888 -0.20476086 -0.055679627 0.26765692 0.051713005 -0.06786068
-0.0047353646 -0.28353816 0.09389169 -0.10591277 -0.16701137 -0.50763667 -0.014625181 -0.020309463
-0.15510733 0.0973763 0.1141451 0.19418965 0.28960827 -0.14203486 0.09551737 -0.42014018
-0.40436965 -0.18859598 -0.17027333 -0.08283688 0.12166682 0.046386734 -0.11230986 0.0024293386
0.0637608 0.0029581068 0.22470973 -0.0704898 0.10976664 0.20284902 -0.1303706 -0.22493051
0.03807815 0.006406918 0.1575659 0.1425859 0.15769954 -0.31929725 -0.12440578 -0.21630038
-0.04936801 0.27376303 0.043896955 -0.19416687 -0.103100054 -0.054694086 0.14274362 -0.40168685
-0.1873961 -0.098756544 -0.100661725 0.2553664 0.13541219 -0.11474746 -0.17470463 -0.35658112
0.26125577 -0.18194571 -0.24380432 -0.10247747 0.07657971 0.22149377 -0.1387581 -0.3998503
-0.27526617 0.026014097 0.00903721 -0.09359031 -0.04586521 0.112686925 -0.039749563 0.24546477
-0.60888684 0.13047269 0.13326736 -0.34104317 0.054217365 -0.010885593 -0.013588101 0.056003943
0.13333462 0.07677455 -0.15682915 -0.0038523301 -0.042401724 -0.2606021 0.017923389 -0.098046534
-0.12488402 -0.07725211 -0.07735101 0.03498757 -0.39134058 0.03849889 0.28086117 -0.5522545
0.05853749 -0.06165846 0.08547104 0.079661585 0.21090452 0.07103746 0.2681988 -0.008393535
-0.23160912 0.0052491142 0.13927735 -0.031388517 -0.11836485 -0.06515302 -0.117817044 -0.14926144
0.01617379 0.012627978 0.36934003 -0.206466 0.14086224 -0.43342465 0.13052736 -0.07275804
-0.10942058 -0.1879895 -0.0731007 -0.055968568 -0.027012669 0.063523844 -0.22090153 -0.0050506033
-0.037746005 -0.01222064 0.109834656 -0.2656968 0.19608352 0.020175768 -0.02316601 0.09335855
-0.12963058 -0.22297789 0.2392971 -0.20468852 0.06045263 -0.46468496 0.23986016 0.039376833
0.016491013 0.05841968 0.008835532 -0.11737708 0.031057518 0.14139634 0.26787367 0.12530795
-0.43174735 -0.22338821 -1.0571064 -0.17427847 -0.06660703 0.08527345 0.029350942 0.032500315
0.16116594 0.023056135 -0.21223068 0.04247041 -0.117527984 0.020454038 -0.0044907765 0.20958398
0.19592822 0.20065197 0.09249165 -0.035242245 0.044668835 -0.049456093 -0.0073864586 0.031647976
-0.048379004 -0.13243274 0.19050643 -0.006734915 0.044858128 0.03516135 -0.06996723 -0.13814722
-0.14280893 0.29193097 -0.16228767 -0.12615669 -0.07615381 0.0013799715 0.005425145 0.31589618
0.18940897 -0.030779425 0.028841339 -0.57588744 -0.031251755 -0.08894728 -0.16327243 0.13045792
-0.22373313 0.28698528 -0.0724345 -0.17076543 0.06320145 -0.02844429 0.16537209 -0.1605533
-0.009583502 -0.08726488 -0.07179882 0.25192648 0.16068648 -0.04612072 -0.20902677 0.044522353

fp1.bias f4 [128]
00000000: f325 5c3b a6ed 523d d6dc 01bd 1b53 72bc
00000010: e1b0 853c 1084 77bd ddac f53c e416 01bc
00000020: 8c2e 5ebe 902a 063d fa4d dbbd e64d cebd
00000030: 58b7 8ebd 885e fcbd f1e6 93bd 2d6e 3cbd
00000040: 1679 7f3c 8e57 eebc 81f2 d2bd 19f0 88bd
00000050: 3c2b ddbd 5321 a03d 6d22 df3d 0b5e 87bd
00000060: baa8 933d 7e8b 2f3e e6ee 0b3e 8e56 19be
00000070: 0860 10bd 1104 f93b 8bc0 ec3d 2167 c73d
00000080: a03e c7bd e157 29bd ea81 3bbd dcfb 71be
00000090: 1e1f e7bb 4f69 c23d b07a 8f3d 6f1f 11bd
000000a0: 6302 c83c 0d87 833d a829 133e 5e3f a93c
000000b0: d19f 4a3d 263d 15be 771f a03d 3107 21be
000000c0: 2155 13be 36c4 073b 2f50 133d e3c7 0b3d
000000d0: d996 b73d c7f6 1d3e eb77 9dbb ec9a e33c
000000e0: a633 e5bd 3e63 28bd cce2 bf3b 49d3 6ebd
000000f0: c0a3 a5bd 6596 c03d 6b77 4f3d f2c0 a4bd
00000100: 89af 1f3e 1dbd a03c 830e 4a3d e167 38bd
00000110: 2d41 5ebe 5973 98bd 4a5f e1bb 5c50 b6bd
00000120: 6e13 993d bb21 0cbe 70d4 8cbd 7e98 43bd
00000130: 22b9 393e bd1f 35be a9a6 883d f897 02bc
00000140: f4bd b5bc 02d3 6c3d 7bd4 033e bd0b b3bd
00000150: 2334 353d 348e 2b3e f629 9a3d 85f2 11be
00000160: 8580 be3c 2319 dd3b 5fa7 dd3d c841 a7bc
00000170: dbce e5bd 3991 bfbd 4c29 97bd c4a0 043e
00000180: 34b5 dbbc eb12 0cbe 708b 8d3c 4817 1d3e
00000190: c073 18be cefa 12be 1e64 913d a598 d83d
000001a0: 80de 5ebe bd50 cbbd 4722 f4bd fa54 b43d
000001b0: ff48 1bbe 5f19 203d bf9a a63d b3fb 0cbd
000001c0: eb45 07be 2f71 b9bd 97cf c5bb 1c44 f93d
000001d0: 9f06 ae3d 1b56 183e 759e 943d c344 bc3b
000001e0: 2347 90bd 3ecf 2c3d 4a6e 86bd ee45 3fbe
000001f0: d838 a1bc 41df 013d c06f e33d 4c74 1a3d
0.0033591955 0.05149617 -0.031704746 -0.014790322 0.016319694 -0.06042868 0.029989654 -0.007878993
-0.21697444 0.032755435 -0.10708232 -0.10073452 -0.06968564 -0.12322718 -0.07221783 -0.04600351
0.015592834 -0.029094484 -0.1030016 -0.0668642 -0.10799262 0.07818856 0.10895238 -0.06609734
0.072099164 0.17143056 0.13665351 -0.14974424 -0.035247833 0.0075993617 0.11560162 0.09736467
-0.09728742 -0.041343573 -0.045778193 -0.23631233 -0.00705327 0.09492742 0.07005823 -0.035430368
0.0244152 0.06422243 0.1437136 0.020660099 0.04946882 -0.14574108 0.078185014 -0.157254
-0.14387943 0.0020716316 0.03596514 0.034126174 0.08964319 0.1542617 -0.004805555 0.027783833
-0.11191492 -0.04111027 0.0058558937 -0.058306966 -0.080878735 0.094036855 0.050650995 -0.08044614
0.15594305 0.019621426 0.049330246 -0.04502094 -0.2170455 -0.07443876 -0.0068778144 -0.08902046
0.07474409 -0.13684742 -0.06876457 -0.04775285 0.18137029 -0.17687888 0.06672413 -0.0079708025
-0.022185303 0.05781842 0.12874024 -0.08742473 0.044239175 0.16753465 0.07527535 -0.1425267
0.023254642 0.0067473813 0.10822939 -0.02041711 -0.11221095 -0.09353871 -0.07380924 0.12951952
-0.026819803 -0.13679092 0.017278403 0.15340912 -0.14887905 -0.14353487 0.07099174 0.1057599
-0.21764565 -0.09927509 -0.119206004 0.088052705 -0.15164565 0.039086696 0.08134984 -0.034419727
-0.13210265 -0.09054791 -0.0060367095 0.12171194 0.084973566 0.14876597 0.07256786 0.0057455017
-0.07044818 0.04218983 -0.06564005 -0.1867902 -0.019680426 0.031707052 0.11105299 0.037708566

fp2.weight f4 [256, 128]
00000000: ce40 db3c 565d 263d d7f5 06bd 8f77 8a3c
00000010: b35a 56bc b8c1 d3bd 23d9 743d 353b f93d
00000020: 8189 1d3d 4b46 46be f3e6 57bd 5850 2fbd
00000030: bd5e dd3c 3216 e3be e171 06be 6568 8c3c
00000040: 171b d53c 62a5 2abd 35ab 37be 7b2e 3bbe
00000050: fa8f 123d 9093 593e 5593 d13c e133 13be
00000060: 768e 49be 0197 033e 3650 7ebd 093b 9bbe
00000070: d48f 883c 80a3 1cbd dc4c 873d 3bac 423e
00000080: 5291 523d 64eb fcbd e123 d43d a289 863c
00000090: c4c6 073c f019 1ebe 9f27 8c3e 4a24 d9bd
000000a0: 4278 49bd dc56 12bc 27ca d43d 1db7 003d
000000b0: 4dd9 553e be6b 33bd 7d9e e03c e631 88be
000000c0: b0eb aebd a6e3 33be feab b2be b76a 91bd
000000d0: d863 313d b8e4 5dbe dbeb ddbd a8a4 183d
000000e0: 6dcb 463e 71f8 b1bd ba0d 8e3c 2c36 063c
000000f0: cb7b 3d3e 0819 3fbe 0c4b b23d a543 e6be
00000100: 5e60 053e c206 eb3d 978e 023e 6375 c0bd
00000110: df65 46bd 766f 87bd abd4 70be 005b eabd
00000120: 5306 de3c 70f0 1cbe 137b bc3d bfc2 2ebe
00000130: 80f1 513d b65c febc b96b 97bd 2e06 613d
00000140: b680 71be 0502 06bc 3c2d 04bd ed69 62bd
00000150: b6c9 adbc 78f4 7e3d a34d 2fbd 7cac c73b
00000160: 21df 81bd ec76 a5bd 8d9d e83b 79af a9bc
00000170: 4b44 263d b9f8 06be 02ac 47be d913 67be
00000180: 313d 22be 218d 063e b2c4 833b ff1f 343e
00000190: 2785 84be 7c1d 7cbe c190 5cbc 5f7e ec3d
000001a0: 2fb6 c73d 3149 4d3e f379 a13a b7a6 13be
000001b0: 50f1 75be 03f2 18be e63c 28bd ea8b a8bc
000001c0: 7c04 843c 2342 ba3c 57c4 61be e390 8b3d
000001d0: f0b2 113d b14a 8dbd a584 4bbe 2c19 e5bd
000001e0: 9eec 173e 429c bcbc a8e0 e43c 9e06 29be
000001f0: a242 283d b9f9 55be a7df 26be e3ab 86be
00000200: f56b 4d3e 64c5 963d 21ed b9bd 0adb 16bd
00000210: 124e 8bbe 02e7 cebd 2a0e 4d3d 851b ac3c
00000220: c549 593d 28ca 0dbd e848 8dbe 5a8c 11bd
00000230: 4aeb 6dbe edc8 bdbd d6b0 1e3d 8281 a93d
00000240: f89c c53c 11ae e3bd 47aa 023e fd11 303e
00000250: 5a4f a7bc c9f0 21bd 3f42 66be d51a 84be
00000260: f9e2 2e3d 05c1 623d 17c8 d43d 037a abbd
00000270: ddaf b53d 51f4 49bd 8b53 67bd b37d c9bd
00000280: 5792 08be 27c3 3bbe adab c23d fe0a 85bb
00000290: 05f0 a63d c649 92bd 93c3 c53d 8f1d cebd
000002a0: 26b9 193e 6c90 953c 6ee3 fd3c 9c0b 66be
000002b0: e0be 3fbe 3837 30be 0366 3dbe a683 0f3d
000002c0: 1a8b f4bd 7456 62bc 135a ba3d 14e9 debd
000002d0: b852 debc ef25 1fbe e70e ebbc 1054 0bbe
000002e0: 0de4 3fbe 5ba3 c43d 520e dabc c36f 47bb
000002f0: 80d8 4a3e 657b 75bc 59cf f73d 60e9 7f3d
00000300: f48d e73d 3fc2 be3d 872c 86bd 0ef5 cc3d
00000310: be70 16bd d12f 7fbc 8c45 ae3d c368 e2be
00000320: 68cc 0d3c 6b5a d6bd 3758 403d ef93 38bd
00000330: 0670 28be 41d1 19be 34a3 3dbe 1b94 b93d
00000340: 0f48 c9bd a9f0 97bd 5dd5 8dbe 0986 99bb
00000350: dbec 04bd 19b8 96be 1c1a 04bb 05c5 09be
00000360: a0b7 1f3e 4f98 b0bc 7a4b cebd c6d1 2ebe
00000370: b3b6 c8bc 7124 06be 861d 2d39 e8f4 3bbe
00000380: 5658 c33c d0d9 13bd 91e3 b3bd b3a2 21bd
00000390: 77a5 6c3d cb4d e13d 9287 533b 2604 173e
000003a0: a2b9 0dbe cda9 ce3d 892b 133e a6fb 653c
000003b0: 055f 99bc 71b8 8e3c 09b0 a1bd 4631 8bbd
000003c0: 02ba 1bbe cbba cabe d736 e6bd 33ec 3fbe
000003d0: 49ab cf3d b355 ee3d 1757 e6bc f493 00bf
000003e0: 8c7d 87bc e7e2 16be ecf1 1bbd c3c8 a4bd
000003f0: 66a8 1abd 97ad 273d 6749 743d b94a aabd
0.0267643 0.040616356 -0.032949295 0.016902713 -0.013083148 -0.10339683 0.05977739 0.12169496
0.038461212 -0.19362752 -0.052710485 -0.04280123 0.027022714 -0.4435287 -0.13129379 0.017139623
0.026013894 -0.041661628 -0.17936404 -0.1827945 0.035781838 0.21247697 0.025582949 -0.14375259
-0.19683251 0.12850572 -0.062088214 -0.30318478 0.016670145 -0.038241863 0.06606457 0.19011013
0.05140812 -0.12349585 0.10358406 0.01642305 0.0082871355 -0.15439582 0.27373978 -0.10602625
-0.049186952 -0.008931842 0.1039012 0.03142463 0.20883675 -0.043803923 0.027419323 -0.2660057
-0.085410476 -0.1756731 -0.34896845 -0.07100432 0.04330811 -0.2166928 -0.108360015 0.037266403
0.19413538 -0.086899646 0.01734053 0.0081916265 0.18504255 -0.18661892 0.0870572 -0.44973484
0.13025042 0.11475898 0.12749706 -0.0939739 -0.048436996 -0.06613056 -0.23518626 -0.11443138
0.027102625 -0.15326095 0.09203162 -0.17066477 0.051255703 -0.031050067 -0.07393593 0.054937534
-0.23584256 -0.008179192 -0.0322697 -0.0552768 -0.021214347 0.062244862 -0.04279865 0.00609356
-0.063413866 -0.08079323 0.0070988596 -0.020713555 0.040592473 -0.13180818 -0.1949921 -0.22566165
-0.15843655 0.13139774 0.0040212506 0.1759033 -0.25882837 -0.24620622 -0.013462246 0.11547541
0.09751546 0.20047452 0.0012319669 -0.14419065 -0.24017835 -0.1493607 -0.041073702 -0.020574529
0.01611542 0.022736615 -0.22047554 0.06814744 0.03557104 -0.06899012 -0.19874819 -0.11186442
0.14836356 -0.023023728 0.027939156 -0.1650643 0.04107917 -0.20896043 -0.16296254 -0.26303014
0.20060714 0.07361868 -0.09078432 -0.036829986 -0.27208 -0.10102655 0.050062336 0.021009216
0.053048868 -0.03461662 -0.27594686 -0.03553424 -0.23234287 -0.09266839 0.038742863 0.08276655
0.0241227 -0.11117185 0.12760268 0.17194362 -0.02042358 -0.03953627 -0.22486208 -0.2580172
0.042696927 0.05535986 0.103897266 -0.08372881 0.08871434 -0.049305264 -0.056476157 -0.09838428
-0.13337074 -0.18336163 0.09505401 -0.0040601483 0.08151249 -0.071429774 0.096564434 -0.100642316
0.15012035 0.018257342 0.030992236 -0.22465366 -0.18725157 -0.17208564 -0.18495946 0.03503766
-0.11940594 -0.013814557 0.090992115 -0.108843 -0.027139053 -0.15541814 -0.02869363 -0.13606286
-0.18739338 0.0960147 -0.026618157 -0.0030431605 0.1980915 -0.014983033 0.12100095 0.062478423
0.11306372 0.09314393 -0.06551462 0.10007678 -0.036728613 -0.015575365 0.08509359 -0.44220552
0.008654691 -0.104664646 0.04695913 -0.045062955 -0.16448984 -0.1502123 -0.18519288 0.09061452
-0.09828197 -0.07418949 -0.27701846 -0.0046851677 -0.032452445 -0.2943733 -0.0020157164 -0.13454063
0.15597391 -0.021557001 -0.1007299 -0.1707221 -0.02450118 -0.13099839 0.00016509564 -0.18355143
0.023845833 -0.036096394 -0.08783639 -0.039461803 0.057774987 0.11001166 0.003227685 0.14747676
-0.13840345 0.10090981 0.14372076 0.014037048 -0.018722067 0.017421933 -0.07894904 -0.067965075
-0.15207675 -0.39595637 -0.112409286 -0.18742447 0.10140092 0.116374396 -0.0281177 -0.5022576
-0.016539358 -0.14734994 -0.03807251 -0.08046105 -0.037758254 0.040937033 0.059640314 -0.083150335

fp2.bias f4 [256]
00000000: 6796 04bd 66a6 53bd a822 a03c 3ef5 2bbe
00000010: aad4 3a3b 182f aa3d 28ac 8bbd dd77 373d
00000020: 5089 a3bd 7a6a a4bc 4b1a 7bbd 6c2f a33d
00000030: 94df 80bd e6dd 1bbc 8f24 7ebd aa2c 0abb
00000040: a3ef 16bc 671b fdbd 3b59 aa3c fd9b 1dbc
00000050: 7e27 ecbd aca9 89bd ae4e 21bd 84ae a8bd
00000060: ad67 833d e437 2cbd 5177 993c eb83 23bd
00000070: a5cf 9ebd 3467 0abe fb2e a83c 9f98 89bd
00000080: fde7 e0bc 1743 a53c 7003 e03b 943b 5bbc
00000090: 2ae3 cfbc 75f0 07be 003e 1bbe b0c4 b9bd
000000a0: 968d c7bd ffe3 303c c8ce 953d cd9f 223d
000000b0: 0692 f03c eefd 85bd 8097 9ebd 670c 21be
000000c0: f937 29be 35ed 41bc 644e 62bd c50a 00bc
000000d0: 7a67 d0bd 9967 5abd 70b2 093c 1486 293c
000000e0: 00f0 8ebc 76ad 26be 1096 14be 3181 443d
000000f0: 5521 d9bc 272e 8b3d 55b5 78bd fa5b c8bd
00000100: be0c a53d 7ba4 ebbd abbe bebb 74e3 c6bc
00000110: 921b c5bd 7c0c d03c d627 57ba fab1 e6bd
00000120: 1fb6 65bc 188f 89bd a7f3 f1bd 1049 4f3d
00000130: 0142 2d3e 3bc5 13be 1c3c 493c 980c 30bd
00000140: 8899 49bd 520b c0bd 6cc7 e4bd 0bc4 e93c
00000150: 1749 a8bc 200d d03e 2a4c febd 48c8 1ebb
00000160: 6d95 363e 4c92 063c 3475 b73b 2895 a338
00000170: 6da4 963c 3331 ac3b 65f4 533d d632 3dbd
00000180: 73c5 76bd 15d4 e13c c0b7 aabc 7b05 b3bd
00000190: 7da8 1cbe 0c97 213d dca2 1a3d eec4 c63b
000001a0: aad4 49bd 637b 9abd 6524 c73c e1ef 403d
000001b0: 3510 d8bd c25f 023d 57d1 c7bd e3fa 95bd
000001c0: ac7b 5fbb cdc8 0bbe 5640 af3d 22e1 9ebc
000001d0: 24e3 5c3c bfd9 013d 3d1a 9cbd 6661 1a3d
000001e0: 0222 03bd 7145 f33b 49b7 45bd 4505 433c
000001f0: 971c 6abd 6048 14bd ef70 833d 5287 c63d
00000200: a4f7 793d 6fe3 0abe 23e4 afbd 168e c1bd
00000210: 2996 00bd 2345 41bd 29e2 763c 929b b43c
00000220: f47d f7bd 92b8 b1bd e6d5 fd3c f116 6f3d
00000230: c936 013d c113 26bd c59b 65bd e0cd 01be
00000240: 699e ccbd ea1a e8bc d7ca 35bd aa40 4abd
00000250: a8b1 a3bd a790 823c acfd 14be 5c48 96bc
00000260: 5035 cfbc a4ff 93bc 3fdc cebc e352 1b3d
00000270: ae0e 523d f4ad aebc b8e2 0ebd 561d 25bc
00000280: 23e5 03be b844 c6bd fcf6 92bd c993 81bc
00000290: 7b39 48bc 3656 e4bd a41b 8cbd 38e4 f5bc
000002a0: be9b c6bd 8297 82bd 28c6 c0bd d49d 1bbe
000002b0: 4218 c1bd 1d6b 37be 4a8c fb3c 5490 573d
000002c0: 7fb3 23bc 24ea 023d 3178 8ebc c5e5 8bbb
000002d0: 0a16 c1bd c7cb 213c 3d44 80bd b894 a43d
000002e0: ecaa 57bd 81ed 92bc bfec a2bc f905 ac3b
000002f0: becc 56bd 41ef f7bc 7b31 0e3c 449f 92bd
00000300: bcb4 c5bd 453b 69bd d2cc 8cbd 5dca a0bc
00000310: d691 9fbd 9e5d 27bd c7f0 753b aafe 7d3d
00000320: 7cb4 2ebc 93f1 ffbd cad9 dfbc cff5 66bd
00000330: ed4f f2bd 2a26 97bd 25d4 22be 83b9 cbbc
00000340: 81b1 efbd af80 c6bd bece a8bd 1a1e 00be
00000350: 3319 e9bc b6c4 b83c 94ea d7bc 99d4 0d3d
00000360: 36d3 9cbd 75a1 5b3c bf3a f9bd ea2f 92bd
00000370: 8131 bdbc 37b3 04be dddf e63b 5348 63bc
00000380: 1370 223d 03e0 433c c323 293b 6b04 babd
00000390: 0604 1cbe 37a8 b93d 77c0 54bd b38b 04bc
000003a0: 8162 f3bd 6584 213b d73a a63c 5645 cabd
000003b0: 6abf 52bd d315 6ebd 75ca 5dbc 1393 5ebd
000003c0: 80bf 93bd e83d 583d 199a c2bd a46b c9bd
000003d0: 2b28 85bb 30e4 3ebd e053 0fbe 0e92 b5bb
000003e0: f303 c43c a1be a6bd ce30 50bd 85eb d7bd
000003f0: 1e35 3a3b ec44 b93a 25ac b3bd d356 ebba
-0.032369997 -0.05167236 0.019547775 -0.16792771 0.0028508105 0.08309764 -0.068199456 0.044792045
-0.07985175 -0.020070303 -0.06130437 0.079680294 -0.06292644 -0.009513354 -0.062046584 -0.002108375
-0.009212407 -0.12358742 0.020794502 -0.00961971 -0.1153097 -0.067218155 -0.039381675 -0.08236411
0.06416259 -0.04204549 0.018733652 -0.03992073 -0.07754449 -0.13515931 0.020530215 -0.06718563
-0.02745437 0.020173592 0.0068363473 -0.013380904 -0.025376875 -0.13275321 -0.1516037 -0.09070718
-0.09743802 0.010796546 0.07314831 0.03970318 0.029366504 -0.06542574 -0.0774374 -0.15727387
-0.16525258 -0.01183634 -0.05525054 -0.007815068 -0.101759866 -0.053321455 0.008404359 0.010346908
-0.017448425 -0.16277108 -0.1451037 0.04797477 -0.026505152 0.06795912 -0.060719807 -0.09783168
0.08059071 -0.115059815 -0.0058210692 -0.02427838 -0.09624399 0.025396578 -0.0008207535 -0.11264415
-0.014020472 -0.06716746 -0.11814051 0.050606787 0.1691971 -0.14430706 0.012282398 -0.04298076
-0.049218684 -0.09377159 -0.11170849 0.028535863 -0.020542664 0.40635014 -0.12416871 -0.0024228264
0.17830439 0.008213591 0.0055986885 7.800228e-05 0.018388951 0.0052548884 0.051746745 -0.04619106
-0.060246896 0.027566949 -0.020839572 -0.0874128 -0.15298648 0.03945069 0.03775297 0.0060659563
-0.049275078 -0.075430654 0.024309346 0.047103766 -0.10549966 0.031829603 -0.09756725 -0.073232435
-0.0034100814 -0.13650818 0.08557193 -0.019394461 0.013481889 0.0317018 -0.07622192 0.037690543
-0.032014854 0.0074240495 -0.048270497 0.011903112 -0.05715617 -0.036201835 0.06418025 0.09693779
0.061027184 -0.13563322 -0.085884355 -0.09450929 -0.031393204 -0.047185075 0.015068569 0.022046838
-0.120845705 -0.08677782 0.030985784 0.058371488 0.031546388 -0.040546183 -0.056056757 -0.12676191
-0.09991152 -0.028333146 -0.044382896 -0.049378075 -0.079928696 0.015938116 -0.14549893 -0.01834505
-0.025293976 -0.018066235 -0.025251506 0.037920844 0.05128353 -0.021323182 -0.034884185 -0.010077795
-0.12880377 -0.09681076 -0.07176015 -0.01581754 -0.012220736 -0.11149256 -0.068412095 -0.03001605
-0.09697674 -0.06376554 -0.09412795 -0.15196925 -0.09428455 -0.17911954 0.030706543 0.052627876
-0.009991526 0.031961575 -0.017391296 -0.004269334 -0.09428032 0.009875244 -0.062630154 0.08036178
-0.05265324 -0.017935516 -0.01988828 0.0052497354 -0.05244135 -0.030265452 0.008678789 -0.07159284
-0.09653613 -0.05694129 -0.06875004 -0.019627744 -0.07791488 -0.040860765 0.0037527548 0.062010445
-0.010663148 -0.124972485 -0.02732553 -0.056386765 -0.11831651 -0.07380326 -0.15901239 -0.024868732
-0.11703778 -0.09692513 -0.08242558 -0.12511483 -0.028454399 0.022554737 -0.026356973 0.034626577
-0.07657473 0.013405194 -0.12169408 -0.07138045 -0.023094894 -0.1295899 0.0070457296 -0.013872224
0.039657664 0.011955264 0.002580867 -0.09082874 -0.1523591 0.090652876 -0.05194136 -0.0080899475
-0.118840225 0.0024645564 0.020291729 -0.09876506 -0.051452078 -0.058126282 -0.013537039 -0.05433948
-0.0721426 0.052793413 -0.09502048 -0.09834984 -0.0040636263 -0.046604335 -0.1399684 -0.0055410927
0.023927664 -0.08141828 -0.050827794 -0.10542969 0.0028413008 0.001413492 -0.08773068 -0.0017954953

head_values.weight f4 [1, 256]
00000000: cc27 433e 8d6f e4bc edba 0f3d 31bd d8bd
00000010: 6dcf 843e a666 123e 16cf 5fbd 5465 9b3e
00000020: 4f40 bf3c dc2d 203e 485a 90be a22a df3d
00000030: a349 7e3e 2463 d03d eae4 453e 6c78 5d3e
00000040: 4a5f 7f3e c30c 09be 65e3 48be 566e d2bd
00000050: 6646 bf3c 37a3 f43c b84a 9b3c 0e90 b6bd
00000060: 9465 933d ffb5 5d3d 0d18 7dbc c28f 043e
00000070: 2773 05be d021 febd 3ced 2dbd bcd5 8ebd
00000080: 9135 0c3e 5620 12be 9832 c13d 1455 97bc
00000090: d3a7 0c3e 0fa0 843e a6b1 2abe 558e 4b3d
000000a0: b672 ed3c 3c25 9b3d 9d72 253e 1eb6 263d
000000b0: d5ff 4bbe db1a e73c 3cb0 003e f01e 59be
000000c0: a5c1 773d d5f1 a23d 2ebe a9bd db80 0bbc
000000d0: cf37 5dbe 35f8 4b3e 3ca2 b4bd 9706 073e
000000e0: 7703 313e 546b eebc 2c90 763e a6f0 523e
000000f0: 0ebf 7cbd 03d1 b93d ec24 e3bd c98b 1f3e
00000100: 7b80 4a3e 008d f6bd 65ea 58be 3d43 fd3d
00000110: 5047 893b 870d 3dbc 1afd 98be f931 913e
00000120: 7cff 90bd 9deb 103e 1c93 ddbd 8490 673e
00000130: 9997 0c3e 8f89 62bd 1474 a93c 92c0 ad3e
00000140: ae17 1abd 833f 483d ff75 78bd e18f 9dbd
00000150: 2d11 72bd 38fa 733e b2c1 613e 07fc c1bd
00000160: 7fbf 123e 58b5 b03e 2104 ce3e 850c d0bd
00000170: 46b4 85bc 4cf4 b53d a336 653d 24fe 9a3e
00000180: 688e 7fbd bb11 cf3d ab76 6c3e bdf2 19be
00000190: 1fcc aabd cd7f bc3d 0a81 0e3d 9b62 c8bd
000001a0: 0932 32be 265f 8c3e 5a0f a53d 9de3 823e
000001b0: 12fb 0dbe 0a8b 63be 4141 cbbc cac6 a53e
000001c0: 10be 273e aad8 0b3d a43b 893e 532c 6b3e
000001d0: 2e63 93be 24f3 2ebd 5325 043d 2902 403e
000001e0: ca2e 3a3d 4c32 81be bc4a 03bd 62f7 013e
000001f0: f617 45bd 98c1 943d 3e6c bd3c 8a2a 103e
00000200: 71e4 913e 64e1 afbc ac1d 4cbe fa89 7abd
00000210: be34 013e 6bc7 c5bd 4d24 8c3d a7f6 b33d
00000220: 49f6 36bd 44e1 8cbe c447 17bf 4061 ea3c
00000230: 4f0a 9a3d 6873 2abe 1f0c 043e bb60 083e
00000240: 9195 b3bd db05 863e 52a4 33be d77c 803e
00000250: f146 563e b9e5 1e3e bd8c c6bd 4620 1a3d
00000260: 5fd1 96be a8be b43d cecc be3d e2aa 7b3e
00000270: 1ee5 303e 733b 28bd f1b5 453b 0eca e8ba
00000280: e9e8 b03d 8a22 0bbd 25d0 16bd 76ee aebd
00000290: 68d4 34bc 3afb 5ebe c1f0 4c3b e17a 21be
000002a0: 3dcb a5bc 1088 82be 6257 583d 5245 0e3d
000002b0: 8fe3 9a3e 3207 80bd 66d6 8fbe ec0e 193e
000002c0: 3f0b da3e 5fce a73e 6749 d13d 8f5c 52be
000002d0: 0238 e13d 9c17 f03d a51a 64bd e8b7 2e3d
000002e0: 3fc0 c73d 5f6e 86be 3ec5 1d3e 25f9 f33b
000002f0: f05a 8abe 592e a53e 7985 1abe 1c38 9bbd
00000300: 4036 143e 009b b93a f200 093e d5c8 4fbc
00000310: 55da 37bd 1ca3 2f3e 0ad0 473e 0b9b 9f3e
00000320: b212 37bd 967a 11be 6e60 953e bc02 fe3d
00000330: e2bc f03c ac94 683e 64cd 683e e311 a2bd
00000340: 2c44 b03d ec75 c13c 64ed a1bd dfe5 95be
00000350: ad73 a13d 893d cf3d ee27 853d 98e2 0e3e
00000360: e047 d5bd 429c f43d 8f7d cf3d 6fb1 a5bc
00000370: 76b6 8e3c 0e74 febd 36e8 61ba 7121 f6bc
00000380: c5d7 793e 775a 913e 9522 71be f42e 503e
00000390: ebd8 0fbe 7553 22bd 921a a33c c79c 063d
000003a0: 757b c23d a3ba 20be 9c7d bb3e 2957 5e3e
000003b0: faa5 693e f5b5 2cbe b0e6 123e 9bca 483e
000003c0: 956b bb3c af7b 333d aa03 7a3d 1cf7 2abd
000003d0: feb0 b3be 22d3 283e 9648 103d 843f 7e3d
000003e0: edea 993d 926b 92be c783 29bc dab6 b1bb
000003f0: dc86 453e 1f8d 213b 02de 543e d20a 213e
0.1905815 -0.027885223 0.035090376 -0.105829604 0.25939503 0.1429697 -0.054640852 0.30350745
0.023346094 0.15642494 -0.2819388 0.108968034 0.24832778 0.101751596 0.19325605 0.21627969
0.24938694 -0.13383774 -0.19617994 -0.10274951 0.023348998 0.029862983 0.018956527 -0.08914195
0.07197109 0.054128643 -0.015447629 0.12945464 -0.13032208 -0.12408793 -0.042462572 -0.0697436
0.13692309 -0.14270148 0.09433478 -0.018473186 0.13735895 0.25903365 -0.1666933 0.049696285
0.028985362 0.07575461 0.16157003 0.040701024 -0.19921811 0.028211048 0.12567228 -0.21203208
0.06048741 0.07956282 -0.08288227 -0.008514608 -0.2160332 0.19918902 -0.08820006 0.13186108
0.17286478 -0.029103912 0.24078435 0.20599613 -0.06170564 0.09073069 -0.11091027 0.15580668
0.19775574 -0.12038612 -0.21183164 0.1236634 0.0041894093 -0.01153887 -0.298806 0.2835844
-0.0707998 0.1415238 -0.108190745 0.22613722 0.13729705 -0.055306967 0.020685233 0.33935982
-0.03762024 0.048888694 -0.060659405 -0.07693458 -0.05909841 0.2382592 0.22046545 -0.094718985
0.14330862 0.34513354 0.40237525 -0.10158638 -0.016321313 0.088844866 0.05596031 0.3027202
-0.06239167 0.10110804 0.23092143 -0.15034004 -0.08339714 0.092040636 0.03479103 -0.097844325
-0.174019 0.27416342 0.08059569 0.2556428 -0.13865307 -0.22221008 -0.024811389 0.32378227
0.16381097 0.034142174 0.26803315 0.22966127 -0.28786606 -0.042712346 0.032262158 0.18750824
0.045454778 -0.25233686 -0.032053694 0.12692025 -0.048118554 0.072634876 0.023122903 0.14078727
0.284946 -0.02146978 -0.19933194 -0.06116674 0.12617776 -0.096571766 0.06842861 0.087872796
-0.04466847 -0.27515614 -0.5909388 0.028610826 0.075214975 -0.16645586 0.12895249 0.1331815
-0.08768762 0.26176342 -0.17543152 0.25095245 0.209255 0.1551732 -0.096948124 0.037628435
-0.29456612 0.08825427 0.09316407 0.24576905 0.17274901 -0.04107232 0.003016826 -0.0017760412
0.08638174 -0.033968486 -0.036819596 -0.085415766 -0.01103697 -0.21775523 0.003127143 -0.15769531
-0.020238513 -0.25494432 0.05281771 0.034734078 0.30251738 -0.062513724 -0.2809326 0.14947098
0.42586705 0.32774636 0.102190785 -0.20543121 0.10997011 0.11723253 -0.055689473 0.042655855
0.09753465 -0.2625608 0.15407273 0.007445472 -0.27022505 0.32261923 -0.15089978 -0.075790614
0.1447382 0.0014160573 0.13379267 -0.012682159 -0.044885952 0.17152065 0.19512954 0.31172976
-0.044695564 -0.14206919 0.29175133 0.12402865 0.029386941 0.22712964 0.227346 -0.07913568
0.08606753 0.0236158 -0.07906607 -0.2927694 0.078833915 0.10119159 0.065017566 0.13953626
-0.104141 0.11943866 0.1013137 -0.020226208 0.017420989 -0.124244794 -0.0008617671 -0.030045243
0.24398716 0.28389332 -0.23548348 0.20330411 -0.14047591 -0.039630372 0.01991013 0.03286436
0.09496204 -0.15696196 0.3661927 0.21712936 0.22817221 -0.16866286 0.14345813 0.19608538
0.022878448 0.043819126 0.06103865 -0.041739568 -0.35095972 0.16486791 0.035225473 0.062072292
0.07515512 -0.28597695 -0.01034636 -0.005423409 0.19289726 0.0024650765 0.20787814 0.15726784

head_advantages.weight f4 [4, 256]
00000000: 1a92 8b3d c694 1b3c 2499 0dbe 775f 953d
00000010: 712e 19be 6083 033a 10e2 883d a5eb d83d
00000020: e98b a8bd b26c 85bd 8ba2 c6bd 8c7a a6bc
00000030: 0d51 3b3d 3589 72bc 950e 08bd bab7 873d
00000040: 8ea2 4cbd 679e 3f3d 95d7 44be 66d6 8dbd
00000050: 6b46 0cbd 6be4 1ebe f477 12be 06ad 32be
00000060: b2db 77bd 630a c3bd 3db0 31bd 1a34 19be
00000070: 7a47 e43a 09fb 7bbe ef89 24bd 7029 b8bd
00000080: ac5a 1c3e ce6e 96bd ce50 b5bd 9a43 713c
00000090: 5ba1 dcbc 07de da3d ec59 0c3d 857a 903c
000000a0: 6513 3e3b f763 a0bd 8c35 a9bd 07ef 27be
000000b0: dd5c 563e 9d13 94bd f68c 59bd 2d9d 303e
000000c0: 332b e4bd 5bc6 293c 718c 7cbe a6ea 5cbd
000000d0: fa64 a73d 7988 783c 7941 073d e660 8dbc
000000e0: e538 8b3c e2b5 c03d facc af3d 919c cd3d
000000f0: 4a5c c33d d7c6 f7bc 4b2e 0c3c 731f 273d
00000100: fbb2 a63d 3787 cc3d 4419 193e 3cfa 5a3e
00000110: 6561 063d 2075 aebd 5766 1d3e 7339 463d
00000120: f482 97bd f6de 99bd 4982 c83d 555c 5a3e
00000130: a9e8 03bd c950 0cbd a19c c1bd 3d9b 5abe
00000140: d31d 44bc 13cc 0bbe 7568 1bbe 198e af3c
00000150: a18a 143e 9c84 66bd 8b95 58bb 7185 0f3e
00000160: 8a75 a53d 7e80 cd3d a5c2 cb3e d27f 6a3d
00000170: 8326 a73b 3d1a 1cbd 2a24 ebbd 652d b63d
00000180: 416f 8fbd 524f 34bd 92f8 c8bc a530 463d
00000190: 8cb1 e1bd 8cfd 52bd 351f a9bd c080 6a3b
000001a0: b2b3 02be 5bfd 57bd cb57 003e d03a 72bb
000001b0: 56d1 5fbc cbcf 98bd 540b 73bd 8414 3b3e
000001c0: 4323 90be 2ea0 30bd 374b bdbd 677d 0abe
000001d0: b9ae 66bd 80ec 233e fa64 10bd be3b eabc
000001e0: ecd0 ccbc 5c35 d43d d39a b73d 37cd 83bc
000001f0: 1ec0 443e e871 28bc 38a5 293d 2d2a e23d
00000200: 4433 9f3d dd59 bcbd 89f1 66be c966 4bbe
00000210: 17b5 8ebd de0d 46bd f339 36bd 707b 943d
00000220: 493e 8a3d d2e9 36be 2336 283d 7f99 27bd
00000230: 46cb 883b b39d 653e 4e92 e1bc 9016 0e3c
00000240: d6e0 2bbc ad13 4a3e b299 a13d b07f b038
00000250: 8e84 74bd e079 a3bd 0c0e a3bc f991 0a3d
00000260: 02dc 9e3e 8f5f 793d 70e6 6fbc 6e1c 58be
00000270: 36ca 0cbc 36c2 5b3e 2705 9d3d b0a8 7c3e
00000280: bc4d acbd 9f8b 3cbd c57e 05be 7642 e03d
00000290: 939f 7ebd a6db a83d f217 7ebd 7d92 033d
000002a0: f4d2 a1bd 3440 5c3e db25 dd3c ebb8 ecbd
000002b0: 6ce7 073e bc19 133e 2f7e 02be 9f4a 683d
000002c0: 91e5 e6be 0527 553e 793e 91bd a05c 3f3d
000002d0: 7d09 a8bd 307f 2b3d c639 a9bc f3ab 4dbc
000002e0: bbfa 4abd 08bc 72be fc02 1a3e 070a 253e
000002f0: ace2 04be 9eb4 84bd 62b2 193d ecf7 363e
00000300: d518 6cbd 0096 26be 3b52 a33d 5e7b 183d
00000310: 18d7 273d 500f be3d 9cb7 f13d 96ca 7dbe
00000320: e147 de3d 5ebd 0c3e 3ae5 c3bd 8acf 8b3d
00000330: 93ab 1abb fcd3 1bbe 7278 bcbd 6c76 7fbe
00000340: e663 fcbd 4242 a1bd f804 c23b 0768 b5be
00000350: 6c64 173a b092 abbd 8b95 cdbd c269 43bd
00000360: 6736 c9bd 8f4f 3bbc 6795 993d a022 2ebe
00000370: 5a44 c0ba c33e b0be 9dc6 9b3d e01f 95be
00000380: ed1f c03d 762d 473e bc08 fbbd c8a6 62bc
00000390: c5d4 94bd 6873 76bd 0203 1dbe b3e4 d73c
000003a0: 0402 1ebe 1330 e93c 74fe e7be 5047 e6bd
000003b0: 67c0 193e d9ea 6c3e 3357 b4bc 39e5 adbb
000003c0: 5f36 c9bc 522d a2bd 1f12 13bd e7cf e73c
000003d0: f79f 4abe 9a41 043e efbe b5bd 2d03 ee3c
000003e0: 9f0a d0bd bb70 2f3e 2f68 3abd b017 17bd
000003f0: e980 923b 316a 83be 9d8a ed3b 9465 0cbd
0.06814976 0.00949592 -0.1382795 0.07293599 -0.14959122 0.000501683 0.06683743 0.105918206
-0.08229811 -0.065148726 -0.09698971 -0.020322107 0.045731593 -0.0148032205 -0.03321703 0.0662684
-0.04995971 0.046781924 -0.19222863 -0.06925659 -0.034246843 -0.15516822 -0.14303571 -0.17448816
-0.060512252 -0.095234655 -0.043380965 -0.14961281 0.0017416321 -0.24607481 -0.040170606 -0.089922786
0.15268964 -0.07345353 -0.08853303 0.01472559 -0.026932409 0.106868796 0.034265444 0.017636547
0.002900326 -0.07831567 -0.082621664 -0.16399775 0.20933862 -0.072303034 -0.053112946 0.17247458
-0.11141052 0.010362233 -0.24662949 -0.053934716 0.081735566 0.015169256 0.033021424 -0.017258119
0.016994903 0.094096914 0.08584018 0.10039628 0.09539087 -0.030246181 0.008555959 0.040801477
0.081396066 0.09986728 0.14951044 0.2138452 0.032807726 -0.085184336 0.15371071 0.04839463
-0.07398024 -0.075132295 0.09790475 0.21324284 -0.032204304 -0.03425673 -0.09453703 -0.21348281
-0.011970001 -0.13652067 -0.15176566 0.021430062 0.14506008 -0.05627881 -0.003304812 0.14015748
0.080790594 0.100342736 0.3979694 0.057250805 0.0051010265 -0.03811096 -0.11481507 0.08895377
-0.07003642 -0.04402096 -0.02453259 0.048386235 -0.110201925 -0.051511332 -0.082579054 0.0035782307
-0.12763861 -0.052731853 0.1253349 -0.0036961325 -0.013660749 -0.07461508 -0.059336975 0.18269545
-0.28151903 -0.04312151 -0.09242862 -0.135244 -0.056318972 0.16008186 -0.03525255 -0.02859294
-0.025001965 0.1036174 0.08965077 -0.016089065 0.19213912 -0.010281064 0.04141733 0.11043201
0.0777345 -0.091968276 -0.22553076 -0.19863428 -0.06968134 -0.04835307 -0.04448886 0.07250106
0.06750161 -0.17862633 0.041067254 -0.04091787 0.0041746227 0.22423439 -0.027535584 0.0086723715
-0.010490617 0.19734068 0.07890643 8.4161176e-05 -0.059696727 -0.0798223 -0.019904159 0.033830617
0.31027228 0.060882147 -0.014642343 -0.21104595 -0.008593133 0.21460804 0.07666998 0.24673724
-0.08413264 -0.04603159 -0.1303664 0.109501764 -0.0621639 0.082450196 -0.062034555 0.032122124
-0.07901564 0.21508867 0.02699559 -0.11558708 0.13271874 0.14365286 -0.12743448 0.05671179
-0.4509702 0.20815666 -0.07091994 0.046719193 -0.08204935 0.041869342 -0.020657431 -0.012553203
-0.04955552 -0.2370454 0.15040201 0.16117106 -0.12977093 -0.064797625 0.037523635 0.17868012
-0.05764087 -0.16268158 0.079746686 0.037227027 0.040976614 0.092802644 0.11802599 -0.24784312
0.108535536 0.13744113 -0.09565206 0.06826694 -0.0023600801 -0.15217584 -0.092026606 -0.24947518
-0.123237416 -0.07873966 0.0059210025 -0.3543093 0.0005775157 -0.08377588 -0.10038289 -0.04770828
-0.098248295 -0.011432542 0.07499199 -0.17005396 -0.0014668808 -0.34422883 0.07606242 -0.2912588
0.09381089 0.19450936 -0.12257525 -0.013833709 -0.07267145 -0.060168654 -0.15333179 0.02635417
-0.15430456 0.028465306 -0.4531132 -0.112440705 0.15014802 0.23136462 -0.022014236 -0.0053068665
-0.024562059 -0.079188004 -0.035905953 0.028297378 -0.19787584 0.1291565 -0.08874308 0.029054249
-0.10158276 0.17132847 -0.045509513 -0.036887825 0.0044709337 -0.25666955 0.00724919 -0.03427656

head_advantages.bias f4 [4]
00000000: bff7 983b d488 7cbc 113c 7c3b 47a1 b1bb
0.0046682055 -0.015413482 0.003848795 -0.005420837
