models/ddqn.pth (torch_old, 156597 bytes, 6 tensors)

fp1.weight f4 [128, 37]
0.022056555 0.078190126 -0.16698736 -0.18229918 -0.2390736 0.059144806 0.014097399 0.0121738175
-0.02777559 -0.014871333 -0.14207377 -0.1723731 0.08493712 -0.18768682 -0.43519518 0.09736206
0.03317158 -0.077055186 -0.06819858 -0.07558213 0.003897413 0.10503573 -0.10098388 0.28714544
-0.4084248 -0.00056146685 0.21807353 -0.26645377 -0.06851917 -0.020738263 -0.21254927 0.27471885
-0.11625541 -0.072485104 -0.17159931 -0.25591788 -0.043766294 0.09745775 -0.02152745 0.05296981
-0.03518951 -0.27244517 -0.026510958 -0.24307202 -0.14304899 -0.20961371 0.34570578 0.10533253
-0.3035549 -0.11483929 0.11250913 0.023843924 -0.12597683 0.12468744 0.018059807 -0.094906226
-0.07619127 -0.2613811 -0.21944542 -0.1322914 0.08145068 0.0045640003 -0.15217626 0.10492767
-0.011310191 -0.42050532 0.017866602 -0.03904674 -0.1581982 0.23306094 -0.29579014 -0.015234752
0.10882036 0.04098768 0.22813389 0.2239355 -0.15050949 -0.32873255 0.3087635 -0.5645585
-0.06460712 0.26563233 -0.004409556 -0.31591538 0.11375701 -0.16222984 -0.083620556 0.02755137
-0.035583787 -0.15817311 0.06974299 0.1392028 -0.035610262 -0.048332114 -0.2063807 -0.39337945
0.14883742 0.13036121 -0.34049672 -0.08899861 0.12343582 0.30572987 -0.32057965 -0.17745295
-0.2846868 -0.023185462 -0.05865006 -0.070904136 -0.23170076 0.0020752763 -0.023798661 0.4214663
-0.53445756 -0.11503862 -0.24797557 -1.8780464 0.02426566 0.033056863 0.01592543 0.15258047
0.079884365 0.0007947072 -0.037935793 0.08906549 -0.025943957 -0.0046601645 -0.04572885 0.023804432
-0.036949225 -0.03880263 -0.19254531 0.026578669 -0.0407823 0.012206282 0.121887006 -0.014260144
-0.0147872595 0.13680951 0.033808883 0.21021542 0.30538738 0.06961249 0.11228663 0.10308927
0.095229216 -0.056156073 0.028903188 -0.0030383123 -0.012571542 -0.12709942 -0.13943544 -0.2932667
-0.3140011 0.07150582 -0.31663367 0.00038224744 -0.04997124 -0.42610025 -0.27972606 0.026621262
0.0792088 -0.16801904 -0.4200052 -0.06738143 -0.20496775 0.098378204 -0.31623867 -0.0032657005
-0.66989684 0.107767254 0.292586 -0.17027462 -0.33432657 -0.02576255 -0.44334435 0.27125973
-0.15483952 -0.10890254 0.23977159 -0.07578761 0.013134513 -0.5310153 0.2962226 -0.009805472
0.024309529 -0.08460094 -0.11205178 0.0730207 -0.0029434226 0.12270085 0.2423875 -0.27516073
-0.277331 -0.30619645 -1.5435532 -0.1503584 -0.13675058 0.08501631 -0.1210253 0.052554417
-0.05263027 0.10056089 -0.026409533 -0.1416015 0.04932361 -0.0045977095 -0.038020507 0.04025047
0.28601027 0.05891768 -0.047771983 -0.056208126 0.08349845 -0.04617795 0.09813788 -0.05218173
-0.04215801 -0.05151732 0.20410278 -0.106971994 0.059814185 0.04180785 0.18078683 -0.02309416
-0.17566265 -0.032222632 -0.50214255 -0.07467521 -0.10516262 0.0037919902 0.18501867 0.19412594
-0.02767165 0.25419384 0.011114267 0.03248725 0.25105894 -0.018015807 -0.11973031 0.088428155
-0.04720627 0.4045314 -0.13999997 0.046111275 0.09597644 -0.03151102 0.19967416 -0.18578261
-0.007865483 0.0815559 -0.13639005 0.08537177 0.14597066 0.024238046 -0.11887248 -0.17584544
00000000: f3af b43c 2522 a03d bcfe 2abe a3ac 3abe
00000010: b6cf 74be d341 723d c7f8 663c b174 473c
00000020: a289 e3bc e4a6 73bc c97b 11be 9382 30be
00000030: 83f3 ad3d f930 40be e7d1 debe c265 c73d
00000040: ecde 073d 1ccf 9dbd b2ab 8bbd ceca 9abd
00000050: bd6b 7f3b f91c d73d a3d0 cebd ba04 933e
00000060: 0e1d d1be 672f 13ba ab4e 5f3e a16c 88be
00000070: c753 8cbd 4ae3 a9bc 84a6 59be f3a7 8c3e
00000080: 5117 eebd 1273 94bd bbb7 2fbe ab07 83be
00000090: 4944 33bd ee97 c73d 565a b0bc dff6 583d
000000a0: e022 10bd ef7d 8bbe 822d d9bc dfe7 78be
000000b0: 6f7b 12be faa4 56be 5900 b13e 95b8 d73d
000000c0: 8c6b 9bbe dd30 ebbd 306b e63d 5554 c33c
000000d0: 1200 01be 215c ff3d 29f2 933c 325e c2bd
000000e0: 2b0a 9cbd bed3 85be 4db6 60be 6677 07be
000000f0: 9dcf a63d 9c8d 953b 18d4 1bbe 51e4 d63d
00000100: 614e 39bc 794c d7be fb5c 923c 79ef 1fbd
00000110: b5fe 21be 87a7 6e3e ce71 97be 2e9b 79bc
00000120: 35dd de3d b3e2 273d ee9b 693e 594f 653e
00000130: 291f 1abe a24f a8be 4016 9e3e e886 10bf
00000140: bd50 84bd f600 883e 097e 90bb a9bf a1be
00000150: 6ff9 e83d 941f 26be 4141 abbd 69b3 e13c
00000160: 4ec0 11bd 22f8 21be 6ad5 8e3d 2e8b 0e3e
00000170: 11dc 11bd e5f7 45bd 7655 53be 0869 c9be
00000180: d668 183e 697d 053e 9655 aebe e744 b6bd
00000190: ebcb fc3d a088 9c3e 0423 a4be 3ab6 35be
000001a0: 78c2 91be 70ef bdbc 0c3b 70bd 3036 91bd
000001b0: f742 6dbe 5c01 083b 69f5 c2bc 6eca d73e
000001c0: 36d2 08bf 5e99 ebbd 4fed 7dbe d363 f0bf
000001d0: c7c8 c63c a266 073d 0c76 823c 0e3e 1c3e
000001e0: 6a9a a33d e653 503a 9062 1bbd f867 b63d
000001f0: 6c88 d4bc 4bb4 98bb 2d4e 3bbd 8301 c33c
00000200: 1258 17bd 82ef 1ebd 992a 45be 82bb d93c
00000210: 570b 27bd dbfc 473c e59f f93d 61a3 69bc
00000220: 4346 72bc cb17 0c3e 2f7b 0a3d b642 573e
00000230: bc5b 9c3e fe90 8e3d 88f6 e53d 7820 d33d
00000240: 8907 c33d e903 66bd 61c6 ec3c 6c1e 47bb
00000250: def8 4dbc 5a26 02be 2ac8 0ebe 0e27 96be
00000260: c1c4 a0be a571 923d cf1d a2be 6268 c839
00000270: a5ae 4cbd d029 dabe 4138 8fbe d514 da3c
00000280: 3938 a23d 2f0d 2cbe ec0a d7be 46ff 89bd
00000290: 11e3 51be 837a c93d 09ea a1be 5d05 56bb
000002a0: 5c7e 2bbf 14b5 dc3d d5cd 953e 785c 2ebe
000002b0: da2c abbe fc0b d3bc 08fe e2be 8ee2 8a3e
000002c0: 408e 1ebe 4b08 dfbd af86 753e 8936 9bbd
000002d0: 2432 573c 9ef0 07bf 7daa 973e 21a7 20bc
000002e0: c724 c73c 4243 adbd 677b e5bd e08b 953d
000002f0: 70e6 40bb 954a fb3d 6e34 783e dee1 8cbe
00000300: 54fe 8dbe c8c5 9cbe 2793 c5bf 8df7 19be
00000310: 5808 0cbe 081d ae3d 1ddc f7bd 4d43 573d
00000320: d792 57bd def2 cd3d ce58 d8bc fcff 10be
00000330: 8e07 4a3d 62a8 96bb 64bb 1bbd addd 243d
00000340: f06f 923e aa53 713d 8eac 43bd 7e3a 66bd
00000350: 3c01 ab3d 1725 3dbd 83fc c83d 82bc 55bd
00000360: e1ad 2cbd d303 53bd 5200 513e 2214 dbbd
00000370: b8ff 743d b53e 2b3d 2f20 393e f72f bdbc
00000380: e9e0 33be e1fb 03bd 6a8c 00bf 51ef 98bd
00000390: 805f d7bd 0a83 783b 8975 3d3e f3c8 463e
000003a0: a8af e2bc b225 823e 9d18 363c 5a11 053d
000003b0: cc8a 803e e395 93bc 2a35 f5bd d219 b53d
000003c0: 5d5b 41bd bd1e cf3e 275c 0fbe 2ddf 3c3d
000003d0: 4c8f c43d b311 01bd 6277 4c3e cc3d 3ebe
000003e0: 3ade 00bc c806 a73d d5a9 0bbe 65d7 ae3d
000003f0: 5579 153e de8e c63c 6a73 f3bd d410 34be

fp1.bias f4 [128]
-0.029024636 -0.06347643 -0.048229545 0.02451389 0.030575316 -0.11566087 0.12803654 0.10643462
-0.14041783 0.03030398 -0.07209821 -0.07864833 -0.025744108 -0.056580674 -0.17638727 -0.039844546
0.0601212 -0.029904403 -0.053800073 -0.049967628 -0.12828879 0.032470495 0.120005906 -0.046409573
0.011316535 0.22122353 0.12145915 0.013360487 -0.084074385 -0.028781006 0.120230824 0.13702805
-0.0843599 0.030527182 -0.06688054 -0.17975296 0.013541503 0.10377867 0.02647734 -0.021162093
0.045281906 0.15276317 0.08585678 0.054391593 0.045447282 -0.08878691 0.066504225 -0.07017906
-0.055758677 -0.0015457531 0.054240845 0.010357367 0.055085182 0.036223046 -0.042047236 0.069189705
-0.17075478 -0.006351428 0.06846534 -0.07299958 -0.08346075 0.08597176 0.09498613 -0.06791551
0.1861616 -0.016746927 0.079881854 -0.0989848 -0.14823483 -0.08441656 0.011037718 -0.03569256
0.12383571 -0.12996686 -0.15294369 -0.025455765 0.21855532 -0.16927473 0.088108875 -0.040932234
-0.034479897 0.115855634 0.10942363 -0.05225804 -0.0021314907 0.19955589 0.061377306 -0.019911898
-0.0532518 0.0444842 0.10200031 -0.051365215 -0.11093213 -0.14136711 -0.023312327 0.1374242
-0.093385905 -0.20165992 -0.074448206 0.11060329 -0.14210312 -0.1805192 0.13391036 0.118804
-0.16536646 -0.2178768 -0.09676347 0.08910067 -0.15649131 -0.01447509 0.11191713 -0.09514217
-0.11129923 -0.08425186 0.04204957 0.120867595 0.110014275 0.15894458 0.0882532 0.054287672
-0.008472729 0.024227941 -0.08279677 -0.080957375 -0.028606609 0.025944887 0.078396454 0.029734418
00000000: 13c5 edbc eeff 81bd 588c 45bd 5ad1 c83c
00000010: 1679 fa3c 9bdf ecbd 031c 033e 65fa d93d
00000020: b1c9 0fbe 0d40 f83c 3aa8 93bd 6012 a1bd
00000030: 4fe5 d2bc 23c1 67bd dd9e 34be 0934 23bd
00000040: a641 763d 14fa f4bc 775d 5cbd dbaa 4cbd
00000050: 235e 03be c8ff 043d a8c5 f53d f717 3ebd
00000060: fd68 393c 6c88 623e 93bf f83d f2e5 5a3c
00000070: 312f acbd 25c6 ebbc 943b f63d 1551 0c3e
00000080: e2c4 acbd 2414 fa3c aaf8 88bd 2911 38be
00000090: 2edd 5d3c e989 d43d 02e7 d83c 205c adbc
000000a0: 8579 393d f36d 1c3e aed5 af3d b8c9 5e3d
000000b0: ee26 3a3d e9d5 b5bd 5e33 883d 0aba 8fbd
000000c0: 3663 64bd de9a caba a62b 5e3d f2b1 293c
000000d0: 00a1 613d 9e5e 143d b939 2cbd 55b3 8d3d
000000e0: 57da 2ebe a41f d0bb 8e37 8c3d ce80 95bd
000000f0: 78ed aabd f611 b03d 1788 c23d 4917 8bbd
00000100: 25a1 3e3e da30 89bc 1999 a33d 8bb8 cabd
00000110: dfca 17be 97e2 acbd 8bd7 343c 5d32 12bd
00000120: 949d fd3d 0816 05be 459d 1cbe 9c88 d0bc
00000130: f7cc 5f3e 5b56 2dbe 6d72 b43d 8fa8 27bd
00000140: cb3a 0dbd b845 ed3d 7f19 e03d 870c 56bd
00000150: 7bb0 0bbb 6158 4c3e c566 7b3d 471e a3bc
00000160: 8f1e 5abd 1135 363d 8ae5 d03d 5564 52bd
00000170: 6230 e3bd 8ac2 10be 7ef9 bebc eeb8 0c3e
00000180: 1c41 bfbd f07f 4ebe 4d78 98bd fa83 e23d
00000190: 7b83 11be 06da 38be cc1f 093e 834f f33d
000001a0: d355 29be 191b 5fbe ed2b c6bd 697a b63d
000001b0: 423f 20be ee28 6dbc cf34 e53d e6d9 c2bd
000001c0: daf0 e3bd 3d8c acbd 2b3c 2c3d 6e89 f73d
000001d0: 2a4f e13d 5ec2 223e 18be b43d c05c 5e3d
000001e0: 33d1 0abc ad79 c63c 5a91 a9bd fbcc a5bd
000001f0: 6858 eabc 5f8a d43c 528e a03d 9895 f33c

fp2.weight f4 [256, 128]
-0.080549814 -0.20455141 -0.10894906 0.24453266 0.23901793 0.005080658 0.0017194606 0.08516481
0.13571185 -0.049408406 0.0885878 0.03813784 -0.12877738 0.09779914 -0.07903409 -0.1132568
0.07084033 -0.25569615 -0.16264357 -0.1249657 -0.10319617 -0.14339472 -0.25627473 -0.31458175
-0.23889418 0.025771592 -0.10807197 0.08804062 0.12628964 -0.040629067 -0.11426926 -0.013435308
-0.071849935 -0.059212748 -0.0508366 -0.057750855 0.09075096 -0.17724824 0.11627849 -0.027399506
0.06030304 -0.22462057 -0.21645862 0.0018758631 -0.098777235 -0.109415345 -0.08907474 -0.022526035
0.0069931815 -0.18086952 -0.008831496 -0.08495897 -0.30881286 -0.23463693 0.011519713 -0.2683481
-0.10056599 -0.2687072 0.10758287 -0.048173543 -0.14007723 -0.22662103 0.07572162 -0.016188556
-0.03687104 0.031239398 0.005101816 -0.09671507 -0.04655943 0.070365824 -0.07345369 0.1262627
0.018550698 0.049940087 0.07176787 0.046859857 -0.16498524 0.2654666 0.11284632 -0.120001815
-0.13382033 0.028565506 0.06775714 -0.017424963 0.1423739 -0.15366329 0.036830224 -0.03140879
-0.45564932 -0.2563513 -0.08912697 -0.07045572 -0.27538678 0.054053534 0.0406565 0.17061563
-0.051374767 0.148536 0.10547581 -0.09146554 0.25029412 -0.14290121 -0.23188001 -0.27643895
-0.03710562 0.0304899 -0.050045427 -0.10208806 0.021204054 -0.08264411 -0.05605413 -0.011111598
0.14920184 -0.14749297 -0.60377866 -0.17446956 0.20229645 0.04096963 0.020649435 -0.063905776
0.11368547 -0.20636973 -0.18325673 -0.12220284 0.04195221 -0.143944 -0.34975353 -0.21031396
0.23545477 0.17104305 -0.18342607 0.270303 0.0015959246 -0.18948768 0.28626713 -0.29070804
0.05113735 -0.28662947 0.0012365708 0.13847697 -0.32771072 0.07244034 0.04016716 -0.11078291
-0.31664073 -0.124493696 0.020858899 -0.053887613 -0.2454869 -0.19114876 -0.057512958 -0.02646698
-0.11960543 -0.44263867 -0.12333378 -0.4023714 0.07707912 -0.035332173 0.00013630823 0.060495824
-0.19585073 -0.22009525 -0.046903856 -0.0771252 0.1763877 0.015505967 0.013851167 -0.35154468
-0.34321007 0.19083868 -0.16880079 0.029009767 -0.15302023 -0.030272836 -0.30937058 0.08273182
-0.3540482 -0.040270835 -0.05170509 -0.2207797 -0.06942755 0.15228951 0.03097446 -0.104237355
-0.09541967 0.09984868 0.049329944 -0.14570199 -0.09889156 -0.13263907 -0.13899921 -0.201284
0.027600665 0.030540956 -0.066434324 -0.019367516 -0.0038270806 0.115527324 0.20261045 0.04362314
-0.14796682 -0.17327799 0.12612943 -0.16808721 -0.16361041 -0.017669754 -0.07304155 -0.041241955
-0.04629434 -0.044950094 -0.028951127 -0.117094845 -0.04021 -0.044286594 -0.20215903 -0.22938873
0.25679994 -0.015134159 0.22026344 -0.08834326 -0.027123304 0.014485168 -0.035720892 -0.23379016
0.014172133 -0.17750737 -0.053210042 -0.08405103 0.0009271164 0.19907328 0.07232376 -0.05948651
-0.22452128 -0.071579084 -0.007338471 0.01546883 -0.16603568 -0.06181832 -0.2810366 0.0044677
-0.16521624 0.16846508 -0.22780615 -0.13701986 -0.14437461 0.06195595 0.22543435 -0.092145085
-0.0062623215 0.10220565 -0.00782614 -0.23304744 0.03309035 -0.03522213 -0.3431532 -0.117343284
00000000: 4df7 a4bd ed75 51be af20 dfbd c566 7a3e
00000010: 1ec1 743e a67b a63b 865f e13a e36a ae3d
00000020: 0cf8 0a3e 7860 4abd 856d b53d 6c36 1c3d
00000030: 38de 03be ea4a c83d a0dc a1bd 2ef3 e7bd
00000040: bc14 913d 9bea 82be 098c 26be 04ee ffbd
00000050: 8358 d3bd 11d6 12be 7136 83be dc10 a1be
00000060: ada0 74be f21e d33c d654 ddbd a44e b43d
00000070: 1252 013e aa6a 26bd 0006 eabd c41f 5cbc
00000080: 0f26 93bd 1189 72bd 0a3a 50bd 298c 6cbd
00000090: a4db b93d 9080 35be 6b23 ee3d ee74 e0bc
000000a0: 5200 773d ef02 66be 54a7 5dbe 85df f53a
000000b0: b84b cabd 2715 e0bd d16c b6bd 8588 b8bc
000000c0: 0f27 e53b dc35 39be fbb1 10bc f8fe adbd
000000d0: b81c 9ebe aa44 70be 2ebd 3c3c ec64 89be
000000e0: 8bf5 cdbd fd93 89be 6854 dc3d 9f51 45bd
000000f0: 6870 0fbe 580f 68be f013 9b3d dd9d 84bc
00000100: 1606 17bd c4e9 ff3c 222d a73b 8d12 c6bd
00000110: 1ab5 3ebd f51b 903d e36e 96bd 024b 013e
00000120: a2f7 973c fa8d 4c3d 08fb 923d 1ff0 3f3d
00000130: e4f1 28be 3deb 873e f91b e73d 83c3 f5bd
00000140: 3208 09be 3502 ea3c 41c4 8a3d ccbe 8ebc
00000150: 77ca 113e e959 1dbe 4adb 163d 81a6 00bd
00000160: de4a e9be 7a40 83be 3388 b6bd 174b 90bd
00000170: 7fff 8cbe 3d67 5d3d 6e87 263d ddb5 2e3e
00000180: 596e 52bd d219 183e b403 d83d 4952 bbbd
00000190: 8d26 803e b254 12be f471 6dbe 6889 8dbe
000001a0: 10fc 17bd f4c5 f93c 6ffc 4cbd 8b13 d1bd
000001b0: 20b4 ad3c 5141 a9bd 0499 65bd 6c0d 36bc
000001c0: 5ec8 183e 6608 17be 3d91 1abf 26a8 32be
000001d0: cd26 4f3e c5cf 273d 0129 a93c 08e1 82bd
000001e0: edd3 e83d 9652 53be a7a7 3bbe 7c45 fabd
000001f0: 15d6 2b3d 0e66 13be e512 b3be 8b5c 57be
00000200: 0e1b 713e e925 2f3e 0bd4 3bbe 2865 8a3e
00000210: 582e d13a 0f09 42be 9b91 923e afd7 94be
00000220: 6675 513d 19c1 92be 6e14 a23a e8cc 0d3e
00000230: b3c9 a7be 9a5b 943d 5286 243d 26e2 e2bd
00000240: bc1e a2be 8df6 febd 48e0 aa3c 42b9 5cbd
00000250: eb60 7bbe 80bc 43be b592 6bbd 48d1 d8bc
00000260: b1f3 f4bd 89a1 e2be 6c96 fcbd a003 cebe
00000270: a8db 9d3d 78b8 10bd f6ed 0e39 78ca 773d
00000280: 188d 48be a660 61be 421e 40bd d1f3 9dbd
00000290: fa9e 343e bd0c 7e3c 01f0 623c aafd b3be
000002a0: 3bb9 afbe 376b 433e 1dda 2cbe e4a5 ed3c
000002b0: 56b1 1cbe bdfe f7bc d265 9ebe 4d6f a93d
000002c0: ce45 b5be 08f3 24bd b7c8 53bd 1314 62be
000002d0: 0830 8ebd c8f1 1b3e 27be fd3c 657a d5bd
000002e0: 636b c3bd 777d cc3d 320e 4a3d e732 15be
000002f0: a987 cabd 89d2 07be cf55 0ebe 651d 4ebe
00000300: ca1a e23c 0731 fa3c b80e 88bd a0a8 9ebc
00000310: c2cf 7abb 9799 ec3d 1d79 4f3e 2dae 323d
00000320: 9d84 17be c96f 31be 1328 013e 0e1f 2cbe
00000330: 7d89 27be 29c0 90bc cf96 95bd 53ed 28bd
00000340: 229f 3dbd 971d 38bd ea2a edbc 6ccf efbd
00000350: 3eb3 24bd dc65 35bd c702 4fbe e1e4 6abe
00000360: 487b 833e 43f5 77bc bd8c 613e 50ed b4bd
00000370: b131 debc 3353 6d3c 1250 12bd b066 6fbe
00000380: 3c32 683c 7ec4 35be c6f2 59bd f222 acbd
00000390: ba09 733a ded9 4b3e 7b1e 943d 20a8 73bd
000003a0: e8e8 65be 0e98 92bd 8e77 f0bb fa70 7d3c
000003b0: 4205 2abe 3535 7dbd 07e4 8fbe c965 923b
000003c0: 722e 29be 1c82 2c3e 0446 69be ef4e 0cbe
000003d0: f0d6 13be 86c5 7d3d 43d8 663e 90b6 bcbd
000003e0: 2934 cdbb 3251 d13d 3639 00bc fda3 6ebe
000003f0: bf89 073d 1545 10bd c7b1 afbe ad51 f0bd

fp2.bias f4 [256]
-0.010704043 0.006896291 0.015435804 -0.11859512 0.054970447 0.10913835 -0.08261337 0.35835397
-0.103228465 -0.08109899 -0.030924229 0.06749674 -0.101941034 0.00083236536 -0.045566503 0.124856055
0.12749068 0.041546512 0.09567777 -0.026991906 -0.04733918 0.036396835 0.00036120717 -0.13830301
0.5147073 0.050919015 0.09810481 -0.037895292 -0.060882717 -0.13326953 -0.08827121 -0.07678501
-0.05902473 0.0155588295 0.3171131 0.027023649 -0.001725421 -0.16210184 -0.14010103 -0.13191846
-0.023100322 -0.063309364 0.08965509 0.113683075 -0.005795345 -0.06546452 0.008271661 -0.122317076
-0.13999286 -0.05906769 0.041127913 -0.011606704 -0.11926089 0.077243835 0.112381406 0.08147642
0.014428348 -0.17369863 -0.15816706 -0.028051915 -0.00959384 0.10829361 -0.03789748 -0.03441211
0.07650589 -0.14278543 0.011782052 0.049271323 -0.11440185 -0.023856958 0.024543095 -0.13467902
0.06645467 -0.11977332 -0.1080935 0.024157615 0.04097286 -0.10653042 0.007601288 0.020134877
-0.112270705 -0.09205769 -0.05152774 0.076507404 -0.0029993157 0.0012116375 -0.11764298 0.0764849
0.26392192 0.029739045 0.22357011 0.026213681 0.043609604 0.07949361 0.085272856 -0.005817056
-0.06086128 -0.087407015 0.012508923 -0.07155822 -0.11240622 0.218207 0.12565327 0.03225091
-0.02359354 -0.098331384 0.122672275 0.052969545 -0.08461973 0.0038339978 -0.06571135 -0.087328464
0.003193926 0.017436756 -0.0558272 0.12309023 0.07390999 0.019252174 -0.13667002 0.051048648
0.047145247 0.11161539 -0.16580255 0.045195814 -0.0877956 -0.15796153 0.010212282 0.12851664
0.13169502 -0.09822141 -0.10938777 -0.00033195762 -0.007391354 -0.029552056 0.018369053 -0.056167856
-0.14813632 -0.12251463 0.018555062 0.006657274 0.1472204 -0.048915774 -0.017451495 -0.131426
-0.08633619 -0.012560049 0.02764764 0.03322208 -0.055520695 -0.02442715 -0.07696818 0.032758765
-0.004992722 -0.11072548 -0.04179127 0.093286015 -0.015384126 -0.041832466 0.009265443 -0.1597002
-0.031450823 -0.10973233 0.029217133 -0.13095164 0.5501613 -0.12158949 -0.18068615 -0.019990513
0.12990446 -0.09311463 -0.075046815 -0.09566089 -0.09430124 -0.084317654 0.05312192 -0.05904075
-0.017144632 0.10465306 -0.09123422 0.025284022 -0.08572983 0.08254665 -0.16705814 0.06453441
-0.07152326 -0.091215394 0.04075419 0.020913035 -0.059812997 -0.062105693 0.09389117 -0.1949006
-0.0120648155 0.0031164153 0.008596543 0.49604207 -0.057777792 -0.010880504 0.020124385 0.019844266
-0.075521864 -0.0025662482 -0.06186383 -0.14917119 -0.02154405 -0.054966476 -0.11592248 0.005648553
-0.060607295 -0.042107545 -0.048189633 -0.17450412 0.118831195 -0.022260623 0.023967156 -0.06468197
-0.15024514 0.12318347 -0.07424485 -0.071959585 -0.07410757 -0.107267715 -0.049232475 -0.0021262383
-0.027683884 0.04804294 0.008724066 0.013969032 -0.029067837 0.32164672 -0.035661746 0.026953548
-0.13212788 -0.01717007 -0.07783383 -0.0055883066 -0.06802007 -0.12481919 -0.104000166 -0.138703
0.011906741 0.085123286 0.0016216972 -0.031287193 -0.07450166 -0.07116592 -0.10640881 -0.11791169
0.05324321 -0.06757433 -0.094232745 -0.0026085372 -0.0012256792 0.022040872 -0.08330143 -0.00021734097
00000000: 0360 2fbc 48fa e13b 74e6 7c3c 00e2 f2bd
00000010: b128 613d ed83 df3d 3331 a9bd 2c7a b73e
00000020: 7269 d3bd 3a17 a6bd cf54 fdbc bb3b 8a3d
00000030: 76c6 d0bd 1833 5a3a f1a3 3abd 88b4 ff3d
00000040: eb8c 023e ad2c 2a3d b5f2 c33d 211e ddbc
00000050: bae6 41bd d914 153d 6860 bd39 4e9f 0dbe
00000060: dcc3 033f 7590 503d 2deb c83d 1838 1bbd
00000070: 2860 79bd cf77 08be 89c7 b4bd 7641 9dbd
00000080: eac3 71bd 76ea 7e3c a65c a23e b360 dd3c
00000090: 8627 e2ba 06fe 25be a576 0fbe a215 07be
000000a0: e33c bdbc 57a8 81bd 169d b73d acd2 e83d
000000b0: e1e6 bdbb 4312 86bd dc85 073c 6081 fabd
000000c0: 4a5a 0fbe f6f0 71bd be75 283d 0c2a 3ebc
000000d0: 0e3f f4bd 0432 9e3d 3928 e63d 1cdd a63d
000000e0: e164 6c3c 0ede 31be 8cf6 21be 21cd e5bc
000000f0: 7b2f 1dbc 0ac9 dd3d 633a 1bbd b6f3 0cbd
00000100: 1faf 9c3d 5836 12be 8209 413c bad0 493d
00000110: 844b eabd ab6f c3bc 9a0e c93c 4ce9 09be
00000120: 6319 883d b74b f5bd 2060 ddbd 31e6 c53c
00000130: 28d3 273d 9f2c dabd 3a14 f93b e6f1 a43c
00000140: 2fee e5bd be88 bcbd c00e 53bd eaaf 9c3d
00000150: 2b90 44bb cfcf 9e3a cdee f0bd 1ea4 9c3d
00000160: c620 873e 4c9f f33c 90ef 643e 13be d63c
00000170: fc9f 323d 8ccd a23d 89a3 ae3d 019d bebb
00000180: ad49 79bd 7302 b3bd 3af2 4c3c 1e8d 92bd
00000190: 3b35 e6bd a871 5f3e 40ab 003e 8819 043d
000001a0: 3d47 c1bc f761 c9bd 9a3b fb3d 98f6 583d
000001b0: 1c4d adbd cf43 7b3b ac93 86bd 44d9 b2bd
000001c0: 3051 513b 87d7 8e3c 10ab 64bd bb16 fc3d
000001d0: 1f5e 973d bcb6 9d3c 3af3 0bbe 6318 513d
000001e0: 601b 413d 9c96 e43d 25c8 29be 3f1f 393d
000001f0: 2ece b3bd abc0 21be 6a51 273c de99 033e
00000200: 0fdb 063e 4e28 c9bd b206 e0bd 990a aeb9
00000210: 2c33 f2bb 2717 f2bc b27a 963c 4410 66bd
00000220: 0cb1 17be f3e8 fabd c900 983c 4325 da3b
00000230: f2c0 163e e85b 48bd 70f6 8ebc 8a94 06be
00000240: 07d1 b0bd aac8 4dbc 4e7d e23c e013 083d
00000250: ab69 63bd 721b c8bc 7ea1 9dbd 0e2e 063d
00000260: fd99 a3bb 0ac4 e2bd 532d 2bbd bd0c bf3d
00000270: b40d 7cbc 8558 2bbd 16ce 173c 7388 23be
00000280: 94d2 00bd 58bb e0bd c558 ef3c 3018 06be
00000290: 5fd7 0c3f e903 f9bd ca05 39be 25c3 a3bc
000002a0: ad05 053e e2b2 bebd 25b2 99bd dbe9 c3bd
000002b0: 0221 c1bd bcae acbd 5f96 593d b7d4 71bd
000002c0: e672 8cbc 5854 d63d 02d9 babd 7020 cf3c
000002d0: 1f93 afbd 380e a93d 4a11 2bbe 9e2a 843d
000002e0: c97a 92bd 23cf babd deed 263d d051 ab3c
000002f0: 79fe 74bd 8a62 7ebd 044a c03d 0694 47be
00000300: 81ab 45bc c63c 4c3b 84d8 0c3c 3af9 fd3e
00000310: 68a8 6cbd 2444 32bc e5db a43c 7190 a23c
00000320: 35ab 9abd 802e 28bb ed64 7dbd 55c0 18be
00000330: 267d b0bc 8724 61bd c468 edbd 7f17 b93b
00000340: 5b3f 78bd f678 2cbd 7e62 45bd 35b1 32be
00000350: c55d f33d e95b b6bc c556 c43c fb77 84bd
00000360: ddd9 19be 9d47 fc3d af0d 98bd 8c5f 93bd
00000370: b6c5 97bd 2daf dbbd fea7 49bd 5c58 0bbb
00000380: 50c9 e2bc adc8 443d 63ef 0e3c 5ede 643c
00000390: ac1f eebc e1ae a43e 0d12 12bd b0cd dc3c
000003a0: 884c 07be 3fa8 8cbc 5867 9fbd 1d1e b7bb
000003b0: 1b4e 8bbd 34a1 ffbd 0afe d4bd 2908 0ebe
000003c0: 7e14 433c 1e55 ae3d 218f d43a 0027 00bd
000003d0: 5494 98bd 70bf 91bd ddec d9bd af7b f1bd
000003e0: 8d15 5a3d 6964 8abd 19fd c0bd fef3 2abb
000003f0: f8a6 a0ba 0f8f b43c f199 aabd 06e6 63b9

head.weight f4 [4, 256]
-0.017116126 0.12120518 0.00033933614 -0.013124428 -0.062184434 0.026308423 0.049457874 0.10895409
-0.03112314 0.2314145 0.017965684 0.12225666 -0.008121763 0.08513832 -0.058197908 0.1690318
0.04964575 -0.08631339 0.13001068 -0.07127904 -0.16408484 0.08937388 -0.07973579 -0.14599772
0.14087546 0.07164127 -0.042214 -0.038479127 0.009053086 -0.34852645 0.039200034 -0.16333194
0.16165534 0.027436303 0.101141974 0.33823425 0.08792491 -0.1285182 -0.021215707 0.030503951
0.30295083 0.09325583 0.2466556 0.12188904 0.020797664 0.065870926 0.038583882 -0.031841137
-0.01897838 0.0025506474 0.2316403 0.07803779 -0.12192139 0.03276644 0.2160964 0.05181305
-0.009902139 -0.109509304 -0.06289169 0.08208843 -0.046613414 0.068657495 -0.22558266 0.3087885
0.23582973 0.1480837 0.21405286 0.21197145 -0.15366043 -0.11896598 0.3436526 0.03162428
-0.17882483 -0.2179208 -0.04836131 0.24803968 0.069245555 0.0064037084 0.021465017 0.033044204
-0.13932775 -0.32014936 -0.026746316 0.08427779 -0.22510368 0.036349438 0.018538596 0.41458905
0.11165123 0.08048937 0.0787053 -0.013901608 -0.23308441 0.36482343 0.06744724 -0.009437788
0.010857919 0.25037432 0.115369715 -0.052488573 -0.015857058 0.059727862 0.1996886 0.06495212
-0.4000457 0.06519434 0.16905184 0.22383192 -0.5117709 -0.29282793 0.050152913 -0.05142839
0.0523914 0.15520842 0.08123754 0.03429553 -0.43541762 -0.044563208 -0.11165922 0.04882092
0.26158813 -0.28966326 -0.3824336 -0.14385669 0.1532088 0.07213472 0.2590717 0.19669934
0.059153985 0.015320713 0.09902934 0.13581057 0.0023083398 0.025250109 -0.011202473 -0.041022554
-0.095033415 -0.15763111 -0.64372283 -0.1253494 0.22579657 -0.023095055 0.18628737 0.0675155
-0.012804706 0.082869895 -0.35990086 0.26030022 -0.014752247 -0.10066243 0.04070263 -0.0341709
-0.504695 -0.0028878804 -0.06193562 0.115348294 0.015232609 -0.060674217 -0.068655424 -0.03827434
0.2973398 0.2975997 -0.07239607 -0.24783821 0.15125544 0.0037291218 -0.0803847 0.0050165877
0.08001954 -0.052493032 -0.1589022 -0.00062530104 0.13250987 0.13594252 0.15505648 0.08016407
0.16343372 0.050112247 -0.041384134 0.23517393 -0.015005864 0.311711 0.021650936 0.07666721
0.032032438 -0.0871331 -0.024860252 -0.015026752 0.116700366 -0.17974775 -0.22453535 -0.13181268
0.056854263 0.012271898 0.023696396 0.124590345 -0.058847368 0.012752723 0.0056008347 0.34517902
-0.09112835 0.058168888 -0.17050062 -0.007651883 0.12424279 -0.022150332 -0.06284929 0.0037104296
-0.018135272 0.047529493 -0.019898472 -0.059338395 0.07384059 -0.13545443 -0.017218621 -0.18188378
-0.10348031 0.047745 0.07342337 0.13822469 -0.038666245 -0.034116242 -0.024349496 -0.17000505
0.13030069 0.0519493 -0.15126416 0.1296501 0.2607742 0.11393942 -0.15549614 0.24693784
-0.12799923 0.07703386 -0.036759004 0.19591689 -0.24295248 -0.033860307 0.04540147 0.18382148
0.1597076 -0.4144814 -0.002824348 0.17507142 -0.2874758 -0.023813047 -0.35666254 -0.05514252
0.016246594 0.0769409 0.024869548 -0.3076297 0.10992495 0.21177559 0.32684225 0.056439433
00000000: 1e37 8cbc 6c3a f83d ede8 b139 d707 57bc
00000010: 1bb5 7ebd c384 d73c 5794 4a3d 5223 df3d
00000020: f5f5 febc ecf7 6c3e c52c 933c b361 fa3d
00000030: 2511 05bc 005d ae3d ee60 6ebd ac16 2d3e
00000040: 5859 4b3d 13c5 b0bd 8521 053e bffa 91bd
00000050: db05 28be a709 b73d 854c a3bd 6d80 15be
00000060: a841 103e a8b8 923d 96e8 2cbd 4a9c 1dbd
00000070: 6553 143c 0f72 b2be 3790 203d 7d40 27be
00000080: fa88 253e 19c2 e03c 8623 cf3d 0a2d ad3e
00000090: fa11 b43d 469a 03be 90cc adbc 6ce3 f93c
000000a0: 5f1c 9b3e eafc be3d 4993 7c3e f6a0 f93d
000000b0: dd5f aa3c 56e7 863d 220a 1e3d da6b 02bd
000000c0: 8c78 9bbc c328 273b 1d33 6d3e 47d2 9f3d
000000d0: ecb1 f9bd 1a36 063d 6048 5d3e ec39 543d
000000e0: 953c 22bc 6a46 e0bd 5ccd 80bd fb1d a83d
000000f0: b5ed 3ebd 4d9c 8c3d 24ff 66be 8719 9e3e
00000100: 597d 713e 41a3 173e ac30 5b3e 0b0f 593e
00000110: 2959 1dbe 70a4 f3bd 3cf3 af3e 7688 013d
00000120: db1d 37be a126 5fbe 8216 46bd 1dfe 7d3e
00000130: 9dd0 8d3d 33d6 d13b 67d7 af3c 5c59 073d
00000140: efab 0ebe 9eea a3be 171b dbbc d599 ac3d
00000150: 9481 66be 26e3 143d 41de 973c 0445 d43e
00000160: 66a9 e43d 9cd7 a43d 3f30 a13d 92c3 63bc
00000170: aead 6ebe 23ca ba3e c721 8a3d f4a0 1abc
00000180: 6ae5 313c 1031 803e f546 ec3d 42fe 56bd
00000190: a9e6 81bc 34a5 743d 2b7b 4c3e 9e05 853d
000001a0: cad2 ccbe 9c84 853d ed1b 2d3e 3234 653e
000001b0: 6b03 03bf 8bed 95be 246d 4d3d 93a6 52bd
000001c0: 5d98 563d f5ee 1e3e de5f a63d 7879 0c3d
000001d0: 0fef debe e987 36bd 97ad e4bd 72f8 473d
000001e0: e1ee 853e be4e 94be 56ce c3be 2b4f 13be
000001f0: c5e2 1c3e 5ebb 933d 0ca5 843e 8d6b 493e
00000200: 734b 723d ba03 7b3c e5cf ca3d ed11 0b3e
00000210: 8447 173b 51d9 ce3c 948a 37bc 4407 28bd
00000220: e1a0 c2bd 0d6a 21be 05cb 24bf 985b 00be
00000230: 3737 673e d731 bdbc 1ec2 3e3e 9145 8a3d
00000240: d4ca 51bc b1b7 a93d ed44 b8be 1246 853e
00000250: 69b3 71bc 1b28 cebd cdb7 263d c9f6 0bbd
00000260: b133 01bf 9842 3dbb 34b0 7dbd ba3b ec3d
00000270: 3192 793c 8785 78bd 379b 8cbd 8ec5 1cbd
00000280: ec3c 983e fd5e 983e 6444 94bd 4dc9 7dbe
00000290: b5e2 1a3e 4864 743b bca0 a4bd 3062 a43b
000002a0: 49e1 a33d ef02 57bd 42b7 22be 3eeb 23ba
000002b0: abb0 073e 8434 0b3e 20c7 1e3e 0f2d a43d
000002c0: 2b5b 273e 8042 4d3d 6982 29bd 6fd1 703e
000002d0: 28db 75bc 9698 9f3e 4e5d b13c b303 9d3d
000002e0: 7234 033d d772 b2bd baa7 cbbc c432 76bc
000002f0: 9a00 ef3d cb0f 38be 98ec 65be e7f9 06be
00000300: 04e0 683d 1210 493c f21e c23c 3929 ff3d
00000310: f009 71bd ccf0 503c 3587 b73b 4ebb b03e
00000320: 80a1 babd 8042 6e3d b797 2ebe a6bc fabb
00000330: 0173 fe3d 9d74 b5bc 21b7 80bd ae2a 733b
00000340: 6c90 94bc 49ae 423d 1f02 a3bc d10c 73bd
00000350: bc39 973d 91b4 0abe 110e 8dbc be3f 3abe
00000360: 7ced d3bd 4390 433d fe5e 963d c68a 0d3e
00000370: 7f60 1ebd 79bd 0bbd 9878 c7bc ce15 2ebe
00000380: 8b6d 053e cac8 543d fee4 1abe ffc2 043e
00000390: 3284 853e 1259 e93d 613a 1fbe 46dd 7c3e
000003a0: 3b12 03be eec3 9d3d 9c90 16bd 709e 483e
000003b0: 89c8 78be 1bb1 0abd e4f6 393d b33b 3c3e
000003c0: 648a 233e e836 d4be b218 39bb ec45 333e
000003d0: 0730 93be 9413 c3bc 799c b6be 20dd 61bd
000003e0: 9417 853c 3193 9d3d 39bb cb3c a481 9dbe
000003f0: 5520 e13d b3db 583e de57 a73e 092d 673d

head.bias f4 [4]
0.31884646 0.3201969 0.28023493 0.32604367
00000000: d83f a33e d9f0 a33e f47a 8f3e 32ef a63e
