models/dqn.pth (torch_old, 156681 bytes, 6 tensors)

fp1.weight f4 [128, 37]
000000 09 fa b3 3e e9 de a7 be ed 7f 66 be 89 c9 d9 be
       0.351517 -0.32787254 -0.22509737 -0.42536572
000010 79 58 ef bf 6c be 0e 3e 17 15 00 bd 97 00 0d 3e
       -1.8698875 0.13939828 -0.031270113 0.13769756
000020 8d 2d 18 3e 69 89 70 3d 2c 10 b9 3b 0c 53 3e bd
       0.14861126 0.058724795 0.00564768 -0.04646592
000030 ab 26 47 bd b2 b0 8f bd b3 ce 48 be a2 5d 96 3c
       -0.04862086 -0.07016124 -0.196101 0.018355194
000040 ca 13 1a 3e 73 ca c0 3d ac 2d 01 3e 08 4d 77 3d
       0.15046611 0.09413614 0.12615079 0.060376197
000050 0e 02 11 3d 76 df 57 3e 93 25 8d 3d e6 53 c5 3d
       0.03540235 0.21081337 0.06891932 0.09635143
000060 c3 f7 41 3d e0 4d e5 3c 32 72 3d 3e bb 35 1a bd
       0.047355425 0.027991235 0.18500593 -0.037648898
000070 cc f6 1f bd 60 5c 84 3d 78 57 be bb 1a f4 c2 3d
       -0.039053723 0.06462932 -0.005808767 0.09519215
000080 07 2d ad 3d 4b 1d cc 3c 57 af 3a bd 67 be 49 bd
       0.08455854 0.024916312 -0.045577373 -0.049253847
000090 7c 6a cd 3a 1a c1 ba bc 13 4b 04 3e 64 89 31 3e
       0.0015671994 -0.022797156 0.12919264 0.17337567
0000a0 ff e3 61 3d 52 b6 88 be 90 69 f7 3a 3e 91 4f be
       0.055149075 -0.267016 0.0018876065 -0.20270249
0000b0 e4 e2 c7 bd b2 09 2b be c2 a6 b3 bf 96 f1 55 3c
       -0.09760073 -0.16702917 -1.4035265 0.013058087
0000c0 0a 66 cc bd 52 e9 9c bc ad 91 9e 3e 1b 9f a7 3e
       -0.099804 -0.019154225 0.30970517 0.32738575
0000d0 e7 4a 13 3d c2 fe e2 bc 28 c9 e6 3d 72 43 d4 3c
       0.035960104 -0.027709369 0.11268836 0.025911067
0000e0 f0 4f dc bc 29 88 24 be 20 36 4f be 8d a3 f4 bd
       -0.026893586 -0.16067566 -0.20235491 -0.11945257
0000f0 0b 55 50 3e c0 b2 8b 3e 05 a4 8b be bd d3 50 3e
       0.20344941 0.27284813 -0.27273574 0.20393272
000100 dc 36 3f 3e 67 84 86 3d 4b ca 45 bf 7e 25 04 bd
       0.18673271 0.065682225 -0.772618 -0.032262318
000110 45 9e 1f 3e 85 11 eb 3d 63 50 89 3c b9 c2 cb bd
       0.15587719 0.11477951 0.016761964 -0.0994925
000120 10 ad 1d 3d c1 98 81 3c 80 79 cc bc d0 7e ac 3e
       0.038495123 0.015819909 -0.02496028 0.336905
000130 b7 c1 21 be 75 21 0c bd 54 13 73 3c de 11 e2 be
       -0.15796553 -0.034211595 0.014836151 -0.44154257
000140 7b 4c 07 be ca b8 5b 3e 88 95 17 3e 6d 17 8e be
       -0.13212769 0.2145721 0.14803135 -0.27752247
000150 c6 d9 46 3d 96 32 5a 3c 7d 2d f9 bc a6 6a 40 be
       0.04854753 0.013317725 -0.030417198 -0.18790683
000160 72 ff 1f 3e 07 29 15 be ea 2b 01 3e 6e d0 4a 3d
       0.15624788 -0.14566432 0.12614408 0.04951518
000170 0b 64 d0 3d 68 f0 dc bd 57 f1 cf bd 84 38 82 be
       0.10175332 -0.10788041 -0.10153454 -0.25433743
000180 4e 0d 09 3e 94 c7 a0 bd c1 44 83 3d 97 90 c9 bd
       0.13383982 -0.078505665 0.06409598 -0.098420314
000190 6f d5 e1 3d cd ea 40 3e 76 2a 34 be 35 b3 99 bd
       0.11027037 0.1883957 -0.17594323 -0.07504884
0001a0 5a 53 35 bf e8 f4 87 bd 8c 20 01 3e ad 2e 0f be
       -0.7083031 -0.06638509 0.12610072 -0.13982649
0001b0 26 46 b6 3d 21 14 02 bd 27 2a 14 bc e6 15 19 3e
       0.089000985 -0.031757478 -0.009043253 0.1494976
0001c0 75 7a 88 be 23 94 77 3e 53 3c 8d 3d 01 dd 23 be
       -0.26655927 0.24177603 0.068962716 -0.16002275
0001d0 44 f8 d7 bd 40 85 22 be 98 38 f3 3d a0 0f 2b 3e
       -0.105454 -0.15871143 0.11876029 0.16705179
0001e0 9d af c4 bd 2a df 50 3e d3 c0 b8 be 50 b9 98 bd
       -0.09603808 0.2039763 -0.36084613 -0.074572206
0001f0 7e 53 ad be 85 ab 6f bf 9e 4a fc bd 2e f9 4b be
       -0.33852762 -0.93621093 -0.123189196 -0.19919273
000200 c0 7c af 3d d4 8b aa be 61 90 0a be 0e 85 03 bd
       0.08568716 -0.33309805 -0.13531639 -0.032109313
000210 ed 6d 89 bd 90 2b a3 3d fc e5 0f 3e 9f ee 26 be
       -0.0671042 0.07967293 0.14052576 -0.16301964
000220 6e 87 0a 3e 4c b6 d3 bc 2b c4 4d bc 60 88 64 bd
       0.13528225 -0.025843762 -0.012558977 -0.05579412
000230 6c 91 88 3e d8 f6 f4 3d fb b8 73 3d 25 c8 18 be
       0.26673448 0.11961144 0.059502583 -0.14920099
000240 a3 70 c8 bc 47 e9 e2 bd f8 39 35 bd 0f 7e 14 bd
       -0.024467772 -0.1107965 -0.044244736 -0.03625303
000250 48 93 bc bd 68 24 a9 bc 8a 08 cb bd 7d b4 ae bc
       -0.09207779 -0.020647243 -0.09913738 -0.021326298
000260 eb ba d7 3d 68 95 ce 3e 60 b2 9e bd 93 7b 8b be
       0.10533699 0.40348363 -0.07748866 -0.27242717
000270 95 a6 11 bf a9 14 eb bf 90 b6 83 3d d5 15 21 3d
       -0.5689481 -1.836568 0.064313054 0.03932746
000280 01 64 e2 bc 15 55 9a 3c 23 88 d0 bd 53 12 8e bd
       -0.027635576 0.018839398 -0.10182216 -0.06937089
000290 ef ef 9d 3c f7 8e 0b 3d d0 59 a5 3d 0c 7b 12 3e
       0.019279448 0.03407189 0.08073771 0.14304751
0002a0 55 9c 84 3d 1f 14 84 3a 8c dd bd 3d ea 9b f7 3d
       0.064751305 0.0010076797 0.09270772 0.12090285
0002b0 ac 13 00 3e 22 b3 bd 3d 4b 1f 82 3d 25 78 0d 3e
       0.12507504 0.092626825 0.06353625 0.13815363
0002c0 6d 71 d7 3d 43 38 22 3c 61 96 ce 3d d8 5f 29 bd
       0.10519681 0.009901109 0.10087276 -0.04135117
0002d0 a5 26 b3 3d e5 95 e9 3d 6b d0 40 3e 4b d4 14 3b
       0.08747605 0.11405543 0.18829505 0.0022709544
0002e0 50 67 3f ba d1 4c 93 bd cb ac 54 be ad fd 93 bd
       -0.00073014665 -0.07192386 -0.2076904 -0.07226119
0002f0 58 7d 52 3c 3f 6c ee 3d f3 f7 4b 3e 6a 76 6d be
       0.012847267 0.1164174 0.19918804 -0.23189703
000300 cb 9e 4b be 6e a8 8e be 15 69 d2 bf cf 6f 27 be
       -0.19884793 -0.27862877 -1.6438318 -0.16351245
000310 c5 22 dc bc dd eb 59 bd 25 c7 6d be fc ed 18 be
       -0.026872048 -0.053203452 -0.23220499 -0.14934534
000320 0b ca 1f bc 8c 43 3a bd ca 75 2e be 0f 0a 15 be
       -0.009752761 -0.045474574 -0.1703712 -0.14554618
000330 5f 4c 8a bd ed 99 b3 3c 64 db 01 3e 00 02 56 bd
       -0.06752848 0.021923983 0.12681347 -0.052248
000340 b9 93 0b be 94 43 24 bd b0 06 3a be f2 03 86 3d
       -0.1363057 -0.04010351 -0.18166614 0.06543721
000350 b3 1f ee 3d 73 8d bc bd 6c 14 b2 3d 9c a5 df bd
       0.1162714 -0.09206667 0.086953014 -0.10920259
000360 cc 9c 28 bc f7 ca 91 3c 31 f1 1a bc 86 47 83 be
       -0.01029129 0.017796976 -0.009456919 -0.25640506
000370 fe 5c dd 3b a7 f6 a8 3d 82 f9 60 3e e5 48 c5 bd
       0.0067554703 0.0825017 0.2197018 -0.09633044
000380 57 a1 58 be c2 30 12 3d 12 1c f6 be 15 a1 d7 bb
       -0.21155296 0.03569103 -0.4806829 -0.006580482
000390 9d e3 96 bd d8 d1 df 3a 13 bb bb bc da a9 24 bd
       -0.073676325 0.0017076088 -0.022916352 -0.040201046
0003a0 a5 cf 85 3d 71 4d d8 3d ff 98 ca 3d fb f0 c9 bd
       0.06533746 0.10561646 0.09892463 -0.098604165
0003b0 97 f2 ce 3c 36 fa 03 be c4 f2 b2 ba c1 dc 30 3d
       0.02526216 -0.12888417 -0.0013652672 0.043179277
0003c0 99 74 86 3d 41 45 d7 3d cb 6d da bd f9 05 3c 3d
       0.06565208 0.10511256 -0.106654726 0.045904133
0003d0 aa 7f 81 3d 1c 89 97 ba 23 d4 93 3e 92 35 80 bd
       0.06323178 -0.0011561248 0.28872785 -0.06260218
0003e0 ea d7 b0 ba a2 80 0e bd f1 5c 0b be 93 57 5d 3e
       -0.0013492082 -0.034790643 -0.13609673 0.21615438
0003f0 c4 72 9f 3e 86 ff 23 bd b8 9b 2b be c0 20 c6 be
       0.31142247 -0.040038608 -0.1675862 -0.3869686

fp1.bias f4 [128]
000000 e4 3c 9a 3d 8f 91 70 3d 77 cb d6 bd 4f aa 21 bd
       0.07531145 0.058732565 -0.104880266 -0.03946906
000010 0a 45 df 3d 6c 45 28 be 7b e9 e9 3d 0f 2f 78 3d
       0.1090184 -0.16432732 0.11421486 0.060591754
000020 f1 f8 48 be 83 d4 86 3d b7 c2 98 bd 5e 3f 85 bb
       -0.19626214 0.06583502 -0.07459014 -0.004066392
000030 ff 30 c1 bd d0 84 7c bc a8 20 5a bd 1e 97 85 bd
       -0.094331734 -0.015412524 -0.0532538 -0.06522964
000040 b1 24 df 3b 5b d8 01 be d4 e4 0f be 48 02 f9 bc
       0.006809794 -0.1268019 -0.14052135 -0.030396596
000050 98 a6 f0 bd 02 3d 8b bb fa 9b 18 3e 2d 47 ae bd
       -0.11750525 -0.004249216 0.1490325 -0.085096695
000060 1f 20 b4 3d 08 80 4b 3e d9 79 19 3e 28 df e9 bd
       0.08795189 0.19873059 0.14987887 -0.11419517
000070 04 79 98 bd b0 90 09 be 05 1d 2a 3e 31 62 e8 3d
       -0.07444957 -0.134341 0.16612633 0.113468535
000080 50 97 cf bd 4a 6c c3 bc 2e 62 1c bd 86 4f 57 be
       -0.101362824 -0.023855347 -0.03817957 -0.2102643
000090 c8 82 90 3a 75 40 a2 3d c4 5a ff 3c 16 fa a6 3c
       0.0011025304 0.079224505 0.03117121 0.020382922
0000a0 46 18 a9 3d 46 d5 08 3e 2c 6d 5c 3e 80 cf 77 bb
       0.08256583 0.13362607 0.21526021 -0.0037812889
0000b0 96 d8 70 3d 9e da d7 bd 26 05 79 bd f1 25 cf bd
       0.058800302 -0.10539745 -0.060795926 -0.101146586
0000c0 84 10 4b be 26 08 42 3b 69 d6 d6 3d d6 ab 04 3d
       -0.19830519 0.0029606908 0.10490114 0.032390438
0000d0 49 f4 64 3d 10 c7 72 3d 2d 11 45 3d 1a e2 a5 3d
       0.05589703 0.059271872 0.048112083 0.08099766
0000e0 fd 0e d1 bd 0a 40 9c bc cf fe 90 3d a8 30 18 be
       -0.10207937 -0.019073505 0.07079851 -0.14862311
0000f0 54 52 97 bd cb 13 92 3d 62 e1 dc 3d e9 e1 cb bd
       -0.0738875 0.071326815 0.10785176 -0.09955198
000100 5c 30 e4 3d 2d 75 ab 3d 05 22 0b 3d e3 8a 40 bd
       0.11142036 0.08371959 0.03396799 -0.047007453
000110 0d 69 4d be ed 11 06 be 97 8f 0b bc 2c 02 f8 bc
       -0.20059605 -0.13092776 -0.008518121 -0.030274473
000120 5d e8 a2 3d d0 2b 18 be ee 2c d8 bd 4e 96 a2 bd
       0.07954476 -0.14860463 -0.10555445 -0.079388246
000130 0a 2f 2f 3e 87 0a 31 be 79 05 05 3e 8d 33 2b 3d
       0.17107788 -0.17289172 0.12990369 0.04179721
000140 33 8a 11 3d b8 38 95 3d 2a 76 38 3d e1 90 80 3d
       0.035532188 0.07286209 0.045034565 0.062776335
000150 80 b6 01 bc 9f d7 62 3e b9 2f 1b 3c 5e ff e0 bc
       -0.007917047 0.22152565 0.009471827 -0.027465519
000160 8c d7 7c 3c 87 51 44 3d ed 6a 0e 3e 0f 49 75 bd
       0.01543225 0.047929313 0.13907976 -0.059884127
000170 07 18 ba bd e4 be 25 be 0e 70 2f bd dc 1b 03 3e
       -0.09086614 -0.161861 -0.042831473 0.12803596
000180 bf c7 ed bd b7 ea d2 bd 81 01 55 bd 5b ae 0d 3e
       -0.11610364 -0.102986746 -0.052003387 0.13836043
000190 0a 39 1e be d8 e3 34 be d5 65 89 3d c6 21 0f 3e
       -0.15451446 -0.1766504 0.06708876 0.13977727
0001a0 2c ed 39 be 24 60 49 be c5 db f8 bd 8a 87 bd 3d
       -0.1815688 -0.19665581 -0.12151293 0.09254368
0001b0 59 97 26 be 34 39 a4 bc 3e 2b a4 3c e6 30 04 be
       -0.16268672 -0.020046808 0.02004015 -0.12909278
0001c0 49 5d a3 bd 45 bb bd bd 02 42 2d 3c e9 84 04 3e
       -0.07976777 -0.092642345 0.0105748195 0.12941326
0001d0 e7 63 a9 3d fb fc 24 3d 3e 57 86 3d 71 4a c6 bd
       0.08271008 0.040280323 0.06559609 -0.09682167
0001e0 90 b3 af bd 76 fd 13 3d 6e 5b c1 bd a4 8b 09 be
       -0.08579171 0.03613039 -0.09441267 -0.13432175
0001f0 aa 35 7b bd 3c 0d 99 3c 73 bd e9 3d 7e 1c a2 3c
       -0.061330475 0.018683068 0.11413088 0.019788977

fp2.weight f4 [256, 128]
000000 98 7e 1f bc 85 5d 99 bc c4 65 91 bd bd 8b d0 3d
       -0.009734772 -0.018721351 -0.070994884 0.10182903
000010 e8 c7 e0 bd 97 5f 24 3d bf af 4a be bd d4 21 3d
       -0.10975629 0.040130224 -0.19793604 0.039509524
000020 fe 91 fa 3d b6 04 62 3c 98 90 85 bd fc 2b 49 3d
       0.12234877 0.0137950685 -0.0652172 0.049114212
000030 d4 86 17 3d 7f 30 35 bd 01 82 dd bc 81 d4 7a bd
       0.036993816 -0.044235703 -0.02703953 -0.061237816
000040 1e e8 3d 3b 00 98 05 bf cf 10 06 be 71 87 6c be
       0.0028977464 -0.5218506 -0.1309235 -0.23098542
000050 02 18 6d 3d 54 fe ec 3d 40 af a8 be cf 27 16 bd
       0.057884224 0.11571947 -0.32946205 -0.03665906
000060 59 47 49 be 98 7a 5d 3e f2 70 65 bd 5a 9b 8a 3e
       -0.19656123 0.21628797 -0.056015916 0.2707165
000070 d4 b7 0f be 5d d4 18 3e 87 5d e5 bd 1c 5c 02 be
       -0.14034969 0.1492476 -0.111994796 -0.1273045
000080 c7 99 d2 3c fc 8a 21 be 65 b6 5b be d8 07 30 3d
       0.025708092 -0.15775675 -0.21456297 0.04297623
000090 0f c1 15 3e 66 27 b4 3c 40 95 12 3e 4b c5 ef 3d
       0.14624427 0.021991443 0.14314747 0.117075525
0000a0 4e 1f ab bd 0c 6a 4a 3e 07 a0 0f be 33 13 d1 bc
       -0.0835558 0.19767016 -0.1402589 -0.02552185
0000b0 da 0e 12 bd b3 68 30 bd c9 a0 a2 be c2 b3 cd bc
       -0.035658695 -0.0430686 -0.31763294 -0.02511013
0000c0 a5 04 46 3e cd ad 0e be 56 86 4a be 0e 86 71 be
       0.19337709 -0.13933487 -0.19777808 -0.23586294
0000d0 92 07 c6 be 32 fd 35 3e b8 7c dc bd 0b d3 20 be
       -0.3867765 0.17772368 -0.10765976 -0.15705507
0000e0 db 7a 13 be 98 16 4b bc 7f 88 83 bd 41 44 86 3d
       -0.14402334 -0.0123955235 -0.06422519 0.06555987
0000f0 fc ec 42 3e 41 e8 f8 3c 76 ec 27 be ee 2d f1 be
       0.19035715 0.030384185 -0.16398796 -0.47105354
000100 72 63 9b bc 31 0e 2f 3d e7 16 8a 3d 24 e2 2e be
       -0.018968318 0.042738143 0.067426495 -0.17078453
000110 ea 51 14 bd c6 d9 10 bd 48 9e f8 3d 2d 98 52 bd
       -0.03621093 -0.035363935 0.12139565 -0.051414657
000120 24 11 bd bd 1e 8b ae 3c c6 32 c1 3d 0a f9 89 3d
       -0.09231785 0.02130657 0.094335124 0.067369536
000130 e7 2d 6f 3d 15 6e 22 be 22 dc 35 3e 20 20 23 3e
       0.058393385 -0.15862305 0.17759755 0.15930223
000140 d9 4d 02 3e cb 60 7b be 15 ea 28 be bc e5 e1 bd
       0.12725009 -0.24548642 -0.16495545 -0.110301465
000150 eb f8 e3 bd f5 62 84 3e 52 4e 2f be 91 de 21 3d
       -0.11131462 0.25856748 -0.1711972 0.039518896
000160 2d eb 13 3e 54 99 a6 be f0 db dc bd 96 4e 8b be
       0.14445181 -0.32538855 -0.10784137 -0.27208394
000170 49 f7 16 be 56 4b e8 3d ae a0 93 bc b9 55 1b be
       -0.1474277 0.11342494 -0.018020954 -0.1516942
000180 3f b7 36 bf af 50 48 3d bd 86 1c bf fe 61 13 be
       -0.7137336 0.04890507 -0.61143094 -0.1439285
000190 d6 8d 1c 3e b6 06 ac be 94 d7 f9 3d 8e 92 5e bd
       0.15288481 -0.3359887 0.121993214 -0.054338984
0001a0 bd 6e 43 be d4 74 1a be 0d 85 44 3d 45 bc 0c be
       -0.19085212 -0.15083629 0.04797845 -0.13743694
0001b0 48 6b e9 3b bd dd 1d be 3a 1c 95 bc 17 89 8c be
       0.0071233846 -0.15416618 -0.018201936 -0.2744834
0001c0 fa e9 ab bd c5 f5 98 3d a5 b9 3a be 63 d0 01 3e
       -0.08394237 0.07468752 -0.1823488 0.1267715
0001d0 08 d3 8f bd 50 90 67 3e 8c f4 6d be 03 cb 4e bd
       -0.07022673 0.22613645 -0.23237818 -0.050486576
0001e0 47 09 08 bd b6 05 5e be 23 15 95 bd fc 82 8f be
       -0.033211973 -0.21681866 -0.07279422 -0.2802962
0001f0 8a 0b 17 be 54 a5 c1 be 0d 05 6f 3c bf 56 42 be
       -0.14750496 -0.37821448 0.014588607 -0.18978404
000200 8c e6 15 3e 88 8f 46 3d 12 37 94 be f2 f7 39 3e
       0.14638728 0.048476726 -0.28948265 0.1816099
000210 5b 45 18 bd 6d 3c 3b be a8 d6 e7 bc 6c 35 f1 bc
       -0.037175518 -0.1828477 -0.028300598 -0.029444419
000220 b9 57 b2 3d a8 f7 f0 bd cf 6d b2 bd bc de a7 bd
       0.08708138 -0.11765987 -0.087123506 -0.0819678
000230 34 ab b8 be 4f 79 6c 3e e2 59 f7 be ef 40 58 be
       -0.36068118 0.2309315 -0.48310763 -0.2111852
000240 60 d5 ef bb 38 63 a6 be f1 2d 93 be 52 22 68 3d
       -0.0073191375 -0.32497573 -0.28745988 0.056673355
000250 1f 05 0d bd bf 2b c0 be 78 40 46 3d d4 c4 50 be
       -0.034428712 -0.37533376 0.048401326 -0.20387584
000260 0a d8 99 be 89 78 f4 ba 99 e7 a1 bd 4e 19 65 3e
       -0.30047637 -0.0018651645 -0.07905502 0.22372934
000270 1a 12 e3 bd eb 05 5d be 7a 48 02 3e 6b 3f 8b be
       -0.11087437 -0.21584289 0.1272296 -0.27196822
000280 88 7f a1 be 7c 6f ea 3d ee db 3e be 0c 08 9d bd
       -0.3154261 0.11447045 -0.18638584 -0.076675504
000290 39 99 aa 3d e6 05 9c bd 3e cf 62 be b2 96 a1 be
       0.08330006 -0.076183125 -0.22149369 -0.31560284
0002a0 2f e9 da be ea 84 85 bd 6d 3e 60 be 94 6f a4 3d
       -0.4275603 -0.06519492 -0.21898814 0.08029094
0002b0 35 2a c2 bd 07 37 5a be 63 28 99 bd 75 20 32 3e
       -0.094807066 -0.21310054 -0.07478406 0.17395194
0002c0 55 43 d5 bd 91 b7 73 bc 54 63 4f 3e 2a 81 99 be
       -0.10413233 -0.014875309 0.20252734 -0.29981357
0002d0 85 a5 b6 3d cc 65 73 bd 7c 88 60 3d f8 46 af 3d
       0.08918289 -0.059423253 0.05481766 0.08558458
0002e0 15 7f 63 bd 01 69 09 be ab c3 7b be e8 48 5e be
       -0.055541117 -0.13418962 -0.2458636 -0.21707499
0002f0 4c c1 f1 3c c3 46 d7 3c 9c 5d 3b 3e f3 3a 1c 3d
       0.029511116 0.026278859 0.18297428 0.038142156
000300 45 2f 53 3e 0c b0 87 be 3d 58 77 bb 06 a3 28 3e
       0.206235 -0.265015 -0.0037741803 0.16468439
000310 fd e4 38 3e b5 de 3e 3e 55 45 19 be 70 ad af 3d
       0.18056102 0.18639643 -0.14967854 0.085780025
000320 b4 6a 5b bd 92 e0 29 bd bf 9b 57 3e 9d 3e b9 be
       -0.053568557 -0.041473933 0.21055506 -0.36180583
000330 10 e1 31 3c bf 7f 7b be 6d b4 3a be 8a 54 0b bd
       0.010856882 -0.2456045 -0.1823289 -0.03401617
000340 b5 0a 01 be 56 6b b3 3c f6 4e 85 be 58 76 36 be
       -0.1260174 0.021901768 -0.26036805 -0.17818582
000350 8f 92 87 3b fe 48 99 3d 1e 02 3c 3e ad 63 ce bd
       0.004137344 0.07484625 0.18360183 -0.100776054
000360 2d f8 f2 bb d6 8a 63 3d e6 c0 72 3e 10 bb a8 3d
       -0.0074148388 0.055552326 0.23706397 0.08238804
000370 25 f6 ba 3b 18 03 eb bd 02 f6 8d be 94 1c 30 be
       0.0057056122 -0.114751995 -0.27726752 -0.17198402
000380 09 3c 74 be d8 59 43 be 39 a5 f8 bd 1f 3d b5 3d
       -0.23851027 -0.19077241 -0.12140889 0.088495485
000390 b9 4d 12 3d 71 af b3 bd 05 28 4a bd 6b b4 00 3e
       0.035718653 -0.08773697 -0.04935457 0.12568824
0003a0 25 85 0e 3e 45 c3 b6 3d f8 a1 9e bd 9e 44 49 be
       0.13917978 0.089239635 -0.07745737 -0.19655082
0003b0 1b 2c a3 be 82 b1 52 be 2f 95 aa 3d b6 eb 3b be
       -0.31869587 -0.20575526 0.08329236 -0.18351635
0003c0 5c 4d 4b be 13 bd 0b 3e 70 84 33 3d aa 53 65 be
       -0.19853729 0.13646345 0.043827474 -0.22395197
0003d0 20 c1 03 3d b9 9d f9 3d 2d 85 02 3e 7d ae 43 3d
       0.0321666 0.12188286 0.12746115 0.047773827
0003e0 da 41 a9 3c 21 e7 4d 3b 48 13 37 3c 08 3c 27 bd
       0.020661283 0.003141828 0.011174031 -0.040828735
0003f0 3f 77 45 3e c7 f4 d1 bd 98 6c e9 3d 25 e4 ba bb
       0.1928377 -0.10251766 0.11397666 -0.0057034665

fp2.bias f4 [256]
000000 e5 cb 16 bd cd 9f f1 3c 2f 6b 7c 3e 10 14 50 bd
       -0.036815543 0.029495144 0.24650262 -0.050800383
000010 fb cb e3 3d 1a 80 92 3c fd a9 74 bd f6 1f 0d 3f
       0.111228906 0.01788335 -0.059732426 0.55126894
000020 23 7c 00 bd 53 14 e7 bc 6f 24 bd bb 9a f7 51 3e
       -0.031368386 -0.028207934 -0.0057721655 0.20504609
000030 92 7d a6 bd 1d 25 30 3c f3 8b 70 3c 37 e2 3d 3e
       -0.081294194 0.010751036 0.014681804 0.18543325
000040 8e 7f 61 3e a1 97 85 bd 81 ec dd 3c 77 7c 96 3c
       0.22021315 -0.065230615 0.027090313 0.018369896
000050 1d 27 1d be 61 73 a2 bc f8 75 ed ba 15 b5 32 bd
       -0.15346952 -0.019830408 -0.0018116822 -0.043629725
000060 76 0d 17 3d 3f bc b4 3d ba 52 a6 3d 40 87 40 bc
       0.03687807 0.088249676 0.081212476 -0.011750996
000070 3f 34 f7 bd ad 31 2c be 29 cf 6b bc 08 db c0 bc
       -0.12070512 -0.16815825 -0.014392653 -0.023541942
000080 9a a4 09 bd e7 44 0c bd 55 0f a6 3e e5 aa 8e bd
       -0.033604242 -0.034245398 0.32433572 -0.06966189
000090 38 69 fa bc 90 6d 1a be 75 73 1a be 45 c0 33 bd
       -0.03056775 -0.15080857 -0.15083106 -0.043884534
0000a0 94 29 21 be cd f8 f0 bc 1b 9a 0c 3f 52 89 77 3b
       -0.15738517 -0.029415512 0.54922646 0.0037771058
0000b0 1b f0 e0 3c f0 38 16 3d 85 4c 1c be 53 9d 33 bd
       0.027458241 0.036675394 -0.15263565 -0.043851208
0000c0 a6 ef 02 bc 76 81 f2 3e c2 50 51 3c 1f 58 38 3e
       -0.007991707 0.47364396 0.012775602 0.18002366
0000d0 e0 a2 3b be 43 5c 9a bc 68 17 9f bc 2d fd 36 3d
       -0.1832385 -0.018842822 -0.01942034 0.04467504
0000e0 ea 40 f9 3d 92 6d 29 be a2 25 08 be c8 d1 06 3e
       0.121705845 -0.16545704 -0.13295606 0.13165963
0000f0 3e 6b f6 bd a8 43 14 3d 9d 75 00 be 9c 5e c1 3c
       -0.120321736 0.036197335 -0.12544866 0.023604684
000100 72 a0 aa 3e 68 d6 04 bd 6d 1c d1 bc 7e 6a 9f 3d
       0.33325535 -0.032431036 -0.02552625 0.07783984
000110 ae a4 4d bd 18 33 3e bd ab af 83 3e 2d 29 64 bd
       -0.05020588 -0.046435446 0.25719962 -0.05570333
000120 a1 e9 a4 bc c9 ac 98 bd de 4e 8e bd 48 17 46 3d
       -0.020130934 -0.07454831 -0.069486365 0.048362046
000130 f9 00 59 3e 33 fd 49 bd 65 20 68 3c 16 5e a5 3e
       0.21191777 -0.049313735 0.01416788 0.32298344
000140 f9 61 d2 bc 7e f8 7b bd 49 8a 95 bd 63 11 6c 3d
       -0.025681483 -0.061516277 -0.073017664 0.05763377
000150 8b 4d 55 bc e6 25 8f 3e b1 63 53 be 15 2b a2 3c
       -0.013018976 0.27958602 -0.20643498 0.019795934
000160 af c7 8b 3e 78 79 85 3c 00 7e 25 3e 37 e9 23 3a
       0.27300784 0.016293272 0.16161346 0.0006252708
000170 80 4a 6c bd 8c 44 24 3e 0e f8 84 3e 3f f7 bb bd
       -0.057688236 0.16041774 0.259705 -0.09178018
000180 73 2b 92 bd 3e 57 26 bd b1 1f 0d 3d f1 2d 2e 3d
       -0.071371935 -0.040610544 0.03445405 0.042524282
000190 9d f7 a2 bd ae 16 8f 3d ae 5e f2 3d 69 d4 96 3d
       -0.07957385 0.06986748 0.11834465 0.07364733
0001a0 63 71 b8 bd 45 f1 19 be 2c 05 47 3d 81 01 e0 3d
       -0.09006002 -0.15033443 0.048588917 0.10937787
0001b0 fc b8 a8 bd 69 9d 92 3d fd 43 28 be 87 d7 49 bd
       -0.08238408 0.0715893 -0.16432185 -0.04927781
0001c0 80 96 75 bd a6 b2 33 3c ed 2b b7 bc 3e 78 e0 bd
       -0.05995798 0.010967886 -0.022359813 -0.109604344
0001d0 15 5c 43 bd c5 f0 b7 3d 82 ae 00 be c2 e2 c6 3d
       -0.04769524 0.0898147 -0.1256657 0.09711219
0001e0 1c 0e c2 3e 9d 99 50 3b ea bc 64 be 7c 1d 1b 3d
       0.3790139 0.0031829842 -0.2233769 0.037869915
0001f0 02 de 08 bd 90 5e 0c be f0 0b 95 bb 97 85 a2 3d
       -0.03341485 -0.13707948 -0.004548542 0.079356365
000200 7e 67 89 3d 38 fe 4b bd cf 1d 10 be 2e c8 f5 bd
       0.06709193 -0.04980299 -0.14073871 -0.12001072
000210 2e 6e 59 bc dd 88 00 bd 2b 75 de 3d 2a 98 80 3e
       -0.013270898 -0.031380523 0.10862192 0.25116092
000220 69 fb a8 bd 41 92 b4 bb 2c 65 48 3d 25 1d d7 3c
       -0.08251078 -0.005510599 0.04892461 0.026259014
000230 26 de cf 3c c3 4a 46 bd 69 91 f7 bc 1d f9 b2 bd
       0.025374483 -0.048411142 -0.030220704 -0.08738921
000240 7e a3 49 3d 65 08 17 3d 06 d6 de bc 42 1e 62 bd
       0.049228184 0.03687324 -0.027201664 -0.055204637
000250 f4 9a 49 be f2 11 82 3d 1b 0a 58 bd 8a 98 80 bd
       -0.19688016 0.06351079 -0.052744012 -0.062790945
000260 f3 7c 44 3e fb 21 97 bd 68 f3 69 bd 51 ed 24 3e
       0.1918829 -0.07379528 -0.057116896 0.16106154
000270 7a 1a 1c bd e8 f6 ea bc 68 ad 64 bd 8c a5 a6 bd
       -0.038111188 -0.028682187 -0.055829436 -0.08137044
000280 13 92 ed bd ca 14 8b bd 77 81 50 bd 7f 18 3e be
       -0.11600127 -0.067910746 -0.050904717 -0.18564032
000290 72 1f 50 3e b4 e3 6b bd 19 7b 02 be db 5f 2e bd
       0.20324495 -0.0575902 -0.1274227 -0.042571884
0002a0 5f 88 86 3d 18 dd 23 3e 22 6f ae bb 24 8b d4 bd
       0.065689795 0.1600231 -0.0053233067 -0.103781015
0002b0 b2 58 b5 bd 1f 1e 7a bc 60 59 9d 3c 05 55 27 bd
       -0.08854808 -0.0152659705 0.019207656 -0.040852565
0002c0 5e f6 ba 3d 5e fe 8f 3b 9a 82 df 3b ab aa 69 bc
       0.09129022 0.0043943366 0.006820989 -0.014261882
0002d0 f6 7a bf bd 3f 41 97 3d 72 84 15 be df 56 56 3e
       -0.09349625 0.073854916 -0.14601305 0.20931576
0002e0 29 72 63 bd 8a 21 65 3d 9a b3 84 bc f0 23 3f 3d
       -0.055528793 0.05594019 -0.016198922 0.046665132
0002f0 e4 d3 e6 bc bf 20 b5 bd b9 05 e3 3c 07 df 0a be
       -0.02817721 -0.088441364 0.02771269 -0.1356164
000300 90 f3 7f bd 2d 9a 1e bc fa 5f d3 3d d5 5e ea 3e
       -0.06248814 -0.009680313 0.103210405 0.45775476
000310 cd af 7b bd fa c3 b8 3c 31 07 0c bd be b9 10 3d
       -0.061446954 0.022554386 -0.034186546 0.035333388
000320 02 5e 07 3d a5 49 a8 bc c6 ed 19 bd 33 34 e3 bd
       0.033048637 -0.020542929 -0.037580274 -0.110939406
000330 2f 15 1c be 89 7a 2e be 19 f0 cf bd 83 4e b0 3c
       -0.15242456 -0.17038931 -0.10153217 0.021521812
000340 f0 74 9a bd ed 4c 58 be ac 60 81 3c ac bd da bd
       -0.07541835 -0.21123095 0.015793167 -0.10680708
000350 a7 d8 3c 3c ec c6 65 bd 07 19 f2 bb f8 84 20 3d
       0.011526263 -0.05609791 -0.0073882374 0.03918931
000360 2a 0f a0 3d 90 1c 6d bc 96 9e a2 bd 0c 80 32 bd
       0.07815392 -0.014472142 -0.07940404 -0.043579146
000370 ee 30 a3 bb 21 c7 d7 bd 01 27 86 bd d2 01 bd bc
       -0.004980198 -0.10536028 -0.06550408 -0.023072157
000380 90 e6 8e 3d b1 47 b9 3e 11 e5 3f 3d 9c 4d 9b bc
       0.0697757 0.3618751 0.046849314 -0.018957905
000390 c6 05 68 be 51 99 85 3e 8b 2f e6 bc 2c 8f 54 3c
       -0.22658452 0.26093534 -0.028098842 0.012973588
0003a0 4d 07 c7 bd bb 33 01 bd a5 70 08 bd a7 87 a3 3d
       -0.097181894 -0.031543475 -0.03331055 0.07984858
0003b0 f1 bf 84 bd 24 86 5a bc a1 22 b5 bd f0 52 18 bd
       -0.064819224 -0.013337646 -0.088444956 -0.03718847
0003c0 60 49 2e 3e 18 8f 34 3c de 0f 7c bc 89 0c 3f 3d
       0.17020178 0.011020444 -0.015384642 0.046642814
0003d0 b0 7b 9c bd 7a cb 8e bd c4 6f 5a bd 6e b2 01 be
       -0.07640779 -0.06972404 -0.053329244 -0.12665722
0003e0 05 54 b0 3d b1 38 1d be 4b 08 88 bd 19 ba 98 bd
       0.086097755 -0.15353657 -0.06642207 -0.0745737
0003f0 79 1d db bc ca b8 02 3d 67 1d b8 bd e0 66 25 be
       -0.026747452 0.03191451 -0.08989983 -0.16152525

head.weight f4 [4, 256]
000000 3a 26 7e bd be 0d 68 3d 1a 47 37 3d b4 c7 a6 3d
       -0.062048174 0.05665373 0.044745542 0.08143559
000010 ab 91 21 3e c7 49 87 3e 24 46 07 3c 0e 93 22 3e
       0.15778224 0.26423475 0.008256469 0.1587641
000020 9b 4a 95 3c 3e 1c 86 3d aa 87 88 bd 49 84 bb 3d
       0.018224051 0.065483555 -0.06666501 0.09156091
000030 09 f5 6f be 41 3a b0 3d aa 07 2f 3e 14 a0 55 3e
       -0.23433317 0.08604861 0.17092767 0.20861846
000040 2e 8f b8 3d c9 e6 aa 3c df a2 84 3e 9d e2 76 3e
       0.09011684 0.020862 0.2590551 0.24109884
000050 4a 95 0f bc ea 44 d1 3d a4 77 ea bd de 52 14 bf
       -0.008763621 0.102182224 -0.11448601 -0.57938945
000060 00 8c 2e 3e bd 14 8c bc 73 7d ac 3b d6 0f 1d 3e
       0.17045593 -0.017099733 0.005263978 0.15338072
000070 44 f8 37 be 92 00 9a bc 03 b8 3a bb 30 2c a9 bc
       -0.179658 -0.0187991 -0.0028491027 -0.020650953
000080 a7 a8 64 bd 47 43 c5 bd 26 4d d6 3d d9 fb ca 3e
       -0.055824902 -0.09631973 0.10463934 0.3964527
000090 6a 91 4c 3e 79 71 e2 bd fa a5 30 be 74 f6 fe bc
       0.19977346 -0.110567994 -0.17250815 -0.031123377
0000a0 1d ee 3c bd ec c0 29 3e a8 1e 25 3e c8 b8 91 3d
       -0.04612552 0.165775 0.16124976 0.07115322
0000b0 ab a0 be bd dc e2 49 3e d9 6b 02 bd 54 fe 08 3e
       -0.09307989 0.19715446 -0.031841133 0.13378268
0000c0 a7 23 9e 3c fd f9 0a 3e fa 2f ae bd 1f 9a 8c bc
       0.01930411 0.13571925 -0.085052446 -0.017163334
0000d0 9b a9 ad bd 75 50 c7 3b b4 92 03 be 2f 06 93 3e
       -0.08479615 0.0060825893 -0.12848932 0.28715655
0000e0 c8 e0 55 3d 57 bf 07 bd 09 fa 11 3d a2 0c 2e 3e
       0.05221632 -0.03314146 0.035638843 0.16997007
0000f0 29 c3 b6 3d a2 9a 88 be 74 d4 73 bd ac 14 a3 3d
       0.089239426 -0.26680475 -0.059528783 0.07962927
000100 35 92 81 3d 93 80 0d bc e2 b8 e4 3c 47 41 0c 3e
       0.06326715 -0.0086366115 0.02792019 0.13696776
000110 96 7e d6 3c f6 fb 22 bd 9c 7a c8 3d 2a 76 ce 3c
       0.026183408 -0.03979107 0.09789011 0.02520283
000120 b2 15 2b 3c 22 3a 93 3d 87 59 ac bd c7 a9 88 3b
       0.010442184 0.07188822 -0.084155135 0.0041706297
000130 9c 97 f4 3c 05 da 25 3e 5e f0 62 bd c8 50 05 3e
       0.02985745 0.16196449 -0.055405013 0.13019097
000140 fb 60 52 3b 9d 9e 19 3e 4b 63 45 3c d8 cb c0 3d
       0.0032101262 0.15001912 0.012047599 0.0941388
000150 15 93 c6 bc 88 1d 45 3d f8 22 8b 3c c6 8a 71 bd
       -0.024240056 0.048123866 0.016984448 -0.058970235
000160 88 c0 c9 3d 9b 7d 4b bc a1 a7 26 3e fd a0 d0 bc
       0.098511755 -0.012420083 0.16274883 -0.02546739
000170 5e c8 b1 be bf b2 10 3e 85 39 56 3d 0e 06 8b bc
       -0.3472318 0.14130686 0.05230095 -0.01697066
000180 f6 84 0b be 7a ad 01 3e 45 17 bf 3c 89 d0 8a 3e
       -0.1362494 0.12663832 0.023326525 0.27112225
000190 f5 66 fa bc 92 53 1e 3e a3 b3 81 3c 0d b2 17 be
       -0.030566672 0.15461567 0.015832728 -0.14814015
0001a0 4a b2 1a be a8 a3 54 be 4b b4 01 bb f1 ed c1 3d
       -0.15107074 -0.20765555 -0.00197913 0.09469212
0001b0 b5 86 bd be 29 4a e1 be 94 47 4a 3c 99 ab 44 3d
       -0.37016836 -0.44001892 0.012346167 0.04801521
0001c0 50 d6 8f bd ef dc 0c 3e 44 e9 2f 3d f0 f8 71 bd
       -0.07023299 0.13756154 0.04294707 -0.059075296
0001d0 42 e3 e2 bd 66 b1 0e 3d 5b 88 56 bd 81 8e 48 bd
       -0.11078502 0.03483715 -0.052376132 -0.048964027
0001e0 35 1b a1 3d 73 2f 2a be 6c 77 2d be c9 4a c3 3d
       0.078665175 -0.16619663 -0.16940087 0.095357485
0001f0 4c 84 1f bf 63 c6 96 3c 3b 3b 82 3e d3 e9 69 3d
       -0.62311244 0.018405145 0.25435814 0.057107758
000200 35 03 b0 3d 58 08 f3 39 fa 7c 5e be 0a 0f 98 bd
       0.08594362 0.00046354788 -0.21727362 -0.074247435
000210 92 43 ce bd 88 6b 65 bc 24 7f 94 3d 4d 56 d3 3d
       -0.10071482 -0.014002688 0.07250813 0.10319195
000220 9f 11 db 3d aa 2f 3e 3b 96 45 9e 3d 25 79 ba bd
       0.1069672 0.002902011 0.07728116 -0.09105138
000230 b4 17 83 3e 68 c4 f7 bd 02 f4 25 3e b2 38 2f 3e
       0.25604022 -0.120980084 0.16206363 0.17111471
000240 a9 da df 3d 43 9e 4b bd 49 d5 37 3e 75 5c cc 3e
       0.10930378 -0.049711477 0.17952456 0.3991429
000250 73 22 c0 bd 99 f4 29 bd 38 95 0d 3e 04 7b 8a 3e
       -0.09381571 -0.041493032 0.13826454 0.27046978
000260 d7 ed bb 3d 82 3f 0f 3b c2 5f 8d be d8 8f 1c 3e
       0.09176224 0.0021857922 -0.2761212 0.15289247
000270 bb b5 de bd f2 d4 2a be 45 19 0b be cc a2 5b bd
       -0.10874506 -0.16682795 -0.13583858 -0.053622052
000280 2c 37 7d bd 76 50 18 be 51 62 1c 3e 01 5e 34 be
       -0.061820194 -0.14874443 0.1527188 -0.17613985
000290 d4 64 a8 3d 18 66 67 bd 04 15 dd 3e 99 05 17 be
       0.082223564 -0.05649385 0.43180096 -0.14748229
0002a0 d1 04 e6 3d 4a 39 fb 3d 99 5a 8b be 76 1b 95 3c
       0.112313874 0.122667864 -0.27217558 0.018201571
0002b0 d9 c6 1e 3e 5c f6 ac bc ce 89 a8 bd 8d 42 87 3d
       0.15505542 -0.021113567 -0.08229409 0.066044904
0002c0 dd b1 17 3e ec e0 6e 3c 13 b1 62 be 76 67 8e 3e
       0.14813943 0.014579993 -0.22137861 0.2781331
0002d0 80 f8 15 bd 61 48 00 3e a4 86 5e 3e 7f e7 d0 3d
       -0.03661394 0.1252761 0.21731049 0.102004044
0002e0 92 54 e7 3d f7 36 94 bc eb e0 65 3e bd 27 b2 bb
       0.112954274 -0.018092616 0.2244908 -0.005436866
0002f0 eb 4b b8 3c 31 25 8a 3d 8f 46 0a 3e 03 38 9b bd
       0.022497138 0.06745375 0.13503478 -0.07579043
000300 4a 94 0c 3e 04 cf 12 3d a0 1b 7f 3c 5b 90 f4 3d
       0.13728443 0.035841957 0.015570551 0.11941596
000310 65 8f e2 bc 33 ef ca 3a 1b 5b 7d 3d fd be a5 3e
       -0.027656266 0.0015482664 0.061854463 0.32372275
000320 67 3f 8f 3d 08 07 fb bc 2c 98 41 bd 91 1c 9f 3c
       0.06994515 -0.030643001 -0.047264263 0.019422801
000330 99 27 8e bd a4 3c 6d 3d 83 b6 2f 3e 26 33 9c 3e
       -0.069411464 0.05791916 0.17159466 0.30507773
000340 22 f6 89 bc 89 b0 30 be c0 35 c4 b7 3c 5a 81 bd
       -0.016840998 -0.17254843 -2.339005e-05 -0.06316039
000350 ea fc f2 3c 81 f4 20 3e a9 2f a4 3d 85 d5 af 3d
       0.029661614 0.15718271 0.08016903 0.085856475
000360 be cf fe 3d a0 64 ae 3e e0 fb c3 bc 01 d2 2e 3e
       0.124419674 0.34061146 -0.023923814 0.17072298
000370 de 45 97 3d 4b a7 5b bc a3 ff 81 bd da 4b b8 bc
       0.07386373 -0.013406585 -0.06347587 -0.022497106
000380 d3 72 e7 3d 9d 34 d7 3d 20 b9 f8 bc 38 41 1a 3d
       0.11301198 0.10508082 -0.030361712 0.037659854
000390 67 90 b2 bd 77 7c 3a 3e 51 0c 7a 3a 3c f6 ba bc
       -0.08718949 0.18211542 0.00095385785 -0.022822492
0003a0 19 38 5b 3e 7d f3 2b be 39 64 33 bd 2e 00 80 3d
       0.21408118 -0.16792102 -0.04379675 0.06250034
0003b0 02 63 b3 bc 49 69 a4 ba 98 71 a0 bc f5 91 ac 3b
       -0.021897797 -0.0012543584 -0.019585416 0.005266423
0003c0 3e 36 34 3e da 8c 97 be 87 61 23 3e 04 ee d4 3d
       0.17598817 -0.2959965 0.15955172 0.103969604
0003d0 d8 61 3f bd ea c5 c8 3d 76 6e 18 3d 26 2c a0 3d
       -0.04672417 0.09803374 0.03721472 0.07820921
0003e0 f1 25 09 bf 09 19 29 3d d1 a9 4e 3d 32 89 dd 3d
       -0.5357352 0.04128364 0.05045492 0.108171836
0003f0 9f f6 28 3e 4e f8 ab 3d 3e c2 2e 3c 5e 37 a3 bd
       0.16500328 0.0839697 0.010666428 -0.07969545

head.bias f4 [4]
000000 f8 da a4 3e 27 03 94 3e aa eb 7e 3e 8a ec a4 3e
       0.3219831 0.28908655 0.24894586 0.32211715
