models/final.pth (torch_old, 158001 bytes, 7 tensors)

fp1.weight f4 [128, 37]
0.15799661 -0.07713883 -0.22614922 -0.09323625 -0.515467 -0.6929001 -0.22043301 0.4821003
-0.103505924 -0.089532845 0.03527206 -0.4178457 0.20348936 -0.25670937 -0.294697 -0.366139
0.20189023 0.20295416 -0.54452 0.17536905 -0.6706386 0.1789997 0.16968615 0.097619824
-0.09649415 -0.34083113 -0.017068122 0.16100664 -0.35951477 -0.00027372886 -0.31487 0.088989384
0.027676059 -0.14285207 -0.2537165 -0.100216724 0.006781958 0.58222616 -0.38865277 -0.36674458
-0.4413693 -2.8715532 -0.10217894 -0.028015813 -0.008656279 -0.007424647 0.224993 0.089363195
-0.022879839 0.0335794 0.13840947 0.10132878 0.13701192 0.043949164 0.080875844 -0.036126588
-0.027126642 -0.12402124 -0.044790223 0.03571696 0.020962568 0.12976791 0.04923622 -0.018338008
0.10612812 0.071710005 0.026586201 0.11986596 0.20622258 0.083770216 -0.05169831 -0.18897864
0.008898881 0.0056956895 0.112507604 0.3966358 -0.16417621 -0.16334298 -0.41864678 0.05020504
-0.25110614 0.19333667 0.095332466 -0.12503022 -0.08200761 0.23011002 0.05639364 -0.40293205
0.28464234 -0.9588974 0.22684711 0.30005613 0.1662485 0.26030257 -0.25431514 0.016234078
0.059728116 0.24175633 -0.43504047 0.17785637 -0.03154286 0.12644568 -0.16834562 0.18601947
-0.05588457 -0.040409 -0.25031227 0.0149415685 -0.06277306 0.006567022 -0.06585337 0.08737802
0.1556874 0.110601105 0.08425494 -0.12034297 -0.04012131 0.10328644 0.05349899 0.103650875
0.13128279 0.463316 -0.85619444 -0.8618297 -0.7937657 -2.7529597 -0.055805903 0.0001460813
0.02330415 -0.17056504 -0.031458784 0.0069770077 0.09703889 0.06874641 0.09737563 0.09074459
0.0852529 0.028554808 0.07030346 0.11721217 0.1007159 0.08393173 0.2034858 0.13205399
0.092187196 -0.042259637 0.011597299 0.00017318933 -0.00582914 -0.31169513 -0.052810185 -0.24962568
-0.40404335 0.11251794 0.22070993 -0.20207834 -0.31829754 0.16756512 0.13727874 -0.17605804
-0.124520235 -0.23729521 -0.65071106 -0.2596884 -0.056700867 0.080689795 -0.13187775 -0.06250108
0.014575645 -0.088455744 -0.037383124 -0.06414897 0.122371644 0.09555771 -0.14421736 0.06603812
-0.2930691 -0.76293916 0.012931917 0.10385193 0.0141472565 0.028393503 0.28388652 -0.097324416
0.07323995 0.22560692 -0.25322965 -0.13890424 -0.27416977 -0.0010832584 0.08986376 -0.22843923
0.04996653 0.020126855 -0.6168793 -0.3823427 -0.65335244 0.09204284 0.2772241 -0.1679308
-0.12890631 0.08607166 -0.62835294 0.3550965 -0.30829737 0.078912176 -0.20589298 0.06553062
0.18250562 0.34073326 -0.038137056 -0.12562329 0.12793651 -0.21088104 0.17226993 -0.13378051
-0.30957574 0.2282723 -0.17817727 -0.36066243 0.02871292 -0.0037390513 0.13134542 0.09906946
-0.42426622 -0.18002908 -0.4825737 -0.459856 0.08138003 0.11124072 0.0729218 0.35738164
-0.10625991 -0.021363715 0.41593248 -0.45901543 -0.26274255 -0.03543928 -0.005517362 -0.09738357
-0.2313615 0.46340486 -0.29079753 0.12245439 -0.012643488 -0.1449715 0.24780957 -0.32368615
-0.24494025 0.076428734 0.01635274 -0.04975172 -0.1811999 -0.041894693 0.007807171 0.09272897
00000000: ddc9 213e f7fa 9dbd a993 67be a6f2 bebd
00000010: a5f5 03bf e761 31bf 31b9 61be dad5 f63e
00000020: eafa d3bd ff5c b7bd 7079 103d dfef d5be
00000030: 845f 503e 696f 83be 86e2 96be 9276 bbbe
00000040: 50bc 4e3e 37d3 4f3e aa65 0bbf f293 333e
00000050: f9ae 2bbf b34b 373e 35c2 2d3e e7ec c73d
00000060: ba9e c5bd 6b81 aebe 72d2 8bbc edde 243e
00000070: 5212 b8be 4483 8fb9 a436 a1be 1140 b63d
00000080: e7b8 e23c d047 12be 21e7 81be 6d3e cdbd
00000090: 303b de3b c60c 153f 7ffd c6be f2c5 bbbe
000000a0: 28fb e1be 87c7 37c0 3143 d1bd 6b81 e5bc
000000b0: 11d3 0dbc 744a f3bb 9164 663e 0d04 b73d
000000c0: 806e bbbc 8e8a 093d 36bb 0d3e 7785 cf3d
000000d0: da4c 0c3e 0a04 343d 3ca2 a53d 79f9 13bd
000000e0: b138 debc d9fe fdbd f475 37bd f24b 123d
000000f0: b1b9 ab3c e1e1 043e ebab 493d 9739 96bc
00000100: b359 d93d b2dc 923d 4ecb d93c 497c f53d
00000110: 032c 533e b88f ab3d 9bc1 53bd 9e83 41be
00000120: 9dcc 113c e8a2 ba3b 636a e63d d913 cb3e
00000130: cf1d 28be 6243 27be df58 d6be cda3 4d3d
00000140: fc90 80be 0cfa 453e ab3d c33d ec07 00be
00000150: 9bf3 a7bd f6a1 6b3e 04fd 663d 1c4d cebe
00000160: a4bc 913e 4d7a 75bf 9c4a 683e f5a0 993e
00000170: 0c3d 2a3e 6146 853e 9835 82be 54fd 843c
00000180: 78a5 743d f98e 773e a0bd debe fb1f 363e
00000190: 1633 01bd fa7a 013e cb62 2cbe e37b 3e3e
000001a0: 38e7 64bd e883 25bd ee28 80be 7bcd 743c
000001b0: 298f 80bd 2c30 d73b 22de 86bd 3ff3 b23d
000001c0: 856c 1f3e d582 e23d db8d ac3d 6076 f6bd
000001d0: 3e56 24bd d787 d33d c221 5b3d e946 d43d
000001e0: ff6e 063e c137 ed3e 8f2f 5bbf dfa0 5cbf
000001f0: 3b34 4bbf 7e30 30c0 bb94 64bd 662d 1939
00000200: 58e8 be3c 9aa8 2ebe edda 00bd 629f e43b
00000210: 53bc c63d ebca 8c3d e06c c73d 4dd8 b93d
00000220: 1399 ae3d c6eb e93c 43fb 8f3d ef0c f03d
00000230: 2344 ce3d 66e4 ab3d 955e 503e 2939 073e
00000240: a4cc bc3d 7118 2dbd 9902 3e3c 289a 3539
00000250: 5f02 bfbb 8196 9fbe 7e4f 58bd e09d 7fbe
00000260: c5de cebe ce6f e63d c901 623e a0ed 4ebe
00000270: e5f7 a2be 3196 2b3e cc92 0c3e 8f48 34be
00000280: 7704 ffbd 84fd 72be 0095 26bf e1f5 84be
00000290: 2b3f 68bd b140 a53d f60a 07be 9100 80bd
000002a0: b0ce 6e3c 4928 b5bd 0c1f 19bd 8960 83bd
000002b0: fc9d fa3d c3b3 c33d b7ad 13be fe3e 873d
000002c0: 270d 96be fb4f 43bf 64e0 533c 52b0 d43d
000002d0: e5c9 673c 7e99 e83c 9359 913e 0652 c7bd
000002e0: d4fe 953d 8005 673e 51a7 81be ea3c 0ebe
000002f0: fb5f 8cbe 1ffc 8dba 7e0a b83d f9eb 69be
00000300: b4a9 4c3d 13e1 a43c cdeb 1dbf 6cc2 c3be
00000310: 1b42 27bf f580 bc3d 51f0 8d3e 0df6 2bbe
00000320: 0400 04be 5746 b03d bddb 20bf 35cf b53e
00000330: 27d9 9dbe b59c a13d 9cd5 52be eb34 863d
00000340: c1e2 3a3e 9774 ae3e 9a35 1cbd 64a3 00be
00000350: ca01 033e 33f1 57be 8767 303e c2fd 08be
00000360: b680 9ebe 37c0 693e 1a74 36be bfa8 b8be
00000370: 5c37 eb3c df0a 75bb 6a7f 063e eee4 ca3d
00000380: 6c39 d9be 8b59 38be e613 f7be 3f72 ebbe
00000390: 93aa a63d 2dd2 e33d 0658 953d bafa b63e
000003a0: cc9e d9bd f502 afbc 1af5 d43e 1204 ebbe
000003b0: 3186 86be c728 11bd fdca b4bb 0a71 c7bd
000003c0: 07ea 6cbe 6743 ed3e 6ae3 94be 5ec9 fa3d
000003d0: a226 4fbc 6973 14be cbc1 7d3e 31ba a5be
000003e0: 9ed1 7abe ab86 9c3d 2ef6 853c 76c8 4bbd
000003f0: 778c 39be c599 2bbd 4cd3 ff3b b0e8 bd3d

fp1.bias f4 [128]
-0.111069165 0.1086974 -0.07993036 0.07656572 -0.03889704 -0.14827006 0.031208329 0.08809645
-0.16811472 0.052859206 -0.105396785 0.007936589 -0.049658637 -0.14487267 -0.19806853 -0.13385347
0.09340806 -0.0014466849 -0.018625196 -0.041269142 -0.10958055 0.105213396 0.2329333 -0.090799935
-0.08793357 0.20510827 0.081671715 -0.14409937 0.05054369 -0.038310803 0.063109845 0.033500858
-0.13903439 0.070386656 0.021076873 -0.17081884 -0.14671129 0.04054932 0.038378492 0.011758431
0.048248094 0.10740254 0.1821808 0.042293437 0.038902257 -0.08719287 -0.026701106 0.0036572716
-0.124566056 0.024681836 -0.076808505 -0.07151541 -0.06722721 0.0922767 0.083896846 0.13314448
-0.019646725 0.115087725 0.082102254 -0.10516834 -0.108660534 0.015810303 0.12646915 -0.06530433
0.17672174 0.110814355 0.017501226 -0.0921193 -0.1722698 -0.13018298 -0.0048260763 -0.01653568
0.0116084125 -0.064835556 -0.10652053 -0.05315378 0.16200571 -0.13376036 0.07645989 0.0006105897
0.013400675 0.107918784 0.08800026 -0.09089199 -0.08283094 0.082259916 0.054057274 -0.104733914
-0.07229271 0.043317255 0.28398293 -0.019012857 -0.20106073 -0.019173125 -0.067311026 0.02846444
0.07206736 -0.13164996 -0.08686994 0.08511514 -0.18908177 -0.26166418 0.17355752 0.13732173
-0.16973113 -0.18456654 -0.116018124 0.044769302 -0.17819601 -0.046745352 0.24545543 -0.005863284
-0.12299191 -0.14292668 -0.0025999902 0.11010641 0.14969935 0.20106687 0.025191752 -0.025058826
-0.13990057 0.00815182 -0.13187775 -0.3426922 -0.13076706 0.022605177 0.023899598 -0.095599964
00000000: 3b78 e3bd be9c de3d 87b2 a3bd 7dce 9c3d
00000010: 8152 1fbd 1bd4 17be 9ca8 ff3c e96b b43d
00000020: 4426 2cbe e582 583d 45da d7bd 7808 023c
00000030: db66 4bbd 8059 14be 7ad2 4abe e210 09be
00000040: ba4c bf3d b19e bdba de93 98bc d509 29bd
00000050: c46b e0bd 1f7a d73d 1186 6e3e 51f5 b9bd
00000060: 8416 b4bd e707 523e 8043 a73d c98e 13be
00000070: e606 4f3d caeb 1cbd bc3f 813d 3238 093d
00000080: 085f 0ebe e126 903d 68a9 ac3c 22eb 2ebe
00000090: 7c3b 16be 0b17 263d c432 1d3d 6fa6 403c
000000a0: cb9f 453d ddf5 db3d 9b8d 3a3e e23b 2d3d
000000b0: f957 1f3d 2d92 b2bd 47bc dabc d6ae 6f3b
000000c0: 7d1c ffbd 9031 ca3c c74d 9dbd ac76 92bd
000000d0: 6bae 89bd 91fb bc3d 1cd2 ab3d 0757 083e
000000e0: 2bf2 a0bc 1db3 eb3d 3a25 a83d 8062 d7bd
000000f0: 6a89 debd 9c84 813c 2181 013e 47be 85bd
00000100: 8bf6 343e a3f2 e23d bb5e 8f3c 0ba9 bcbd
00000110: 7f67 30be b04e 05be 1024 9ebb d675 87bc
00000120: 3631 3e3c 81c8 84bd 7027 dabd c7b7 59bd
00000130: d3e4 253e 7af8 08be 0197 9c3d fb0f 203a
00000140: 818e 5b3c 8604 dd3d 7b39 b43d 9425 babd
00000150: 45a3 a9bd e377 a83d 296b 5d3d bc7e d6bd
00000160: 330e 94bd 6f6d 313d 3666 913e dac0 9bbc
00000170: dde2 4dbe f510 9dbc 5dda 89bd 422e e93c
00000180: 0d98 933d 3fcf 06be dee8 b1bd d950 ae3d
00000190: a79e 41be d9f8 85be 10b9 313e 119e 0c3e
000001a0: ffcd 2dbe 03ff 3cbe e99a edbd 0460 373d
000001b0: 0479 36be 0e78 3fbd ab58 7b3e cb20 c0bb
000001c0: 2fe3 fbbd 5f5b 12be 9964 2abb 787f e13d
000001d0: c94a 193e 79e4 4d3e ef5e ce3c 2b48 cdbc
000001e0: 1842 0fbe 368f 053c f60a 07be 5a75 afbe
000001f0: cde7 05be 7e2e b93c 17c9 c33c eac9 c3bd

fp2.weight f4 [256, 128]
-0.2009606 -0.12626585 -0.3259281 -0.24100544 0.0020832121 -0.050217103 -0.12672369 -0.120929144
-0.035187416 -0.031785216 -0.12431265 -0.32659182 -0.10013334 -0.26425585 -0.018435406 -0.036181033
-0.21285702 -0.36504194 -0.102917455 -0.077161044 0.064690135 0.12909323 -0.11103457 -0.12758802
-0.08210558 -0.026777165 -0.168776 -0.30390477 -0.16492765 0.008963729 -0.14237982 -0.2957502
-0.2567606 -0.028282233 0.046345685 -0.07084201 -0.16729446 -0.030473776 0.069086276 -0.32162306
-0.12671725 -0.14243321 -0.25188842 0.027852954 0.041292645 -0.19265905 0.041603655 -0.24270512
-0.29598862 -0.10688651 -0.1321452 -0.10639154 -0.02472059 -0.36822918 -0.21828033 0.16934513
-0.10554978 -0.1479862 0.019632798 -0.15003832 0.25109133 -0.020762345 -0.08370523 -0.17782427
-0.039817434 -0.012971837 0.10985647 -0.056325916 -0.26736397 -0.24762842 0.067801066 -0.37796372
0.015615395 0.17823495 0.1026029 0.007976309 -0.097136706 -0.19324704 -0.2771778 -0.13231656
0.102522284 0.060564812 0.0766017 -0.086880855 -0.0636538 -0.13625056 0.1303266 0.0068860645
-0.18583445 0.05683986 -0.019466376 -0.19641173 -0.28315988 -0.08524039 -0.18099351 0.0037359926
-0.07475457 0.062722005 0.079540715 -0.15765616 0.01345866 -0.12809402 -0.09125691 -0.09192746
-0.081315584 0.1648579 -0.24986479 -0.12805068 0.022421425 -0.08628145 -0.07421888 -0.093935065
-0.34847048 0.23421538 -0.35013205 -0.23238987 -0.012835137 0.06828634 -0.2506616 0.0108384155
-0.08539193 -0.1914117 0.023291666 -0.2397431 -0.16355206 -0.004025562 -0.0049828836 -0.13098522
-0.23940337 -0.35053867 -0.11983538 -0.0029657688 -0.61431247 0.12361095 -0.17941685 -0.21505678
0.16291086 -0.0028819393 -0.22597787 0.037439995 -0.19964115 -0.2652546 0.073280685 0.061743073
-0.3765322 -0.053294744 0.0660458 0.04759838 -0.35997844 -0.05540398 0.1387326 -0.0593267
-0.3121176 -0.24583185 -0.071013115 -0.24599425 -0.0030887364 -0.041141566 0.1073389 -0.06341438
-0.27364245 -0.4267445 0.1228785 -0.33861324 -0.17406888 -0.2505902 -0.028298916 -0.16106378
-0.12019771 -0.20512103 -0.4907645 -0.46944702 0.019492328 -0.098892115 -0.023216838 0.24645776
0.07984847 -0.42722106 -0.0407279 0.3429117 0.14636579 -0.17670687 -0.11477887 -0.04449123
-0.42842385 0.2930196 -0.28126127 -0.23858494 0.3725686 -0.21732888 -0.10247589 0.06824902
-0.08207623 -0.09777533 -0.07043701 0.06394609 -0.34035057 0.18733087 -0.12958786 -0.5157285
0.25552842 -0.070399664 0.1309772 -0.20869586 -0.20515893 -0.0696932 0.09082362 -0.024323074
-0.44335857 0.00023411048 0.19214033 -0.62913185 -0.39200374 -0.23165226 0.20343523 0.15048467
-0.15673093 -0.13196786 -0.19176364 -0.17140333 -0.105110705 -0.20343927 0.07522477 0.22683227
-0.123965494 -0.1810738 0.21384865 -0.05012359 0.09967455 -0.17690583 -0.23911443 0.041169446
0.272411 0.1652565 0.011196209 0.11053744 0.2844014 -0.24117365 -0.040378794 0.03994307
-0.17961429 0.11426624 0.05252734 0.020867398 -0.45223585 -0.46061227 -0.12486588 -0.056993064
0.07569105 -0.18807495 0.14202818 -0.13936794 -0.1922334 -0.33746794 -0.52728826 0.21208777
00000000: 9ec8 4dbe d64b 01be 0ce0 a6be 21ca 76be
00000010: 8086 083b 73b0 4dbd dbc3 01be b3a9 f7bd
00000020: ae20 10bd 3731 02bd a197 febd 0b37 a7be
00000030: b512 cdbd 8b4c 87be d905 97bc 9032 14bd
00000040: 31f7 59be c7e6 babe 63c6 d2bd 9c06 9ebd
00000050: 437c 843d 0431 043e 1866 e3bd 6fa6 02be
00000060: f826 a8bd c95b dbbc 9ed3 2cbe 6899 9bbe
00000070: cbe2 28be 9bdc 123c 04cc 11be 926c 97be
00000080: 2076 83be 24b0 e7bc f9d4 3d3d 9e15 91bd
00000090: 3d4f 2bbe 24a4 f9bc 1b7d 8d3d c7ab a4be
000000a0: 2bc2 01be 03da 11be 85f7 80be e12b e43c
000000b0: 7a22 293d 6a48 45be 9868 2a3d b187 78be
000000c0: d28b 97be 51e7 dabd 1251 07be cfe3 d9bd
000000d0: d682 cabc 8988 bcbe e184 5fbe cf68 2d3e
000000e0: 7c2a d8bd b289 17be f6d4 a03c a5a3 19be
000000f0: 0b8f 803e cb15 aabc a66d abbd 9117 36be
00000100: 9b17 23bd d487 54bc 6efc e03d 01b6 66bd
00000110: eee3 88be 4e92 7dbe 49db 8a3d 7684 c1be
00000120: b7d7 7f3c 3983 363e 7821 d23d 11af 023c
00000130: 9cef c6bd 8de2 45be 40ea 8dbe fe7d 07be
00000140: 34f7 d13d cf12 783d 5ae1 9c3d 97ee b1bd
00000150: ec5c 82bd 4485 0bbe 5674 053e 7fa4 e13b
00000160: 634b 3ebe ead0 683d f377 9fbc 2820 49be
00000170: 55fa 90be 8392 aebd 5d56 39be 8ed7 743b
00000180: ed18 99bd 6574 803d 3ee6 a23d 9e70 21be
00000190: b681 5c3c 142b 03be e7e4 babd 7744 bcbd
000001a0: c988 a6bd 82d0 283e 8edc 7fbe b81f 03be
000001b0: 23ad b73c 54b4 b0bd 1100 98bd 0761 c0bd
000001c0: b96a b2be 28d6 6f3e 8244 b3be 9cf7 6dbe
000001d0: 774a 52bc b5d9 8b3d b856 80be 9c93 313c
000001e0: f7e1 aebd 6e01 44be 2ace be3c 377f 75be
000001f0: 317a 27be dde8 83bb 7547 a3bb fd20 06be
00000200: 2826 75be ce79 b3be 406c f5bd 585d 42bb
00000210: 9543 1dbf bd27 fd3d 0db9 37be d837 5cbe
00000220: 1bd2 263e ebde 3cbb be66 67be ae5a 193d
00000230: bb6e 4cbe 73cf 87be 2f14 963d 4ee6 7c3d
00000240: d4c8 c0be 974b 5abd 0543 873d 85f6 423d
00000250: 184f b8be 49ef 62bd eb0f 0e3e 8e00 73bd
00000260: e1cd 9fbe 58bb 7bbe 536f 91bd ebe5 7bbe
00000270: 666c 4abb 0f84 28bd 7fd4 db3d 66df 81bd
00000280: dd1a 8cbe 417e dabe b9a7 fb3d b75e adbe
00000290: 1d3f 32be 5c4d 80be 21d3 e7bc e7ed 24be
000002a0: 382a f6bd 3f0b 52be 7c45 fbbe 5c5b f0be
000002b0: 60ae 9f3c f387 cabd 3d31 bebc 6c5f 7c3e
000002c0: 9887 a33d b8bc dabe 4cd2 26bd 1f92 af3e
000002d0: eae0 153e a5f2 34be 2f11 ebbd 703c 36bd
000002e0: 5f5a dbbe aa06 963e 7a01 90be 9c4f 74be
000002f0: 50c1 be3e 768b 5ebe e1de d1bd 24c6 8b3d
00000300: 9517 a8bd 6f3e c8bd 4741 90bd 2bf6 823d
00000310: 6e42 aebe aad3 3f3e aeb2 04be c806 04bf
00000320: 9fd4 823e b32d 90bd e31e 063e 5eb4 55be
00000330: 2f15 52be 4fbb 8ebd bc01 ba3d 2f41 c7bc
00000340: e5ff e2be 8e7b 7539 6fc0 443e c90e 21bf
00000350: b7b4 c8be 4036 6dbe 5351 503e a718 1a3e
00000360: 137e 20be 9522 07be b05d 44be 5b84 2fbe
00000370: 4844 d7bd 6252 50be 720f 9a3d b846 683e
00000380: 9fe1 fdbd 696b 39be 24fb 5a3e 654e 4dbd
00000390: 2c22 cc3d cd26 35be 6ada 74be 4ba1 283d
000003a0: 7479 8b3e 0039 293e 4e70 373c 7461 e23d
000003b0: 0f9d 913e 3af6 76be 3c64 25bd 589b 233d
000003c0: cfec 37be 6b04 ea3d e826 573d 1bf2 aa3c
000003d0: 758b e7be 5fd5 ebbe afb9 ffbd 8f71 69bd
000003e0: e903 9b3d b896 40be d66f 113e 78b6 0ebe
000003f0: d5d8 44be 99c8 acbe 5dfc 06bf 892d 593e

fp2.bias f4 [256]
-0.09701165 -0.15017399 0.035716414 -0.047825366 0.09161167 0.25314367 -0.007155701 0.2571366
-0.14544117 0.059999514 -0.09368467 0.08887797 -0.1748236 -0.114474885 0.08227707 -0.11569413
0.17498648 -0.16223872 -0.04303132 -0.09465794 -0.04741058 -0.14211355 0.06726122 -0.060199935
-0.090604305 0.10332158 0.018372865 0.097202875 -0.0688234 -0.24065973 -0.16356249 -0.20436868
-0.21886484 -0.115938544 0.017020797 -0.005692268 0.05298887 -0.19058359 -0.17847334 -0.21274528
-0.11772405 -0.1560351 -0.0050742356 -0.01856928 0.02335272 -0.009230987 -0.094653025 -0.17412311
-0.09152597 0.20278192 -0.0033627844 -0.146744 -0.033232633 0.2745448 0.112152316 0.21072792
0.0742939 -0.20953374 -0.1698915 0.008748607 -0.15718074 0.026430538 -0.19189166 -0.052944757
0.013314931 -0.22671036 0.083074056 -0.060034454 -0.18802612 -0.01588259 0.016323522 -0.099755645
-0.1439707 0.060478684 -0.33846134 -0.05895193 0.083400786 -0.10549436 0.08572966 0.18641137
0.19639628 -0.2293786 -0.20891844 0.036131594 -0.09767003 0.7394765 -0.12644438 0.12343485
0.5885521 -0.089049675 0.025547331 -0.14094506 -0.10697899 0.19127549 0.31650996 0.037524335
-0.112107545 -0.1761821 0.090155356 0.123968534 -0.1819023 0.68420994 0.015058916 -0.009643669
-0.0014605672 -0.10050979 -0.009294332 -0.0073790285 -0.21120778 -0.047073353 0.17662968 0.3384448
-0.026273455 0.13341439 0.29478055 -0.13988927 -0.060895983 -0.08714139 0.023002835 0.20295346
-0.15439259 -0.13631421 -0.09049592 -0.02916673 -0.08714962 -0.039972667 -0.020612262 -0.024547534
-0.005686017 -0.0043705846 -0.077942476 -0.14341334 -0.111647785 0.42340216 -0.027516378 -0.21501409
-0.35000178 -0.24797273 -0.23266558 0.0076138154 -0.03663037 -0.05409984 -0.065396756 -0.16112234
-0.21873225 0.01110755 -0.11169553 -0.09050471 0.17344502 -0.056584783 -0.100238554 -0.122898325
-0.063294545 -0.0479146 -0.04396757 0.11490821 0.028609209 -0.04070408 0.14147055 -0.08219548
-0.11160878 -0.14618492 0.11441124 -0.20399012 0.4261029 -0.018455924 -0.20127013 0.06996992
0.065854475 -0.2355653 -0.1636717 0.060990993 -0.05394224 -0.24619024 0.018558212 0.2885057
-0.09700643 0.09527071 -0.03177755 -0.18363498 -0.1293147 0.07434826 -0.13679354 0.55031186
-0.11374984 -0.03600678 -0.02772489 -0.027899325 -0.037382532 -0.085545175 0.13315488 -0.33730412
0.03869668 -0.005991296 -0.16633013 -0.15462092 -0.15767384 -0.14535086 -0.015003716 -0.014157671
0.002511316 -0.12068979 0.0038991538 -0.07651896 -0.21390145 -0.11952484 -0.19911726 0.12771493
-0.031334307 -0.25031254 -0.10163205 -0.14216867 -0.07277777 0.025900453 0.3457419 -0.02727357
-0.094249375 0.2629818 -0.28291693 -0.15397882 -0.06632642 -0.11022874 -0.026300993 0.12370598
0.086458735 0.11943965 -0.12794983 -0.16288288 -0.13196409 -0.008464934 -0.1658003 -0.027363323
-0.17203844 -0.07661217 -0.09447927 -0.104001835 0.091119304 -0.09616814 -0.04960006 -0.09187513
0.18870686 -0.032542672 -0.1469718 -0.2683296 -0.07094655 0.024090577 -0.2788962 -0.09001352
0.077487946 -0.14775012 -0.10829088 -0.1254729 0.13644828 -0.10876134 -0.25048295 0.022347251
00000000: 0bae c6bd 36c7 19be 604b 123d 88e4 43bd
00000010: e69e bb3d 0c9c 813e 5f7a eabb 69a7 833e
00000020: 88ee 14be 0dc2 753d c0dd bfbd a705 b63d
00000030: f504 33be cf71 eabd e180 a83d 0bf1 ecbd
00000040: a82f 333e e821 26be 9c41 30bd 06dc c1bd
00000050: 9931 42bd 3786 11be 40c0 893d 3594 76bd
00000060: c08e b9bd 449a d33d b182 963c 4d12 c73d
00000070: 48f3 8cbd 816f 76be ed7c 27be 0646 51be
00000080: 1b1e 60be 3071 edbd 336f 8b3c 3486 babb
00000090: db0a 593d 5828 43be b7c1 36be e6d9 59be
000000a0: 4f19 f1bd aac7 1fbe c645 a6bb 9a1e 98bc
000000b0: 344e bf3c 913d 17bc 72d9 c1bd 544d 32be
000000c0: f871 bbbd 10a6 4f3e 2962 5cbb 0f44 16be
000000d0: f11e 08bd 2391 8c3e 1db0 e53d 0fc9 573e
000000e0: 6627 983d 0390 56be 0af8 2dbe 5156 0f3c
000000f0: fdf3 20be db84 d83c 3f7f 44be 9adc 58bd
00000100: de26 5a3c c326 68be bb22 aa3d b0e6 75bd
00000110: eb89 40be 351c 82bc e8b8 853c b04c ccbd
00000120: 0e6d 13be 7fb8 773d ce4a adbe 9477 71bd
00000130: 08ce aa3d 6d0d d8bd 0893 af3d 9fe2 3e3e
00000140: 1b1c 493e 39e2 6abe b7ee 55be b9fe 133d
00000150: 3a07 c8bd 554e 3d3f a37a 01be 69cb fc3d
00000160: 5aab 163f ad5f b6bd a348 d13c e753 10be
00000170: cd17 dbbd b9dd 433e 980d a23e 1eb3 193d
00000180: a498 e5bd 1569 34be 5fa3 b83d 37e3 fd3d
00000190: 9944 3abe 6228 2f3f acb9 763c 7b00 1ebc
000001a0: 8170 bfba 14d8 cdbd 4147 18bc c7cb f1bb
000001b0: da46 58be fdcf 40bd 69de 343e a348 ad3e
000001c0: 6e3b d7bc c89d 083e 7aed 963e 223f 0fbe
000001d0: 116e 79bd 2f77 b2bd 7170 bc3c 08d3 4f3e
000001e0: 1719 1ebe f495 0bbe ed55 b9bd 11ef eebc
000001f0: 807b b2bd 61ba 23bd 0cdb a8bc e917 c9bc
00000200: c551 babb 1f37 8fbb 4ea0 9fbd f2da 12be
00000210: 98a7 e4bd 2bc8 d83e 076a e1bc a72c 5cbe
00000220: 6f33 b3be 90ec 7dbe e33f 6ebe 507d f93b
00000230: ba09 16bd cb97 5dbd bcee 85bd 41fd 24be
00000240: 59fb 5fbe 71fc 353c a0c0 e4bd 895a b9bd
00000250: 929b 313e 72c5 67bd df49 cdbd 1eb2 fbbd
00000260: 92a0 81bd 1a42 44bd 5717 34bd ff54 eb3d
00000270: dc5d ea3c 52b9 26bd a8dd 103e 1b56 a8bd
00000280: 2593 e4bd 80b1 15be 7150 ea3d c9e2 50be
00000290: 292a da3e e130 97bc c219 4ebe 644c 8f3d
000002a0: b6de 863d 0838 71be 8e99 27be b1d1 793d
000002b0: 8af2 5cbd 4b19 7cbe 6407 983c 05b7 933e
000002c0: 4fab c6bd 4a1d c33d 2d29 02bd cf0a 3cbe
000002d0: 136b 04be e743 983d 9b13 0cbe 3de1 0c3f
000002e0: adf5 e8bd d87b 13bd 4f1f e3bc 208d e4bc
000002f0: 6d1e 19bd 4f32 afbd c159 083e 20b3 acbe
00000300: 6980 1e3d a252 c4bb 7252 2abe f254 1ebe
00000310: 4075 21be dbd6 14be 25d2 75bc 93f5 67bc
00000320: e494 243b 352c f7bd f288 7f3b f9b5 9cbd
00000330: fb08 5bbe 70c9 f4bd 65e5 4bbe b4c7 023e
00000340: 6758 00bd f728 80be 7724 d0bd aa94 11be
00000350: 830c 95bd 302d d43c 1505 b13e d26c dfbc
00000360: d105 c1bd 8da5 863e 7dda 90be a0ac 1dbe
00000370: 25d6 87bd 9bbf e1bd 2e75 d7bc 9059 fd3d
00000380: 4711 b13d c69c f43d 4805 03be c5ca 26be
00000390: 9821 07be 82b0 0abc 8ec7 29be 0c29 e0bc
000003a0: d82a 30be d7e6 9cbd 597e c1bd eafe d4bd
000003b0: c29c ba3d cdf3 c4bd 6f29 4bbd 0729 bcbd
000003c0: 5f3c 413e 774b 05bd c77f 16be 7f62 89be
000003d0: 6d4c 91bd 9a59 c53c 7ccb 8ebe 0259 b8bd
000003e0: 00b2 9e3d cf4b 17be 9cc7 ddbd f87b 00be
000003f0: 19b9 0b3e 44be debd 4d3f 80be 9511 b73c

head_values.weight f4 [1, 256]
0.27807835 -0.17050162 0.015690453 -0.17259198 0.06826424 0.0770132 -0.48197705 0.13799734
-0.09289106 0.15027183 0.040805783 0.06939759 -0.3981964 -0.14330952 0.051087707 0.03794858
0.10654267 -0.040695235 0.25122598 -0.17860174 -0.16983454 -0.10834069 0.036345348 -0.32681996
-0.14309801 0.17009822 0.075248055 0.046626262 0.34030315 1.4446334e-05 -0.096874416 -0.32905442
-0.035021044 0.11432051 -0.28953317 0.07464493 0.19042481 0.4148227 -0.25830963 0.5164008
0.36659855 -0.043874223 -0.04264874 0.40988335 -0.35578936 -0.11160288 0.5566197 -0.18974124
0.11017896 0.052859534 0.051630486 0.06376003 0.010163227 0.113392696 0.39262804 0.29754454
0.182261 0.105976686 0.4375383 0.03244753 -0.032471087 0.0674485 0.048414826 0.17662613
0.33235022 -0.15699899 -0.47186807 0.24233413 0.08847289 -0.00040646526 -0.022949005 0.14959301
-0.04193337 0.22447228 -0.036687568 -0.090824224 0.27863654 0.09659187 0.13015684 0.124127604
0.13237329 -0.1344291 -0.13148342 0.095046215 -0.11830562 0.29490966 0.023086244 0.1198151
0.19459128 0.034454856 0.30274177 -0.07513285 -0.3968018 0.37514526 0.15409571 0.49381977
0.2694214 0.053590313 0.16033396 0.16801023 0.060565878 0.27007824 0.019328319 0.33687556
-0.13889916 0.25763085 0.27477112 0.49652007 -0.47685555 -0.030695291 0.18488221 0.075689144
-0.16924386 0.16948053 0.14823265 0.21866155 0.039448604 -0.61826706 0.19832143 0.16639979
0.3172038 -0.33077642 0.022414548 0.24992032 -0.2283475 0.039532997 -0.06764791 0.25092745
0.25199062 0.46218887 -0.47839153 -0.013902205 0.079173446 0.15843008 0.13919064 -0.024908664
-0.073018864 0.13364546 -0.025041638 -0.041426964 0.43431336 -0.11280504 0.38635403 0.20652784
-0.033666596 0.2951037 -0.032120217 -0.090782985 0.07789412 0.18253766 -0.27894595 0.17436518
-0.2278826 0.29137814 0.18413773 0.057629254 0.18004008 0.21689834 0.1604593 0.2524038
0.004104255 0.19617978 0.2331519 -0.0022400848 0.16855106 0.07559897 -0.10648119 -0.53176636
0.2027571 -0.07877303 0.19972853 0.1258799 0.17954233 -0.5084802 -0.06235835 0.14393716
-0.054385062 0.16445264 -0.33876973 -0.30019546 0.2282807 0.21170774 0.08282977 0.21157333
0.34318298 -0.13055007 0.06063934 0.24269305 -0.2620349 0.3385821 0.115883775 -0.10824523
0.10628211 -0.015684873 -0.052739833 -0.08211765 -0.108257495 -0.06570505 0.46318993 0.47253802
-0.33624086 -0.24472924 0.11724662 0.24868341 -0.08858271 0.48898923 0.4371911 0.2431537
0.13278018 0.45694453 -0.42063805 -0.070811845 0.05966905 0.33280405 0.131195 0.1804427
0.19074999 0.10634508 0.0039782985 -0.07442864 0.52005 -0.03309173 -0.041723117 0.16069001
0.088729784 0.21186402 -0.3197348 0.34908092 0.003265893 0.17198421 0.14733273 0.33919737
0.06814906 -0.072370164 0.23081252 0.17677823 -0.40560123 -0.1585423 0.24337567 -0.027692748
0.3107071 -0.25166574 -0.2510512 -0.10010803 -0.28866076 0.027536767 -0.052291565 0.2588018
0.15759102 -0.1979928 0.26127177 -0.19467382 0.08391632 0.22499509 0.28741676 0.11423399
00000000: 4960 8e3e fa97 2ebe 4489 803c f4bb 30be
00000010: 1fce 8b3d 19b9 9d3d b2c5 f6be 2d4f 0d3e
00000020: ab3d bebd dce0 193e f723 273d 5320 8e3d
00000030: 66e0 cbbe bbbf 12be 5841 513d f86f 1b3d
00000040: 0b33 da3d 0cb0 26bd b1a0 803e 60e3 36be
00000050: 1be9 2dbe b9e1 ddbd dcde 143d f254 a7be
00000060: 4988 12be 3a2e 2e3e a71b 9a3d 2efb 3e3d
00000070: 373c ae3e 885e 7237 1866 c6bd d279 a8be
00000080: 3a72 0fbd df20 ea3d b13d 94be 71df 983d
00000090: b9fe 423e a463 d43e 2941 84be d832 043f
000000a0: ceb2 bb3e 75b5 33bd 72b0 2ebd 3bdc d13e
000000b0: 062a b6be 0d90 e4bd a17e 0e3f 874b 42be
000000c0: 82a5 e13d 3d83 583d 7d7a 533d 9e94 823d
000000d0: aa83 263c 6e3a e83d 8b06 c93e c257 983e
000000e0: a1a2 3a3e 4e0a d93d 0505 e03e b4e7 043d
000000f0: 6700 05bd 7022 8a3d a04e 463d 7bdd 343e
00000100: cf29 aa3e 58c4 20be b198 f1be 7026 783e
00000110: 4631 b53d d81a d5b9 8dff bbbc e92e 193e
00000120: 53c2 2bbd 10dc 653e b445 16bd 0d02 babd
00000130: 73a9 8e3e f5d1 c53d d647 053e 9d36 fe3d
00000140: dd8c 073e c8a7 09be 97a3 06be 97a7 c23d
00000150: 384a f2bd 66fe 963e 5d1f bd3c 9f61 f53d
00000160: f042 473e 8920 0d3d f800 9b3e 40df 99bd
00000170: 9b29 cbbe 0a13 c03e 44cb 1d3e f2d5 fc3e
00000180: 9af1 893e 8481 5b3d 962e 243e e00a 2c3e
00000190: ed13 783d b247 8a3e 6c56 9e3c f47a ac3e
000001a0: 953b 0ebe 31e8 833e cdae 8c3e e137 fe3e
000001b0: 6926 f4be b174 fbbc c351 3d3e e902 9b3d
000001c0: 434e 2dbe 4e8c 2d3e 4dca 173e d0e8 5f3e
000001d0: dc94 213d c046 1ebf c614 4b3e b564 2a3e
000001e0: 8968 a23e 875b a9be b79e b73c 1deb 7f3e
000001f0: edd3 69be 5aed 213d fd8a 8abd 9079 803e
00000200: ea04 813e 05a4 ec3e bcef f4be 13c6 63bc
00000210: b025 a23d 7f3b 223e fe87 0e3e 410d ccbc
00000220: ea8a 95bd 5bda 083e 1f24 cdbc 52af 29bd
00000230: 525e de3e 5406 e7bd 32d0 c53e 097c 533e
00000240: fce5 09bd d517 973e 7d90 03bd 6eec b9bd
00000250: f486 9f3d 27eb 3a3e 01d2 8ebe c98c 323e
00000260: 0e5a 69be 842f 953e 9a8e 3c3e a70c 6c3d
00000270: 6d5c 383e 991a 5e3e 714f 243e 123b 813e
00000280: fc7c 863b 5ae3 483e 5fbf 6e3e 63ce 12bb
00000290: a698 2c3e a2d3 9a3d cf12 dabd d721 08bf
000002a0: 8f9f 4f3e c153 a1bd a385 4c3e a9e6 003e
000002b0: f2d9 373e c22b 02bf 786b 7fbd 4364 133e
000002c0: dfc2 5ebd 4666 283e 3a73 adbe 38b3 99be
000002d0: 6ac2 693e eac9 583e a8a2 a93d aea6 583e
000002e0: aeb5 af3e ebae 05be f560 783d 8784 783e
000002f0: 7029 86be a25a ad3e 7954 ed3d adaf ddbd
00000300: 6faa d93d 907d 80bc b905 58bd 4c2d a8bd
00000310: 1bb6 ddbd 5f90 86bd 3b27 ed3e 81f0 f13e
00000320: c327 acbe 4d9a 7abe ff1e f03d dda6 7e3e
00000330: da6a b5bd cc5c fa3e 83d7 df3e 49fd 783e
00000340: 87f7 073e a2f4 e93e df5d d7be cd05 91bd
00000350: 8967 743d 4b65 aa3e fb57 063e f9c5 383e
00000360: f753 433e 73cb d93d 635c 823b 0b6e 98bd
00000370: ff21 053f 328b 07bd dce5 2abd ec8b 243e
00000380: f6b7 b53d e2f2 583e 48b4 a3be bcba b23e
00000390: 9808 563b a11c 303e 64de 163e 47ab ad3e
000003a0: bc91 8b3d cf36 94bd 1e5a 6c3e 5a05 353e
000003b0: f7aa cfbe ea58 22be 7937 793e e7db e2bc
000003c0: 0015 9f3e 55da 80be c889 80be 7005 cdbd
000003d0: 58cb 93be c994 e13c ae2f 56bd ab81 843e
000003e0: 8a5f 213e a0be 4abe 6ac5 853e 9358 47be
000003f0: 52dc ab3d 1d65 663e 4a28 933e 83f3 e93d

head_advantages.weight f4 [4, 256]
0.03541261 0.006109549 -0.14280936 -0.13932742 0.08541351 -0.028062886 -0.36030072 -0.12445052
-0.1721197 -0.19101885 0.30013198 -0.055559345 -0.20257707 -0.29816586 -0.042327203 -0.1604927
-0.06410451 0.12094039 0.0691474 -0.25241262 -0.54898953 -0.2135203 -0.18320142 -0.27416012
-0.1348071 -0.190074 -0.033774383 0.06624957 -0.092587344 -0.1044173 -0.019082634 -0.17348675
-0.06878655 -0.021912586 -0.37528247 -0.11707011 0.2126592 0.2299353 -0.08589294 0.2390175
-0.11627853 -0.0732628 -0.12040336 -0.13979769 -0.00039405384 0.08401501 0.14994586 -0.51379603
0.02564171 -0.010654604 0.007270908 0.08785443 -0.0634408 -0.10713202 -0.34990516 0.053824477
-0.13357963 0.007874603 0.3119509 -0.048753913 0.041014217 0.2607832 -0.007739898 0.061675478
0.19848956 -0.10752903 -0.6458473 -0.035838578 0.07252664 0.034126084 0.14543812 -0.042867653
-0.10015083 -0.06874269 -0.10422616 0.038686514 0.013979686 0.0140927825 -0.005870591 -0.1337771
0.018485622 -0.21856745 0.036030207 0.06420135 -0.3408018 -0.15395407 -0.041612454 -0.14511576
-0.11722695 0.05919428 -0.22891976 0.12621908 0.19795673 0.34127146 -0.09314332 0.26462537
0.12703559 -0.22992124 -0.09965677 -0.1159227 0.103583135 -0.11789654 -0.07730848 -0.005602177
0.054922793 0.08770979 -0.19751017 -0.31124276 -0.109765105 -0.12001872 -0.10993245 -0.040909845
-0.46836543 -0.083515175 0.002422471 -0.20967138 -0.08586376 0.23287025 -0.11667893 -0.041576
0.011308553 0.13598941 0.074851476 -0.0200805 -0.07045464 -0.114191376 -0.0028806895 0.38465858
0.14452337 -0.116201654 -0.313092 -0.03312376 0.16046312 -0.1661997 0.48774734 -0.0042127087
-0.0060307216 -0.0825852 -0.1425212 0.34451583 0.24869977 0.3389574 -0.03355233 -0.12975784
-0.31624612 0.35235798 -0.10623051 -0.086410634 0.014959651 0.057053242 -0.25868675 0.020296158
-0.38062805 0.08247479 -0.12644115 -0.13772841 0.05519765 -0.06875913 -0.032362357 -0.14267482
-0.04975356 -0.29581773 0.17291017 -0.103458725 -0.29851452 -0.15594073 -0.44438106 0.181861
0.0799905 0.03302164 0.15323381 -0.16127107 -0.33685276 -0.32400736 -0.6323549 -0.0016269893
-0.33814234 0.024401428 -0.57897747 -0.052606255 0.011040871 0.016772572 0.2531725 -0.16293897
-0.3022881 -0.5491067 -0.26012716 0.13923816 0.19925754 -0.47050667 -0.1892322 -0.094612345
-0.1738614 0.06652236 -0.049014144 -0.15604307 0.053258445 0.23849995 -0.09582558 -0.24254695
0.17164595 -0.017552195 -0.052485514 -0.10699054 -0.3737954 0.034378864 -0.009692883 -0.09991275
-0.10073723 -0.13465886 -0.23855525 -0.48384327 0.19021776 0.26948804 -0.09222089 0.098259576
-0.07912591 -0.047686853 -0.10493333 -0.17252477 0.34119493 -0.04760923 0.036579855 -0.1472578
0.03634094 -0.1014157 -0.034982555 0.18665865 -0.18005829 0.30652162 -0.4127564 0.30348912
-0.0019263086 -0.072314695 0.16462348 -0.037359443 -0.039192468 -0.026368974 -0.056585614 -0.45469055
0.067695886 -0.06461508 -0.2599312 -0.15255217 0.14414039 -0.10492883 -0.096271195 0.14993553
-0.3364638 -0.08247947 -0.09248454 0.13603634 -0.1538571 -0.07158879 -0.2512123 -0.030535428
00000000: d00c 113d 9d32 c83b 9e3c 12be d9ab 0ebe
00000010: 47ed ae3d 23e4 e5bc 5679 b8be eadf febd
00000020: 2640 30be 729a 43be e6aa 993e 3292 63bd
00000030: 5d70 4fbe 32a9 98be 4a5f 2dbd 3358 24be
00000040: 3a49 83bd 98af f73d 279d 8d3d 3a3c 81be
00000050: 948a 0cbf 11a5 5abe 2799 3bbe b75e 8cbe
00000060: df0a 0abe c2a2 42be 0257 0abd dbad 873d
00000070: 6f9e bdbd bdd8 d5bd 2f53 9cbc 83a6 31be
00000080: f6df 8cbd 0682 b3bc 0625 c0be 74c2 efbd
00000090: 55c3 593e 2974 6b3e a3e8 afbd 01c1 743e
000000a0: 7023 eebd cf0a 96bd 0996 f6bd 2027 0fbe
000000b0: 0399 ceb9 1010 ac3d 688b 193e 2388 03bf
000000c0: 900e d23c a690 2ebc cc40 ee3b 06ed b33d
000000d0: 40ed 81bd 0868 dbbd c526 b3be 0e77 5c3d
000000e0: 19c9 08be 7b04 013c 07b8 9f3e 2fb2 47bd
000000f0: 86fe 273d 6085 853e f89e fdbb 6d9f 7c3d
00000100: d940 4b3e 2e38 dcbd 4056 25bf 79cb 12bd
00000110: d988 943d cbc7 0b3d bbed 143e fe95 2fbd
00000120: e11b cdbd f8c8 8cbd 8674 d5bd c075 1e3d
00000130: 0e0b 653c 6ae5 663c 165e c0bb ddfc 08be
00000140: 296f 973c 25d0 5fbe 6994 133d ff7b 833d
00000150: 937d aebe 23a6 1dbe d271 2abd 3a99 14be
00000160: af14 f0bd b475 723d f169 6abe 933f 013e
00000170: 2bb5 4a3e 22bb ae3e edc1 bebd fa7c 873e
00000180: 9e15 023e 7970 6bbe d918 ccbd e168 edbd
00000190: 6523 d43d be73 f1bd e953 9ebd 7892 b7bb
000001a0: b9f6 603d 31a1 b33d 1b40 4abe 365b 9fbe
000001b0: 87cc e0bd 60cc f5bd 4424 e1bd 1591 27bd
000001c0: 98cd efbe 010a abbd 52c2 1e3b 18b4 56be
000001d0: 57d9 afbd 8a75 6e3e 5df5 eebd 994b 2abd
000001e0: 8247 393c cf40 0b3e bb4b 993d dc7f a4bc
000001f0: 864a 90bd 2bdd e9bd f3c9 3cbb f8f1 c43e
00000200: effd 133e 22fb edbd 984d a0be c8ac 07bd
00000210: 7250 243e 4130 2abe 05ba f93e c30a 8abb
00000220: 5c9d c5bb 6e22 a9bd 14f1 11be 6164 b03e
00000230: 27ab 7e3e d38b ad3e 2b6e 09bd 3ddf 04be
00000240: 03eb a1be 4468 b43e 628f d9bd 0ff8 b0bd
00000250: 5319 753c a9b0 693d 9772 84be 2144 a63c
00000260: aee1 c2be 8be8 a83d ca79 01be ad08 0dbe
00000270: ee16 623d 96d1 8cbd 648e 04bd 5919 12be
00000280: 64ca 4bbd 6c75 97be 5d0f 313e 2be2 d3bd
00000290: e5d6 98be edae 1fbe ea85 e3be c539 3a3e
000002a0: 0fd2 a33d b341 073d 53e9 1c3e 3e24 25be
000002b0: f777 acbe 4be4 a5be 03e2 21bf b440 d5ba
000002c0: fe20 adbe 81e5 c73c de37 14bf a879 57bd
000002d0: c5e4 343c a266 893c d39f 813e 79d9 26be
000002e0: 81c5 9abe 4292 0cbf 632f 85be 7394 0e3e
000002f0: 2b0a 4c3e 40e6 f0be 16c6 41be 1ec4 c1bd
00000300: b908 32be e03c 883d 0ec3 48bd c1c9 1fbe
00000310: 8725 5a3d 5539 743e 3440 c4bd 3a5e 78be
00000320: f5c3 2f3e 9fc9 8fbc 0dfb 56bd db1d dbbd
00000330: 1c62 bfbe dad0 0c3d e6ce 1ebc 0e9f ccbd
00000340: 524f cebd 03e4 09be d447 74be 4eba f7be
00000350: 72c8 423e 56fa 893e 4ede bcbd 513c c93d
00000360: c40c a2bd 4a53 43bd 49e7 d6bd 55aa 30be
00000370: 1ab1 ae3e e501 43bd c2d4 153d c0ca 16be
00000380: 3dda 143d 09b3 cfbd de49 0fbd 7223 3f3e
00000390: 3361 38be 67f0 9c3e cf54 d3be ed62 9b3e
000003a0: 317c fcba ba19 94bd 0f93 283e 3706 19bd
000003b0: 4888 20bd bf03 d8bc 51c6 67bd 33cd e8be
000003c0: 24a4 8a3d e954 84bd b415 85be a336 1cbe
000003d0: 8a99 133e ede4 d6bd d529 c5bd b388 193e
000003e0: fc44 acbe ffea a8bd 8968 bdbd 1c4d 0b3e
000003f0: b78c 1dbe 259d 92bd e69e 80be 6f25 fabc

head_advantages.bias f4 [4]
0.19958343 -0.27746513 -0.049412195 -0.07074937
00000000: 995f 4c3e e90f 8ebe 7164 4abd 0ce5 90bd
