models/priordqn.pth (torch_old, 158001 bytes, 7 tensors)

fp1.weight f4 [128, 37]
0	0xbe1ec109	-0.15503325
1	0x3ddff48c	0.109353155
2	0xbdd158af	-0.10221993
3	0xbe01b427	-0.12666379
4	0xbecc7091	-0.3992963
5	0x3db88b6c	0.090109676
6	0xbe17951a	-0.14802971
7	0x3e9ab81b	0.30218586
8	0xbe449fe2	-0.19201615
9	0x3e166397	0.14686428
10	0xbda4efbe	-0.0805354
11	0xbdb6add1	-0.089198716
12	0xbcdd5ddc	-0.027022295
13	0xbe2a643d	-0.166398
14	0xbdbf9493	-0.0935451
15	0xbd4e623a	-0.050386645
16	0x3d87f291	0.06638063
17	0x3e6cee7c	0.2313785
18	0xbeee800d	-0.4658207
19	0xbec47759	-0.38372305
20	0xbe8ec9ba	-0.2788828
21	0x3de7926a	0.11307223
22	0x3e3a1457	0.18171822
23	0x3eca8297	0.39552757
24	0xbe592a95	-0.2120765
25	0x3dbff2c2	0.09372474
26	0x3dd961f5	0.10614387
27	0xbe2cf80b	-0.16891496
28	0xbde00dec	-0.109401554
29	0xbdaef55f	-0.085428946
30	0xbe0b626b	-0.13611762
31	0x3e1a7816	0.15084872
32	0xbe2acf7e	-0.16680714
33	0x3d0f2873	0.034950685
34	0x3d0e2d5c	0.034711227
35	0xbe4799fd	-0.19492336
36	0xbdc0f149	-0.094210215
37	0x3e7afff9	0.24511708
38	0x3d23c8cc	0.039986417
39	0x3cb10017	0.021606488
40	0xbdfcbde2	-0.12340905
41	0xbede0bc0	-0.4336834
42	0x3dfaaf55	0.12240473
43	0xbe3e657b	-0.18593399
44	0xbea25dbe	-0.31712145
45	0xbd73da69	-0.059534464
46	0xbeb07b4b	-0.34469065
47	0x3ddb67ac	0.10713133
48	0xbe170696	-0.14748606
49	0x3da94a7f	0.08266162
50	0x3e389015	0.18023713
51	0x3ea1d04c	0.3160423
52	0x3e102177	0.14075266
53	0x3db7f2a3	0.08981826
54	0xbceb73b5	-0.028741697
55	0xbddeb89e	-0.10875057
56	0xbd18aef1	-0.037276212
57	0xbe6e9af1	-0.23301293
58	0xbdeac203	-0.11462786
59	0xbc0a7815	-0.008451481
60	0x3d7e446e	0.06207698
61	0x3ea754ab	0.32681784
62	0xbdeca06a	-0.11554034
63	0xbc3cd480	-0.011525273
64	0x3ddeeb7d	0.108847596
65	0x3d0c4709	0.034247432
66	0x3ca32764	0.019916244
67	0x3dde3e17	0.108516864
68	0x3e29ba19	0.16574897
69	0xbc226f84	-0.009914283
70	0xbed603d2	-0.4179979
71	0xbda5ad6e	-0.0808972
72	0x3c997d2d	0.018736446
73	0x3c8267b9	0.0159186
74	0xbd9fb1b6	-0.077975675
75	0x3e08d4b6	0.13362393
76	0x3ea8f626	0.33000296
77	0xbf240f77	-0.640861
78	0x3e7dcd2d	0.247853
79	0xbef9dff8	-0.48803687
80	0xbea61240	-0.324358
81	0x3ea7dc26	0.32785147
82	0x3e4144ff	0.18873976
83	0xbeab1090	-0.33411074
84	0x3c6e936b	0.014561514
85	0xbe5bfa6b	-0.21482246
86	0x3bb595c1	0.0055415337
87	0xbda4f712	-0.080549374
88	0xbd1abdff	-0.03777885
89	0xbe969bf1	-0.2941585
90	0x3d1c6a0a	0.038187064
91	0x3e1f808e	0.15576383
92	0x3e06431a	0.13111535
93	0x3e2792a8	0.16364539
94	0xbe5545bb	-0.20827381
95	0xbe7945bf	-0.24343012
96	0x3e1a4538	0.15065467
97	0xbb940a3c	-0.0045178216
98	0xbe9088f4	-0.28229487
99	0xbe0b37ee	-0.13595554
100	0x3e9e18b1	0.30878213
101	0x3c4ae39e	0.01238337
102	0xbecc7191	-0.39930394
103	0x3e163c05	0.14671333
104	0xbe9412f7	-0.2892072
105	0x3dac5c11	0.08415998
106	0xbdf58402	-0.11988069
107	0xbe3fcc48	-0.18730271
108	0xbd3afa85	-0.04564907
109	0x3da897a6	0.0823205
110	0xbd7f6a38	-0.062357157
111	0xbcba12ff	-0.022714136
112	0x3da3caf6	0.07997696
113	0x3e2347d7	0.15945373
114	0x3c3c3fe7	0.011489845
115	0xbeca86cb	-0.39555964
116	0x3ca8a288	0.020585313
117	0x3d8b359f	0.06797337
118	0x3d6ca38a	0.05777315
119	0xbed1f81f	-0.41009614
120	0x3e4e611d	0.20154233
121	0x3cca101e	0.024665888
122	0x3e4bda4e	0.19907495
123	0xbe60856e	-0.219259
124	0xbf16b008	-0.5886235
125	0xbe0f0efa	-0.13970557
126	0xbc609d37	-0.013709358
127	0xbe3a6130	-0.18201137
128	0x3da82d8d	0.08211813
129	0xbea90ab6	-0.33015984
130	0xbe4a41eb	-0.19751708
131	0x3e5fdd21	0.21861698
132	0xbeec5577	-0.46158955
133	0x3d11b3be	0.035571806
134	0xbd0fb6e4	-0.035086527
135	0xbf5d4200	-0.86428833
136	0xbc390ea1	-0.011294992
137	0x3d3751b7	0.044755664
138	0x3c7fb1b8	0.015606336
139	0x3c86cc7a	0.016454924
140	0x3e754c3a	0.2395486
141	0xbc5d6dc5	-0.013514941
142	0x3e07f8cf	0.13278507
143	0x3e14b23f	0.1452112
144	0xbe5fd58c	-0.21858805
145	0xbe24ef09	-0.1610681
146	0x3e29b8e5	0.16574438
147	0xbbbaddeb	-0.005702724
148	0xbdd37b94	-0.10326305
149	0xbe89e83c	-0.26934993
150	0xbde4e35b	-0.11176177
151	0xbcf4f808	-0.029903427
152	0xbe42ddf5	-0.19029982
153	0x3d835486	0.06412606
154	0x3de44b05	0.11147121
155	0xbe819afa	-0.2531355
156	0x3e4f9677	0.20272242
157	0x3e17b202	0.14813998
158	0xbe09e632	-0.13466719
159	0xbda1dbf5	-0.079032816
160	0x3d03d11c	0.032181844
161	0xbdbe7a12	-0.09300627
162	0xbe1aea45	-0.15128429
163	0xbe496e91	-0.19671084
164	0xbdb0ceb4	-0.086331755
165	0x3d3e3f1c	0.046446905
166	0xbe1570bd	-0.14593787
167	0x3d22ed3a	0.039777018
168	0xbe52a437	-0.20570455
169	0x3d316ee0	0.04331863
170	0x3d946d29	0.07247383
171	0xbdd80cfe	-0.10549353
172	0x3d6db2db	0.058031898
173	0x3d9e64ed	0.07734094
174	0xbea34956	-0.31891888
175	0x3dab9cb6	0.083794996
176	0xbdaa39ee	-0.083118305
177	0x3e864ee8	0.26232076
178	0x3e358e0e	0.17729971
179	0xbec6f43e	-0.38858217
180	0xbd43e600	-0.047826767
181	0x3deaaeb6	0.11459105
182	0x3f0bb438	0.54571867
183	0x3dac544f	0.08414518
184	0x3d08714a	0.033311166
185	0x3daaf9e0	0.08348441
186	0xbcc1ebf6	-0.023672085
187	0xbe27e8bc	-0.16397375
188	0xbe687c84	-0.22703749
189	0x3e3e5f88	0.1859113
190	0x3e1401ac	0.14453763
191	0x3e8e17be	0.2775249
192	0xbf2b0b7f	-0.66814417
193	0xbe21f9fd	-0.15818019
194	0xbf16006d	-0.585944
195	0xbd772743	-0.060340177
196	0xbd5cb541	-0.053883795
197	0x3d150092	0.036377497
198	0xbf0ca69a	-0.54941714
199	0x3d89cbd9	0.06728334
200	0xbd84a096	-0.06475942
201	0x3da46ac1	0.08028174
202	0x3c8dbae0	0.017301023
203	0xbe4af0f0	-0.19818473
204	0xbdddf2d0	-0.108373284
205	0x3d7e78e7	0.06212702
206	0xbd94e1f2	-0.07269658
207	0x3cc26bf8	0.023733124
208	0x3e104bc8	0.14091408
209	0x3d2c8d81	0.042127136
210	0x3c52adf7	0.012858859
211	0xbe7f799e	-0.24948737
212	0x3dafe99b	0.085894786
213	0xbdfaa319	-0.1223814
214	0xbec6ce0c	-0.38829076
215	0xbce7e29f	-0.028306304
216	0xbdcc7b21	-0.099844225
217	0xbd042fd4	-0.032272175
218	0x3db00415	0.085945286
219	0xbd948897	-0.07252615
220	0xbcea332f	-0.02858886
221	0x3d45683e	0.048195116
222	0x3dcf0762	0.1010883
223	0xbdbaca50	-0.09120619
224	0xbe0c0863	-0.13675074
225	0x3e34deac	0.17663068
226	0xbc68d4fd	-0.014210937
227	0xbc50ad54	-0.012736637
228	0xbddcbe60	-0.10778499
229	0xbd03ffbe	-0.032226317
230	0x3d86740a	0.065651014
231	0x3eb7f553	0.35929355
232	0x3d24ddd0	0.0402506
233	0x3d46d4f3	0.048542928
234	0x3e117f4e	0.14208719
235	0x3e023e5a	0.12719098
236	0x3ed3fa6f	0.41402003
237	0xbe434b58	-0.1907171
238	0xbbf387fa	-0.007431981
239	0x3d20da2a	0.039270557
240	0x3c4d0e93	0.012515682
241	0x3e87f4fd	0.265541
242	0xbd4898c3	-0.04897381
243	0x3d11b854	0.03557618
244	0x3caa6655	0.020800749
245	0xbde7016b	-0.11279567
246	0xbcf247bd	-0.029575223
247	0xbe3fc1bb	-0.18726246
248	0xbd3c2cce	-0.045941167
249	0x3d8ea808	0.06965643
250	0xbd4c5d60	-0.049893737
251	0x3e7c29e7	0.2462536
252	0x3e9c49c0	0.30525017
253	0xbcfa1cfe	-0.030531403
254	0xbe518297	-0.20459972
255	0xbe6676f5	-0.22506316

fp1.bias f4 [128]
0	0xbcfa2cc2	-0.03053892
1	0x3d4a9f07	0.049468067
2	0xbdd53f78	-0.10412496
3	0xbcde9137	-0.027168853
4	0xbd6a4020	-0.05719006
5	0xbe0be757	-0.13662468
6	0x3dd024b6	0.10163252
7	0x3d8d1afc	0.068899125
8	0xbe280239	-0.16407098
9	0x3d157109	0.03648475
10	0xbe2a260f	-0.1661608
11	0xbd1443c5	-0.036197443
12	0xbdae299d	-0.08504031
13	0xbda4bf48	-0.080442965
14	0xbd8c58f6	-0.068529055
15	0xbbab5374	-0.0052284542
16	0x3d2e9e31	0.04263133
17	0xbd2bec40	-0.041973352
18	0xbdc07068	-0.0939644
19	0xbca4680a	-0.020069141
20	0xbdd9883a	-0.10621686
21	0xbd5633a8	-0.052295357
22	0x3dd01f41	0.10162211
23	0xbd0ea36e	-0.034823827
24	0x3cf3de9c	0.029769234
25	0x3e5aada5	0.21355303
26	0x3d70def7	0.058806386
27	0xbdc59f57	-0.09649532
28	0xbc552bf7	-0.01301097
29	0xbb5aca04	-0.003338457
30	0x3e2ca827	0.1686102
31	0x3df1b5ea	0.118022755
32	0xbda7dc3c	-0.08196303
33	0x3d1dbb10	0.038508475
34	0xbccb9be1	-0.024854602
35	0xbe241c18	-0.16026342
36	0xbd245df4	-0.040128663
37	0x3de8797d	0.11351297
38	0x3df9e846	0.12202506
39	0x3d4304b2	0.0476119
40	0x3d494b61	0.049144153
41	0x3dafeb20	0.085897684
42	0x3e70a610	0.23500848
43	0x3d2372d6	0.039904438
44	0x3bb2d6b5	0.005457724
45	0xbd81f403	-0.0634537
46	0x3ccd817d	0.025086159
47	0xbe096b97	-0.13419949
48	0xbe129ee6	-0.14318427
49	0x3d2dd841	0.042442564
50	0x3d004a4e	0.031320862
51	0x3dec0b20	0.115255594
52	0xbc788b8f	-0.015169992
53	0x3dc88345	0.09790663
54	0x3c704e66	0.014667129
55	0x3de0eca7	0.10982638
56	0xbddf8e5f	-0.10915827
57	0xbd96ee81	-0.0736971
58	0x3d386ebf	0.04502749
59	0xbdb46ea8	-0.088101685
60	0xbe38fe29	-0.18065704
61	0x3b7f3c08	0.0038945694
62	0x3db14cad	0.08657203
63	0xbdc8be17	-0.09801882
64	0x3de8c0d1	0.11364902
65	0x3c941cbb	0.018080106
66	0x3cbbf6de	0.022944864
67	0xbdea3b1c	-0.114370555
68	0xbe0bc994	-0.13651115
69	0xbdc8b528	-0.09800178
70	0x3c847773	0.01617024
71	0xbdc532fe	-0.096288666
72	0x3d931527	0.07181769
73	0xbe0277af	-0.12740968
74	0xbdff15c4	-0.12455323
75	0xbbe723f6	-0.0070538474
76	0x3e30d694	0.17269355
77	0xbdf8f1c0	-0.12155485
78	0x3dcdfa6e	0.10057531
79	0x3ce642ac	0.028107964
80	0xbc34105f	-0.010990231
81	0x3d369cba	0.04458306
82	0x3dab08c7	0.083512835
83	0xbde8ef68	-0.11373788
84	0xbd071f1c	-0.032988653
85	0x3e406205	0.18787391
86	0x3d66579b	0.05623589
87	0xbd255e01	-0.040372852
88	0xbc9b1ed4	-0.018935598
89	0x3cc497ba	0.02399813
90	0x3df1a874	0.11799708
91	0x3c601a8c	0.013678204
92	0xbe196cdc	-0.14982933
93	0xbddbad6f	-0.10726439
94	0xbd2d529f	-0.04231512
95	0x3de0799f	0.109606974
96	0xbd30de7e	-0.043180935
97	0xbe43b627	-0.19112454
98	0xbe2d6292	-0.16932133
99	0x3d95997c	0.073046654
100	0xbda9c8cf	-0.08290254
101	0xbe573189	-0.2101499
102	0x3df84926	0.12123327
103	0x3e2bc70b	0.16775148
104	0xbe59974f	-0.21249126
105	0xbe50a064	-0.20373684
106	0xbdd5bae3	-0.104360364
107	0x3de56944	0.112017184
108	0xbe043046	-0.1290904
109	0x3d4f028c	0.05053954
110	0x3d7f6034	0.062347606
111	0xbbca6459	-0.006176513
112	0xbca1daf6	-0.019757729
113	0xbde6a74b	-0.11262377
114	0x3c5197dc	0.012792554
115	0x3dc7f3ae	0.09763275
116	0x3dbb58c4	0.0914779
117	0x3e2901b0	0.1650455
118	0x3d4d2fdb	0.050094467
119	0xbc2113dd	-0.009831396
120	0xbd1e05c1	-0.038579706
121	0x3d58487d	0.052803505
122	0xbdbc74d5	-0.092019714
123	0xbe3acf64	-0.18243176
124	0xbd46ff00	-0.04858303
125	0x3d3c0fe4	0.045913592
126	0x3dbfcf09	0.09365661
127	0xbdf75da9	-0.12078411

fp2.weight f4 [256, 128]
0	0xbe06bf39	-0.13158883
1	0xbe9de1fc	-0.30836475
2	0xbd834304	-0.064092666
3	0x3db826ca	0.089917734
4	0xbc146c2f	-0.009058996
5	0x3cba604e	0.022751
6	0xbe9dbba2	-0.30807215
7	0xbe979f85	-0.2961389
8	0x3c0b5557	0.008504233
9	0xbe8b188e	-0.2716717
10	0xbd97fde1	-0.074214704
11	0x3c1da66e	0.009622199
12	0xbe313185	-0.17304046
13	0xbf2ff1c9	-0.6872831
14	0xbe7533c9	-0.23945536
15	0xbdaf859f	-0.08570408
16	0x3bbe4b55	0.00580732
17	0xbe4d3dca	-0.20043102
18	0xbed6f7dc	-0.41985977
19	0xbeaf228f	-0.34206054
20	0xbe328e6b	-0.1743714
21	0x3d54b55a	0.051930763
22	0x3d2c7e3e	0.04211258
23	0x3cecd07c	0.028908007
24	0xbe1968b5	-0.14981349
25	0x3d96821f	0.073490374
26	0xbdd2eece	-0.10299455
27	0xbf26c846	-0.65149343
28	0xbeb5660d	-0.3542942
29	0x3d21fb53	0.039546322
30	0xbdb88d12	-0.09011282
31	0xbe43b1e3	-0.19110827
32	0x3d0ce1c7	0.034395006
33	0xbf0fd97b	-0.56191224
34	0xbd90d21f	-0.070713274
35	0xbd976d1e	-0.07393859
36	0x3d9fe71e	0.07807754
37	0xbcfe516e	-0.031044688
38	0xbc207171	-0.009792672
39	0xbd80056c	-0.06251034
40	0xbe8c87ed	-0.27447453
41	0xbdb93757	-0.09043758
42	0xbd8255c4	-0.06364015
43	0xbc6ba656	-0.014382919
44	0xbddcbb83	-0.107779525
45	0x3b3e4a02	0.0029035811
46	0xbdda12bc	-0.106481045
47	0xbd9e636b	-0.07733806
48	0xbe4601ce	-0.19336626
49	0xbed26104	-0.41089642
50	0xbe55d003	-0.20880131
51	0xbdf84cff	-0.12124061
52	0xbe2c899e	-0.16849372
53	0xbea39344	-0.31948292
54	0x3dc4b973	0.09605684
55	0x3da3899a	0.0798523
56	0xb9d3e3cc	-0.00040414778
57	0xbf0a3e10	-0.5400095
58	0x3c382016	0.011238119
59	0xbe01e8ae	-0.12686417
60	0xbcfa2a4c	-0.030537747
61	0xbdcc8da7	-0.099879555
62	0x3c8e66c3	0.017382985
63	0xbe0513c8	-0.12995827
64	0xbea7e0dd	-0.32788745
65	0xbe295504	-0.16536337
66	0xbda24be9	-0.07924635
67	0xbe0df885	-0.13864334
68	0xbcb9bb12	-0.02267221
69	0xbc86024a	-0.016358513
70	0xbe8cc6b9	-0.27495363
71	0xbd1b7cc5	-0.037960786
72	0x3c76b297	0.015057228
73	0xbeed073a	-0.46294576
74	0xbdeb9338	-0.11502689
75	0xbe162b96	-0.14665064
76	0x3cd07c68	0.025449947
77	0xbd84d5b2	-0.06486072
78	0x3cb02a80	0.02150464
79	0x3da0621e	0.07831214
80	0xbd799609	-0.0609341
81	0x3e33a58c	0.1754362
82	0x3d17677c	0.036963925
83	0xbef29350	-0.47378016
84	0xbdaf1527	-0.08548956
85	0xbe85f8be	-0.26166338
86	0xbcf3f5dd	-0.029780323
87	0xbc5e9552	-0.013585405
88	0xbe566dc3	-0.20940308
89	0x3e429d7d	0.1900539
90	0x3dc6a509	0.09699447
91	0xbe8c87d4	-0.2744738
92	0xbe87ecfc	-0.26547992
93	0xbd820af8	-0.063497484
94	0x3e426fb2	0.18987921
95	0xbe7386fa	-0.23781958
96	0x3d28d73a	0.04122088
97	0x3d254219	0.04034624
98	0xbdc60411	-0.09668744
99	0xbe11fc79	-0.14256467
100	0xbd279888	-0.04091695
101	0xbcade6a5	-0.021228144
102	0xbcf25dcb	-0.02958574
103	0xbcb2cc2c	-0.021825872
104	0xbe93690f	-0.2879109
105	0xbeb98782	-0.36236197
106	0xbd1811f1	-0.037126485
107	0xbf11f5b9	-0.5701557
108	0x3d10d7ed	0.035362173
109	0xbcda8eb5	-0.026679376
110	0xbef3cd59	-0.47617605
111	0xbf1b5732	-0.60679924
112	0xbe940340	-0.2890873
113	0xbe420d0b	-0.18950288
114	0xbe53fdde	-0.20702311
115	0xbde8aa08	-0.11360556
116	0x3df53a84	0.119740516
117	0x3dbd98b6	0.09257643
118	0xbeda0ab4	-0.4258629
119	0xbd9e84c9	-0.077401705
120	0x3da36265	0.07977752
121	0xbd986275	-0.07440654
122	0xbec79143	-0.38978013
123	0xbd560db3	-0.05225916
124	0xbd40ab94	-0.04703863
125	0xbe3e5769	-0.18588032
126	0xbded932c	-0.116003364
127	0xbd39674a	-0.04526452
128	0xbe3d9df2	-0.18517283
129	0x3cc9f39b	0.024652293
130	0xbd87f036	-0.066376135
131	0x3eaa0de1	0.33213714
132	0xbe28a763	-0.16470103
133	0xbd7ea08e	-0.062164836
134	0xbcbf18e7	-0.023327304
135	0xbdf2d440	-0.1185689
136	0x3dfa0189	0.12207324
137	0xbe129793	-0.14315633
138	0xbd9a4357	-0.07532375
139	0xbb16693d	-0.002295091
140	0xbe86173e	-0.26189607
141	0xbd15b20c	-0.03654675
142	0xbe496fe0	-0.19671583
143	0xbcaad061	-0.020851316
144	0x3dbce7ae	0.09223877
145	0x3dde0f8b	0.10842808
146	0x3e523bca	0.2053062
147	0xbc3770df	-0.011196344
148	0x3bf40c0f	0.0074477266
149	0x3df5ff46	0.1201158
150	0x3d04f630	0.032461345
151	0x3e3e51c7	0.18585883
152	0xbb63457c	-0.0034678867
153	0x3e0a5cc9	0.13511957
154	0x3e0c203d	0.13684173
155	0xbcccb4f0	-0.024988621
156	0xbd81d1e1	-0.06338859
157	0xbd4a22f1	-0.04934973
158	0xbd961b37	-0.073294096
159	0x3e2c7c96	0.16844401
160	0xbe0c4c9a	-0.13701096
161	0xbdbc779b	-0.092025004
162	0xbe5d5584	-0.21614653
163	0xbd2f7a30	-0.042841136
164	0x3d6dd4d1	0.058064286
165	0x3d7bbc5e	0.061458938
166	0x3b04509c	0.0020189648
167	0xbd8cbc5b	-0.068718635
168	0xbda6c14d	-0.08142338
169	0x3c950227	0.018189503
170	0xbe63038f	-0.22169326
171	0x3c20b87a	0.009809608
172	0xbd8ca5c7	-0.06867557
173	0xbe8533bc	-0.26016033
174	0xbe19bc76	-0.15013298
175	0x3c8347a5	0.016025374
176	0xbdd63d86	-0.104609534
177	0xbe23456c	-0.15944451
178	0xbc48f6d2	-0.012265878
179	0xbd3b7bd1	-0.045772377
180	0x3e05e493	0.13075475
181	0xbcb25d03	-0.021772867
182	0xbd79f7f3	-0.06102748
183	0xbc63f1e7	-0.0139126545
184	0x3df5f648	0.12009865
185	0xbd53ac4c	-0.051677987
186	0xbe09bd9d	-0.13451238
187	0x3d4164e2	0.04721535
188	0xbd367b79	-0.044551346
189	0xbd6559a5	-0.055993695
190	0xbddf2452	-0.108955994
191	0xbdde8089	-0.1086436
192	0x3e064167	0.13110887
193	0xbc4d3452	-0.012524681
194	0xbd593967	-0.05303326
195	0xbe2042b4	-0.15650445
196	0xbe3990ae	-0.18121597
197	0x3cc058b3	0.023479795
198	0xbd2e366d	-0.042532373
199	0x3dc5efe7	0.09664898
200	0x3d81592d	0.06315837
201	0xbe1e8687	-0.15481006
202	0xbd8b7c50	-0.0681082
203	0x3de6e1ae	0.11273514
204	0x3e2f2121	0.17102481
205	0x3cdd7840	0.027034879
206	0xbda61e71	-0.08111275
207	0xbd69f33e	-0.05711674
208	0x3e04ec29	0.12980713
209	0xbd452aff	-0.048136707
210	0xbdde2111	-0.10846151
211	0x3bb0194c	0.0053741094
212	0xbd59a271	-0.05313343
213	0x3de18918	0.11012477
214	0x3e0cc708	0.137478
215	0xbe3f0a42	-0.18656257
216	0x3dba683c	0.091019124
217	0xbca214d5	-0.019785324
218	0xbcefd599	-0.029276656
219	0xbe361d65	-0.1778465
220	0x3afc5461	0.0019251221
221	0xbed8dd83	-0.423565
222	0xbdee3b5b	-0.11632415
223	0xbcd72009	-0.026260393
224	0xbccaa210	-0.02473548
225	0xbd92aa54	-0.07161394
226	0xbe2a29f2	-0.16617563
227	0xbd75fc62	-0.060055144
228	0x3e6fed82	0.23430446
229	0x3dc213b9	0.09476418
230	0x3c832c30	0.016012281
231	0x3dd67a3b	0.10472532
232	0xbe9cd871	-0.30633882
233	0xbf0b298f	-0.5436029
234	0x3df04c3e	0.11733292
235	0x3c132cf5	0.008982887
236	0xbdc2f8b8	-0.095200956
237	0xbe157ddf	-0.14598797
238	0x3da95c6b	0.082695805
239	0xbda709e0	-0.081561804
240	0xbcda9f93	-0.026687419
241	0xbd08caf9	-0.033396695
242	0xbe2876d4	-0.1645158
243	0xbd83333f	-0.06406259
244	0xbe277488	-0.16353047
245	0x3db60ee5	0.0888956
246	0x3e17599b	0.14780276
247	0xbdd9db72	-0.10637559
248	0xbd7920b3	-0.0608222
249	0x3e9d3d9e	0.30711073
250	0xbce88975	-0.028385857
251	0xbe319e58	-0.1734556
252	0xbcfda489	-0.030962246
253	0xbdfb4f11	-0.1227094
254	0xbda64091	-0.08117784
255	0x3d1f2dcb	0.03886203

fp2.bias f4 [256]
0	0x3d003d59	0.031308506
1	0xbd7458fc	-0.059655175
2	0xbc59685a	-0.013269508
3	0xbdf53201	-0.11972428
4	0xbcb57a0a	-0.02215292
5	0x3dc7063c	0.09717986
6	0xbe0ea39f	-0.13929604
7	0x3ea90685	0.33012787
8	0xbd9a12b0	-0.075230956
9	0x3ba1a545	0.0049330317
10	0x3b4611b8	0.0030222964
11	0x3dec8647	0.11549049
12	0xbd805792	-0.06266703
13	0xbd994fe0	-0.07485938
14	0xbd842ab8	-0.064534605
15	0xbc72b421	-0.014813454
16	0xbd5d3733	-0.05400772
17	0xbd3a737b	-0.045520287
18	0x3c8a1e55	0.016860167
19	0xbd982d2c	-0.07430491
20	0xbd4c7a75	-0.04992147
21	0xbcd047e9	-0.025424914
22	0xbbe954e7	-0.007120717
23	0xbcd4b9f3	-0.025967574
24	0x3ca3d195	0.019997397
25	0xbd0a1d05	-0.03371908
26	0xbbc8ddf1	-0.006129973
27	0xbd8448c5	-0.06459192
28	0xbdead108	-0.11465651
29	0xbe06d128	-0.13165724
30	0xbc9f763e	-0.019465562
31	0xbdc4783c	-0.095932454
32	0xbdddaf4e	-0.10824452
33	0xbc65defc	-0.014030214
34	0xbc0475b2	-0.008084701
35	0xbc0e07b6	-0.008668831
36	0x3d05d438	0.03267309
37	0xbe443318	-0.19160116
38	0xbddb21a2	-0.10699774
39	0xbdd215a3	-0.10258033
40	0xbd82199e	-0.06352542
41	0xbcaea944	-0.021320947
42	0x3db08d1a	0.08620663
43	0x3cd95e33	0.026534176
44	0x3d9ea496	0.07746236
45	0xbd45fe2d	-0.048338104
46	0xbdf2e322	-0.118597284
47	0xbe1d4f8d	-0.15362377
48	0xbd278819	-0.040901277
49	0x3ded0f44	0.11575177
50	0xbb86d325	-0.004114526
51	0xbbe03a0b	-0.0068428568
52	0xbbf79e75	-0.0075567313
53	0xbcf6fe64	-0.0301506
54	0xbd00743c	-0.03136085
55	0xbd131252	-0.035906143
56	0x3b4082cd	0.0029374838
57	0xbe04d2ca	-0.12971035
58	0xbdf892c1	-0.12137366
59	0x3d9fc834	0.078018576
60	0xbe08d4c7	-0.13362418
61	0x3c3c8fe3	0.011508915
62	0xbd31230c	-0.043246314
63	0xbcd4fd91	-0.025999816
64	0x3d4d32bd	0.050097216
65	0xbe139c5c	-0.14415115
66	0x3d74c7fe	0.05976104
67	0x3cb73bd9	0.022367405
68	0xbe04d0c4	-0.12970263
69	0x3ce42592	0.027849946
70	0x3d12e5b8	0.035863608
71	0xbe020492	-0.12697056
72	0xbc40dd59	-0.011771523
73	0xbdeabc32	-0.11461677
74	0xbda1d725	-0.07902364
75	0x3d8b871b	0.06812879
76	0xbc9e928a	-0.019356985
77	0xbd2e3b6e	-0.042537145
78	0x3d9863fb	0.07440945
79	0xbcf52d7f	-0.02992892
80	0xbcbc6e91	-0.02300194
81	0xbdb54f77	-0.08853047
82	0xbd993941	-0.074816234
83	0x3be3739f	0.0069412733
84	0xbd306422	-0.043064244
85	0x3e87188b	0.26385912
86	0xbd8ec77a	-0.06971641
87	0x3d693f89	0.056945357
88	0x3e48a13a	0.19592753
89	0x3d03fbe8	0.03222266
90	0x3d394409	0.0452309
91	0xbd82c5e9	-0.063854046
92	0xbd81df4e	-0.0634142
93	0x3d2834d2	0.041066
94	0x3d1cba3f	0.038263556
95	0xbb444994	-0.0029951083
96	0xbdf1622b	-0.11786302
97	0xbe0cf7ae	-0.13766357
98	0xbd6cea7a	-0.0578408
99	0xbc8a8872	-0.016910765
100	0xbda9ee82	-0.08297445
101	0x3ea8e3ec	0.3298639
102	0x3d9fe4b7	0.07807296
103	0xbc35f694	-0.011106152
104	0x3cb4e11d	0.022079999
105	0xbdb263a3	-0.087104104
106	0x3c9ba7e3	0.019000953
107	0x3da49eac	0.08038077
108	0xbdade023	-0.08490016
109	0x3caae34f	0.020860342
110	0xbd93cd08	-0.07216841
111	0xba64b93d	-0.00087251124
112	0xbdad6a60	-0.08467555
113	0xbd5bf5f8	-0.05370137
114	0xbd637384	-0.055530086
115	0xbdbbadb3	-0.0916399
116	0x3bc71c76	0.006076391
117	0x3d8c6b54	0.06856409
118	0xbdc9c732	-0.098524466
119	0x3c87e4a0	0.01658851
120	0xbdb066d8	-0.08613366
121	0xbd80dceb	-0.06292137
122	0xbcfe94ff	-0.031076906
123	0x3bec6478	0.0072141252
124	0xbdacfc00	-0.08446503
125	0xbe245d23	-0.16051154
126	0xbcbd2599	-0.023089217
127	0x3d895fe0	0.0670774
128	0x3cb8201d	0.02247625
129	0xbd9feceb	-0.078088604
130	0xbdf0f6dd	-0.117658354
131	0xbe17862d	-0.14797278
132	0xbd2e3973	-0.042535257
133	0x3c2dd713	0.01061036
134	0x3da07e59	0.07836599
135	0xbd301761	-0.042991046
136	0xbe026c59	-0.12736644
137	0xbe15d0f2	-0.14630488
138	0xbc8eab5d	-0.017415697
139	0x3d40c82a	0.04706589
140	0xbd1aa052	-0.03775055
141	0xbd20b150	-0.0392316
142	0xbc2e0a51	-0.010622577
143	0xbdfcc207	-0.12341695
144	0xbe00d33f	-0.12580584
145	0x3d039f6b	0.032134455
146	0xbd8eb19b	-0.06967469
147	0xbd9a529c	-0.07535288
148	0xbdc86a8c	-0.09785947
149	0x3aaf6fdb	0.0013384776
150	0xbd76f046	-0.060287736
151	0xbddb0c4f	-0.10695707
152	0xbd14e951	-0.03635532
153	0x3cda2e1b	0.026633313
154	0xbe0255ea	-0.12728086
155	0xbbee0ca0	-0.0072646886
156	0x3d0853b3	0.033282947
157	0xbd1a7034	-0.03770466
158	0xbc874982	-0.016514543
159	0xbdcf841b	-0.10132619
160	0x3c267adf	0.010161131
161	0xbe376ff6	-0.17913803
162	0xbd8f3c2b	-0.06993898
163	0xbda37661	-0.07981563
164	0x3dd3807a	0.10327239
165	0xbcb9825f	-0.022645174
166	0xbda1b98c	-0.078967184
167	0xbd92fec7	-0.07177501
168	0xbc304ec6	-0.010760969
169	0xbd3f6f30	-0.046736896
170	0xbd8c13e5	-0.06839732
171	0xbcf50aa1	-0.029912295
172	0xbe28c9cb	-0.16483228
173	0xbe47dbcb	-0.19517438
174	0xbb5bd7b4	-0.0033545317
175	0x3cd68dc7	0.026190652
176	0xbd07f386	-0.033191226
177	0x3e983d6b	0.29734358
178	0xbdaa904a	-0.08328302
179	0xbd59e7f4	-0.053199723
180	0xbdc963c1	-0.0983348
181	0x3d135e0c	0.035978362
182	0xbe0b46d5	-0.13601239
183	0x3e07b16e	0.13251278
184	0xbdbe3182	-0.092867866
185	0x3cb22104	0.021744259
186	0xbdeae346	-0.1146913
187	0x3cbffb6f	0.023435323
188	0xbdcb7395	-0.09934155
189	0xbdb07076	-0.086152
190	0x3d8d8f1f	0.06912064
191	0xbde4e88b	-0.111771666
192	0xbe0946e1	-0.13405944
193	0xbbaec3dd	-0.0053334073
194	0xbde620ec	-0.11236748
195	0xbb5f8048	-0.0034103561
196	0xbd81e0de	-0.06341718
197	0xbcf055ab	-0.029337725
198	0x3d14b230	0.036302745
199	0xbcceee1d	-0.025260026
200	0xbca5042a	-0.020143587
201	0xbd2874c0	-0.041126966
202	0x3cf20edd	0.029548103
203	0xbe0cf7d7	-0.13766418
204	0xbdfb00e9	-0.12256033
205	0xbd73d911	-0.059533183
206	0xbe41c7d8	-0.1892389
207	0xbd86c571	-0.06580628
208	0xbd8cf0c9	-0.068818636
209	0xbdb4294e	-0.08796941
210	0x3ceed565	0.029154489
211	0xbdf786d9	-0.12086267
212	0x3d68cea5	0.056837697
213	0x3b019335	0.001977158
214	0x3d3014c4	0.042988554
215	0xbd7f1212	-0.062273093
216	0xbe03e04b	-0.1287853
217	0x3d41e0ed	0.047333647
218	0xbe04b192	-0.12958363
219	0x3befa83c	0.0073137563
220	0xbcd374b2	-0.02581248
221	0xbd92f6e4	-0.07175997
222	0xbd355bbc	-0.044276938
223	0x3dbad999	0.09123535
224	0x3d92b2e5	0.07163028
225	0x3d953d34	0.07287064
226	0xbd0abc4d	-0.033870984
227	0xbdf0ec30	-0.11763799
228	0xbdaf6f1f	-0.085661165
229	0xbcc93955	-0.02456347
230	0xbd851e55	-0.06499926
231	0xbcbf4517	-0.023348374
232	0xbdd20a53	-0.102558754
233	0xbce1ad89	-0.027548568
234	0xbe025670	-0.12728286
235	0xbde300c5	-0.11084131
236	0xbd35ad52	-0.044354744
237	0xbcaaf8d3	-0.020870602
238	0x3b5fed38	0.0034168493
239	0xbe0f2450	-0.13978696
240	0xbc52efd6	-0.012874564
241	0xbc28ce11	-0.010303036
242	0xbd7a49a6	-0.061105393
243	0xbd2e16eb	-0.042502325
244	0xbd130076	-0.03588911
245	0xbd250b8b	-0.04029421
246	0xbe42fd99	-0.19042052
247	0xbda4c2cb	-0.08044966
248	0x3d805cc2	0.06267692
249	0xbe0c7d10	-0.13719583
250	0xbdfcc017	-0.12341326
251	0xbded3114	-0.115816265
252	0xbbf04dbe	-0.0073334863
253	0x3c500508	0.012696512
254	0xbd62351c	-0.05522643
255	0x3c8183fd	0.015810007

head_values.weight f4 [1, 256]
0	0xbea7f552	-0.32804352
1	0x3d228179	0.039674256
2	0xbd30d6e1	-0.043173674
3	0x3dff4c46	0.1246572
4	0x3f14974a	0.5804335
5	0x3dc0fe85	0.09423546
6	0xbc9ae06b	-0.018905839
7	0x3e140c16	0.14457735
8	0xbf267b2b	-0.6503169
9	0x3e5f5c0b	0.21812455
10	0xbec85be9	-0.39132622
11	0x3e0a6830	0.13516307
12	0xbe5ad9f0	-0.21372199
13	0x3eb3846c	0.35061967
14	0x3e814747	0.25249693
15	0xbbcd59f4	-0.0062668268
16	0x3dbe2072	0.09283532
17	0xbe21930f	-0.15778755
18	0xbea1ae41	-0.31578258
19	0xbd8b2ce8	-0.067956746
20	0x3e2007d8	0.15627992
21	0x3ea7cc68	0.32773137
22	0xbd572a3d	-0.052530516
23	0x3d3146ef	0.04328054
24	0x3e717ab4	0.23581964
25	0x3e9a877a	0.30181485
26	0xbc5f6c8f	-0.013636722
27	0x3dedcf28	0.116117775
28	0xbddf9872	-0.109177485
29	0x3c5c3b5b	0.013441886
30	0xbd05b97c	-0.032647595
31	0x3c775cbe	0.015097795
32	0xbd110c22	-0.03541196
33	0xbee65ac6	-0.4499113
34	0x3ddc1d58	0.107477844
35	0xbdb2c343	-0.087286495
36	0x3cb3731d	0.021905476
37	0xbd33af87	-0.043868568
38	0xbc83fedb	-0.016112735
39	0x3f1ea537	0.6197085
40	0x3e7992b7	0.24372374
41	0x3e4d3b76	0.20042214
42	0x3eeac990	0.45856905
43	0x3dbe542f	0.092934005
44	0xbe371ba9	-0.17881645
45	0x3e271f58	0.1632055
46	0x3c70360f	0.014661326
47	0xbbb19a84	-0.005420031
48	0x3d40023d	0.046877135
49	0x3d72b075	0.059250314
50	0xbd328d6d	-0.043591905
51	0x3d9bf179	0.07614417
52	0x3e31f47b	0.17378418
53	0x3dda67d0	0.10664332
54	0xbe2ae43b	-0.16688626
55	0x3e16703f	0.14691256
56	0x3d56e1c5	0.052461404
57	0xbd1e4aad	-0.038645435
58	0xbe07166f	-0.13192151
59	0x3dbcb395	0.0921394
60	0x3e5831a4	0.21112686
61	0x3e37eff9	0.17962636
62	0x3ddf4599	0.109019466
63	0x3db05e9a	0.08611794
64	0x3e831698	0.25603175
65	0x3e9bc8a7	0.30426523
66	0xbe5f991a	-0.21835747
67	0x3d417ffa	0.04724119
68	0x3ea9963c	0.33122432
69	0xbd93689c	-0.07197687
70	0x3eadc038	0.33935714
71	0x3d50c1a4	0.05096592
72	0xbd1012b2	-0.03517408
73	0x3ca1b3c7	0.019739045
74	0x3d14f771	0.03636879
75	0x3e517c74	0.20457631
76	0x3ea3243c	0.31863582
77	0x3d262278	0.040560216
78	0x3f2c5767	0.67320865
79	0x3e5b007c	0.21386904
80	0x3d9bed58	0.07613629
81	0xbe721b53	-0.23643236
82	0xbdb9abb9	-0.090659566
83	0x3e755a33	0.2396019
84	0x3edbfe4b	0.42967448
85	0x3e1492c6	0.14509115
86	0x3ed8af35	0.42321172
87	0x3e37833b	0.17921154
88	0x3db9a54f	0.09064733
89	0x3e8e0f09	0.27745846
90	0x3e3d5e19	0.18492927
91	0xbe23593b	-0.15952007
92	0xbeb2d854	-0.3493067
93	0x3e04364e	0.1291134
94	0x3ea32d75	0.31870618
95	0x3e38d690	0.18050599
96	0x3ee364be	0.44412798
97	0xbeac3683	-0.3363534
98	0x3e9c58d5	0.30536523
99	0x3e851c56	0.2599818
100	0x3dc7d0fd	0.09756658
101	0x3e3bc51e	0.18336913
102	0x3e0e3c3f	0.1389017
103	0x3dafa5d2	0.085765496
104	0xbe25c37f	-0.16187857
105	0x3e9957db	0.2994984
106	0xbe4a9f78	-0.19787395
107	0x3dc0df25	0.094175614
108	0xbe354c95	-0.17704995
109	0xbf103f50	-0.5634661
110	0x3edcfe7f	0.43162915
111	0x3dc21c94	0.09478107
112	0xbe51eb16	-0.20499834
113	0x3df72387	0.12067323
114	0x3eb1faa6	0.34761542
115	0x3d72a93b	0.059243422
116	0xbe416325	-0.18885477
117	0x3d30bb57	0.04314741
118	0x3e1485f3	0.14504223
119	0x3ebbc1b5	0.36671224
120	0x3e60a0a8	0.21936285
121	0x3cf32ff3	0.02968595
122	0xbebfca13	-0.37458858
123	0x3e1e9fcc	0.15490645
124	0x3d7f7c4a	0.06237439
125	0x3c2d2a20	0.010569125
126	0xbb9b2dcd	-0.0047356845
127	0x3e316cd6	0.17326674
128	0x3f1a3c9d	0.6024874
129	0xbda3e141	-0.08001948
130	0x3e222499	0.15834273
131	0xbdd09289	-0.10184199
132	0xbcf75cfb	-0.030195704
133	0x3d9971ab	0.074923836
134	0x3dab33ac	0.08359465
135	0x3d8fcfb8	0.07022041
136	0xbd68894e	-0.05677157
137	0xbcebd1bd	-0.028786534
138	0xbceace19	-0.028662728
139	0xbd5c3ab8	-0.053766936
140	0x3e4abe1a	0.1979908
141	0xbe261715	-0.16219743
142	0x3cc9d763	0.024638837
143	0x3e4c04ab	0.19923656
144	0xbd43467f	-0.047674652
145	0x3df0cf6f	0.11758315
146	0xbccc6dfe	-0.024954792
147	0x3e4df643	0.20113473
148	0x3ddbbcbd	0.10729358
149	0x3e77714c	0.24164313
150	0xbe683844	-0.22677714
151	0x3eae29cc	0.34016263
152	0x3d8141cb	0.06311377
153	0x3db71840	0.08940172
154	0x3e9bfc11	0.3046575
155	0xbcd40b5c	-0.025884323
156	0x3e45aefb	0.19305031
157	0x3ef4266f	0.47685573
158	0xbc06f5aa	-0.008237282
159	0xbdcdab97	-0.10042494
160	0x3e999931	0.29999688
161	0xbd1b0a31	-0.037851516
162	0x3e3585d0	0.17726827
163	0xbccea948	-0.025227204
164	0x3d875726	0.06608419
165	0xbcfe5cc2	-0.03105009
166	0x3ec4db16	0.384484
167	0xbe6a4146	-0.22876462
168	0xbd1e81cb	-0.038698
169	0x3d88a6ea	0.06672461
170	0xbe9f237f	-0.3108177
171	0xbe29b4ad	-0.16572829
172	0x3e831c66	0.25607604
173	0xbc6bbd79	-0.0143884355
174	0xbe6fdc61	-0.23423912
175	0x3dd80d0f	0.10549366
176	0x3f089a23	0.53360194
177	0x3e16205d	0.14660783
178	0xbe170aa3	-0.14750151
179	0xbd86fe93	-0.06591525
180	0x3dd76ba9	0.105185814
181	0x3d90d52c	0.07071909
182	0x3e3b91e3	0.1831737
183	0x3ddfb20c	0.109226316
184	0x3d4bdeff	0.049773213
185	0xbcd081d1	-0.025452526
186	0x3e899377	0.2687032
187	0x3d797e91	0.06091172
188	0xbde6ffe1	-0.11279274
189	0xbd97f0c1	-0.07418967
190	0xbdea3ddf	-0.11437582
191	0xbd8125e5	-0.06306056
192	0x3ec3b8d2	0.38226944
193	0xbbbe4e22	-0.005807654
194	0x3e821230	0.254045
195	0xba18de03	-0.0005831422
196	0x3e0c17b0	0.13680911
197	0x3d8b5b38	0.06804508
198	0x3dc2f859	0.09520025
199	0x3d474d98	0.048657984
200	0xbe84495a	-0.25837213
201	0x3d06e946	0.03293731
202	0x3d862f6e	0.06552015
203	0x3d5f1ca9	0.05447069
204	0x3dcc0e77	0.099636964
205	0xbd06e421	-0.032932404
206	0xbcecc911	-0.02890447
207	0x3c9ee51a	0.019396354
208	0xbe456b2b	-0.19279163
209	0x3c21c189	0.0098728025
210	0xbedeb097	-0.43494102
211	0xbbeeec92	-0.007291385
212	0x3dc7eab9	0.09761567
213	0xbc76db79	-0.015066975
214	0xbe661c10	-0.22471642
215	0x3f04f08b	0.5192954
216	0xbe1359b8	-0.14389694
217	0x3d83eff8	0.06442255
218	0x3d33781d	0.04381572
219	0x3dfd9827	0.123825364
220	0x3e03740f	0.12837242
221	0x3e3f6f36	0.18694767
222	0xbdc0e038	-0.09417766
223	0xbc536a2e	-0.012903733
224	0x3e7ad323	0.24494605
225	0x3ea2d44c	0.31802595
226	0xbe971c03	-0.2951356
227	0x3cdda668	0.027056888
228	0x3dbb20a4	0.09137085
229	0x3e1ca014	0.1529544
230	0xbd50870f	-0.050910052
231	0x3df3bd4b	0.11901339
232	0x3d90f3fc	0.07077786
233	0x3c3c4532	0.011491107
234	0x3e57c2eb	0.21070449
235	0x3e9caee0	0.3060217
236	0xbe90b821	-0.2826548
237	0xbe4912ba	-0.1963605
238	0x3e8ea136	0.2785737
239	0x3d576096	0.052582346
240	0x3eae4b88	0.34042
241	0xbe5e2355	-0.21693166
242	0xbcf6ddc5	-0.030135045
243	0x3e38185e	0.17978045
244	0xbe9787b6	-0.29595727
245	0x3e4529e8	0.19254267
246	0x3e855149	0.26038578
247	0x3e12d352	0.14338425
248	0x3e326210	0.1742022
249	0x3e817867	0.25287172
250	0x3cad3698	0.021144196
251	0xbec35f4d	-0.38158646
252	0x3d3833ea	0.044971384
253	0x3ea0af26	0.31383628
254	0x3d5d94b5	0.054096896
255	0x3da36982	0.079791084

head_advantages.weight f4 [4, 256]
0	0x3e6bd705	0.23031242
1	0xbd8bfaff	-0.06834983
2	0xbe58f811	-0.2118838
3	0xbe5e86c1	-0.21731092
4	0xbe9c0e49	-0.3047965
5	0xbd531b00	-0.05153942
6	0xbcb774d5	-0.022394577
7	0xbe00b242	-0.12568
8	0xbddf76ec	-0.109113544
9	0x3d3c805d	0.046020854
10	0x3e8bccf4	0.27304804
11	0xbbee655d	-0.007275267
12	0x3e85c798	0.2612884
13	0xbe6ad739	-0.22933663
14	0x3e64dfc5	0.22350986
15	0xbe032bc9	-0.12809671
16	0xbd4c4db8	-0.049878806
17	0x3e215f11	0.15758921
18	0x3d0b57b5	0.03401919
19	0xbe4d13bd	-0.20027061
20	0x3daacdf4	0.08340064
21	0x3d2843fd	0.041080464
22	0xbd318a9f	-0.04334509
23	0xbe21d3b9	-0.15803422
24	0x3c386eed	0.0112569155
25	0xbdbbbb68	-0.09166604
26	0xbdd8a287	-0.10577875
27	0xbde16b54	-0.11006799
28	0xbc896407	-0.01677133
29	0xbe2f4dd0	-0.17119527
30	0x3c092cd6	0.008372506
31	0xbe02f9ff	-0.12790678
32	0xbcfa0705	-0.030520925
33	0x3ea41f41	0.32055095
34	0x3d16d52a	0.036824383
35	0xbceaa8d6	-0.02864496
36	0xbcbd1843	-0.023082858
37	0x3d9817e0	0.07426429
38	0x3cbaf85f	0.02282351
39	0x3f0e60d8	0.5561652
40	0x3e4e79c1	0.20163633
41	0xbd0415ad	-0.032247234
42	0x3e737d4c	0.23778266
43	0xbdd60adb	-0.10451289
44	0x3d156f05	0.03648283
45	0x3db26cad	0.087121345
46	0x3e17c8e3	0.14822726
47	0xbdcbe49a	-0.09955712
48	0xbc944f70	-0.018104285
49	0xbdaf612c	-0.08563456
50	0xbcdb7adc	-0.026791982
51	0xbd9c2dc0	-0.076259136
52	0xbd6f571b	-0.05843268
53	0xbdda3a31	-0.106556304
54	0x3d5b348d	0.053516913
55	0x3e144602	0.14479831
56	0xbdc7f3df	-0.097633116
57	0xbd70cb70	-0.058787763
58	0xbca27769	-0.01983233
59	0x3ca0d091	0.019630702
60	0x3e6e98ba	0.23300448
61	0x3d46f39e	0.048572175
62	0xbdd53403	-0.10410311
63	0xbe052e66	-0.13005981
64	0x3dee8738	0.11646885
65	0x3e5a3ed9	0.21313037
66	0x3dffea16	0.1249582
67	0x3c87853c	0.016543023
68	0x3d8577b4	0.06516972
69	0xbdfdcc29	-0.12392456
70	0x3e9f0825	0.310609
71	0xbd2bcde3	-0.041944396
72	0xbee4948c	-0.44644582
73	0xbd989960	-0.07451129
74	0xbdbc6beb	-0.09200271
75	0x3d8a5168	0.06753808
76	0x3e2797e5	0.16366537
77	0xbbbb5768	-0.0057172067
78	0xbeb860c5	-0.3601133
79	0xbe62a1ef	-0.22132085
80	0xbd677829	-0.056511078
81	0xbe3cc1e3	-0.18433337
82	0x3d626808	0.055274993
83	0xbdf2b989	-0.11851794
84	0x3d6a6a06	0.057230018
85	0xbc2aa7e9	-0.010416009
86	0xbd67678b	-0.05649523
87	0x3e099a85	0.13437851
88	0xbd8743a6	-0.066047
89	0x3d03dc42	0.032192476
90	0x3c91df70	0.017806739
91	0xbd5ea026	-0.05435195
92	0x3e7e6e9c	0.24846882
93	0xbc4a9aa8	-0.0123659745
94	0x3dab8ba1	0.083762415
95	0xbe1ac619	-0.15114631
96	0xbdd6180b	-0.104538046
97	0xbee0b170	-0.43885374
98	0xbe830800	-0.2559204
99	0x3e336955	0.1752065
100	0xbd607634	-0.054800227
101	0xbd508882	-0.050911434
102	0x3c003cc0	0.007826984
103	0xbdfc4300	-0.12317467
104	0xbe039cfb	-0.12852852
105	0xbe2dfb4e	-0.16990396
106	0xbdaddeea	-0.08489783
107	0xbd0af03e	-0.03392052
108	0xbe0aa1f4	-0.13538343
109	0xbe04cf4f	-0.12969707
110	0xbd5d7c1e	-0.054073445
111	0xba269ec3	-0.0006356055
112	0xbeaa8550	-0.33304834
113	0xbda5f1c2	-0.08102752
114	0xbe908616	-0.282273
115	0xbd831a0b	-0.06401452
116	0x3dba5056	0.09097354
117	0x3e620843	0.22073464
118	0x3dada8e5	0.0847948
119	0x3d7c4f61	0.06159914
120	0xbd10089d	-0.035164464
121	0xbd34d06e	-0.044144087
122	0x3ea46f3b	0.32116112
123	0xbd722720	-0.059119344
124	0x3dc72f77	0.0972585
125	0xbec214c2	-0.37906462
126	0x3b92b0f3	0.0044766604
127	0x3deb9f26	0.115049645
128	0xbe342a70	-0.17594314
129	0xbe5324c1	-0.20619489
130	0xbeb9a6e5	-0.36260143
131	0xbdec152f	-0.11527478
132	0xbd12b6f1	-0.035818998
133	0xbd9ca200	-0.076480865
134	0xbca3e068	-0.020004466
135	0x3dd53f02	0.104124084
136	0xbe09c898	-0.13455427
137	0xbcc599fd	-0.024121279
138	0xbd8ad0e7	-0.06778126
139	0x3dcd83a5	0.10034875
140	0xbc1a1cf9	-0.009406322
141	0x3cb3e537	0.021959884
142	0x3d230e14	0.039808348
143	0x3cee36d0	0.029078871
144	0xbdf09bb1	-0.11748446
145	0xbd4b4166	-0.049622916
146	0x3c81f437	0.015863521
147	0x3ec5fea4	0.38670838
148	0x3cae98fe	0.021313187
149	0x3d33aa6b	0.043863695
150	0xbd0b7982	-0.034051426
151	0x3ebeb71a	0.3724907
152	0xbd191f48	-0.037383348
153	0xbd5bfa40	-0.053705454
154	0x3db3b6d7	0.08775108
155	0xbe154c53	-0.14579897
156	0x3b1a4e55	0.0023545225
157	0x3e0a1a36	0.13486561
158	0xbdb5103e	-0.088409886
159	0x3cae4447	0.021272792
160	0x3d389c04	0.045070663
161	0xbd605151	-0.05476505
162	0xbd5fc96f	-0.05463546
163	0xbd09d5c7	-0.03365114
164	0xbe0b23d0	-0.1358788
165	0xbe869b19	-0.26290205
166	0xbe0f104f	-0.13971065
167	0xbed20581	-0.41019824
168	0x3dd96fdf	0.10617041
169	0x3d92b6b2	0.071637526
170	0x3e2c10c2	0.16803268
171	0xbc452dc3	-0.012034836
172	0x3e1b37a8	0.1515795
173	0xbca5e55d	-0.02025097
174	0xbe0ced41	-0.1376238
175	0xbd67a596	-0.0565544
176	0x3ecef4f6	0.40421265
177	0xbda609e7	-0.081073575
178	0x3d766591	0.060155455
179	0xbda2c118	-0.07946986
180	0xbd944fd9	-0.07241792
181	0xbcc04f18	-0.023475215
182	0x3ee7583a	0.451845
183	0x3c59dfe9	0.013298013
184	0x3e28af86	0.16473207
185	0xbd9c00cf	-0.07617342
186	0x3d183609	0.037160907
187	0x3e4595b8	0.19295394
188	0xb9cc045c	-0.0003891316
189	0xbf083d49	-0.53218514
190	0xbeae04fb	-0.33988175
191	0x3d68c18a	0.0568252
192	0xbec40a70	-0.38289213
193	0xbdc1575f	-0.09440493
194	0x3cd4eae1	0.025990905
195	0x3cd5adfa	0.026083935
196	0xbe167d36	-0.14696202
197	0x3e369287	0.17829333
198	0xbc407b25	-0.01174811
199	0xbda03cdc	-0.07824108
200	0x3e3f4e9e	0.18682334
201	0x3c803e5d	0.015654737
202	0xbd277991	-0.04088742
203	0x3d69c9f5	0.057077367
204	0xbdbaf4ca	-0.09128721
205	0xbd4499a1	-0.047998074
206	0x3e91f8c1	0.28510097
207	0xbdca06aa	-0.09864552
208	0xbec4c0b3	-0.38428268
209	0xbd05b03e	-0.03263878
210	0xbe05b87a	-0.13058653
211	0xbd43f4cd	-0.047840882
212	0xba62d403	-0.0008652808
213	0xbddb4d51	-0.10708106
214	0xbf092851	-0.5357714
215	0x3c54bf02	0.012984993
216	0xbbfe21d0	-0.0077554956
217	0xbbdd26d9	-0.0067490158
218	0xbbc6b7dd	-0.0060643987
219	0xba10c2a2	-0.00055221666
220	0x3dfbaee7	0.12289219
221	0xbe2095db	-0.15682165
222	0xbd1c909c	-0.038223848
223	0xbda9a6bb	-0.082837544
224	0x3e398103	0.1811562
225	0x3da88ef1	0.08230389
226	0xbe65c487	-0.2243825
227	0xbbd5340a	-0.0065064477
228	0x3ab847e9	0.0014059517
229	0x3e113e56	0.14183936
230	0xbe4920fa	-0.19641486
231	0x3e29446d	0.16530009
232	0xbbdf9466	-0.0068231104
233	0xbc17bc64	-0.009261224
234	0x3e15d893	0.14633398
235	0x3d447d88	0.04797128
236	0xbed277df	-0.4110708
237	0x3e977245	0.29579368
238	0x3c85da65	0.01633949
239	0x3cc617d9	0.024181293
240	0x3da46f10	0.08028996
241	0xbda781c1	-0.081790455
242	0x3d80bf34	0.06286469
243	0x3d875915	0.06608788
244	0xbe04c2ec	-0.12964982
245	0xbd62953d	-0.055318106
246	0x3edd9c4e	0.43283314
247	0x3bd31e54	0.0064428244
248	0x3be38d31	0.0069443216
249	0x3e91c82b	0.2847303
250	0xbdea8b22	-0.11452319
251	0xbf0de8e4	-0.5543349
252	0xbdb3db1c	-0.08782026
253	0x3e6bca60	0.23026419
254	0xbe5586dc	-0.20852226
255	0x3bd7495e	0.0065700253

head_advantages.bias f4 [4]
0	0x3d4fa1f4	0.05069156
1	0xbcf456a8	-0.029826477
2	0xbbc32aa4	-0.005956011
3	0xbcd88d66	-0.026434612
