models/untrained.pth (torch_old, 158001 bytes, 7 tensors)

fp1.weight f4 [128, 37]
-0.014992927 0.08418317 -0.14411968 -0.13418871 -0.09237885 0.022567209 -0.0014470576 0.117118336
-0.021895854 0.027612539 -0.07000228 -0.034800064 -0.16364779 -0.11395901 -0.06783323 -0.005450192
0.065208755 0.09685199 -0.15651692 -0.08075558 0.01702683 0.13468431 -0.046476338 0.12809712
-0.04291207 -0.016711159 0.14634109 -0.16260274 -0.07456078 -0.071848646 -0.08667406 0.13890682
-0.1237577 -0.0698958 -0.13854197 -0.14012016 -0.07664977 0.110061236 0.08451919 0.06547718
0.0055491338 -0.075908005 0.017779814 -0.16490433 -0.1196559 -0.09306171 0.08497016 0.070898764
-0.07217223 -0.0079469895 0.108689055 0.15049863 0.062659115 0.009011614 0.1075107 -0.107791156
0.02894633 -0.14616263 -0.11463449 -0.0957011 0.061320644 0.054421257 -0.11695538 0.036988433
0.08593145 -0.00847974 -0.0022704925 0.031863376 0.10649623 0.15070856 -0.17945805 -0.06872439
0.05404123 0.11200137 0.1254248 0.14351837 0.021041822 -0.15104479 0.011821564 -0.11052746
-0.16473317 0.13407868 0.122290276 -0.17382438 0.022924287 -0.05710802 -0.028231101 -0.043924905
0.051803198 -0.09496441 0.04494591 0.08916478 0.09152237 0.0494066 -0.15673622 -0.1295931
0.074069045 0.028798198 -0.13456963 -0.097328104 0.14361542 0.1034456 -0.078179374 -0.049268607
-0.15617763 -0.021896036 -0.12657674 -0.1460624 -0.010642168 0.019872937 -0.064981684 0.08979774
-0.10147746 0.1281868 0.124543436 -0.1637757 -0.019138256 0.011799651 0.031242037 0.019907182
0.07279041 0.025016084 -0.08113351 0.07128286 -0.18370014 -0.10388979 -0.043714866 -0.07997491
-0.06288911 -0.13332848 -0.041410428 0.019667361 -0.10486297 0.005904478 0.10891831 -0.01864944
0.0063361204 -0.012224547 0.013598177 0.12017696 0.16069178 0.12103599 0.16654631 -0.029713625
-0.13091959 -0.086526364 0.10606627 -0.015812032 -0.09002359 -0.12231362 -0.1481614 -0.15174805
-0.03800547 0.077843234 0.092275 -0.166836 0.10150521 -0.13410886 -0.0362852 -0.0782924
-0.046675652 -0.0038730158 -0.15835565 -0.1426872 -0.024966931 -0.017069733 -0.06879089 0.054463986
-0.14790846 -0.018068487 0.14033179 -0.06914054 0.14396095 0.056446567 -0.1453866 0.09233278
0.00011469504 -0.081474386 0.12711018 -0.13962762 0.015352144 -0.046155643 0.11731982 0.03862154
0.070746794 0.043432754 -0.04451333 -0.047538444 -0.15415668 0.09234288 0.13266021 0.10318851
-0.11877675 -0.025462663 -0.12524381 -0.10561238 -0.10334154 0.050495163 -0.14669687 -0.0165271
-0.0031009743 0.090156004 -0.12695487 -0.12428401 -0.09353299 0.11033829 -0.06540073 0.11679696
0.052123524 0.008683096 -0.00029096042 -0.057818156 0.008797984 -0.031131286 -0.019875199 0.029004661
-0.123532034 -0.120614566 0.11080525 -0.14174081 -0.008371133 0.1394837 0.049368612 -0.0062294244
-0.14234291 0.09236495 -0.1305304 -0.04901018 -0.04510849 -0.03029165 -0.008830206 0.123143926
0.0059800018 0.15379867 0.10213625 -0.108989276 0.07014306 -0.11475134 -0.072347 0.047776412
0.021502882 0.12411247 -0.068777315 0.018884836 0.075810984 -0.17560653 0.119307555 -0.1423448
-0.0034564824 -0.027576745 -0.09602728 0.01364764 0.12697738 -0.04869563 -0.10362959 -0.04972323
00000000: e5a4 75bc 3a68 ac3d 1c94 13be c468 09be
00000010: 1f31 bdbd dede b83c 32ab bdba bddb ef3d
00000020: ef5e b3bc b133 e23c 5b5d 8fbd 838a 0ebd
00000030: 4993 27be 5763 e9bd 26ec 8abd 8697 b2bb
00000040: 2b8c 853d 565a c63d f945 20be 2e63 a5bd
00000050: da7b 8b3c afea 093e f95d 3ebd e42b 033e
00000060: 91c4 2fbd d7e5 88bc 70da 153e 5581 26be
00000070: 52b3 98bd 6225 93bd 2b82 b1bd 973d 0e3e
00000080: ad74 fdbd 8725 8fbd f2dd 0dbe a97b 0fbe
00000090: 8efa 9cbd c967 e13d 6618 ad3d e618 863d
000000a0: 82d5 b53b a875 9bbd f9a6 913c aedc 28be
000000b0: 270e f5bd 2397 bebd d604 ae3d 5f33 913d
000000c0: 09cf 93bd 1734 02bc 5e98 de3d 501c 1a3e
000000d0: 6c53 803d 73a5 133c 922e dc3d 9cc1 dcbd
000000e0: db20 ed3c a8ab 15be 7dc5 eabd f0fe c3bd
000000f0: 5b2b 7b3d d3e8 5e3d 4d86 efbd 2f81 173d
00000100: d4fc af3d 9bee 0abc 8bcc 14bb 2c83 023d
00000110: b21a da3d 5853 1a3e dac3 37be 5fbf 8cbd
00000120: 565a 5d3d f960 e53d 5c6f 003e 7bf6 123e
00000130: e65f ac3c 7cab 1abe 3caf 413c 395c e2bd
00000140: d0af 28be ec4b 093e 5373 fa3d 05ff 31be
00000150: b7cb bb3c 19ea 69bd e944 e7bc 9aea 33bd
00000160: 972f 543d b37c c2bd 3419 383d 069c b63d
00000170: 1570 bb3d 935e 4a3d 767f 20be 0eb4 04be
00000180: 83b1 973d 33ea eb3c 9fcc 09be f553 c7bd
00000190: ec0f 133e 49db d33d 821c a0bd e1cd 49bd
000001a0: 07ed 1fbe 515f b3bc 559d 01be 6291 15be
000001b0: 7d5c 2ebc 92cc a23c 1e15 85bd e1e7 b73d
000001c0: 6ad3 cfbd 6743 033e a110 ff3d d1b4 27be
000001d0: d5c7 9cbc 5353 413c 4def ff3c 6314 a33c
000001e0: 2313 953d 88ee cc3c 5329 a6bd c0fc 913d
000001f0: e41b 3cbe 2cc4 d4bd 5c0e 33bd e3c9 a3bd
00000200: 01cc 80bd 4387 08be fb9d 29bd 721d a13c
00000210: 66c2 d6bd 5a7a c13b 9010 df3d b6c6 98bc
00000220: 3b9f cf3b 7749 48bc e3ca 5e3c 571f f63d
00000230: 638c 243e b8e1 f73d 1e8b 2a3e fd69 f3bc
00000240: c90f 06be bc34 b1bd 4639 d93d 3c88 81bc
00000250: 4a5e b8bd 907f fabd 9fb7 17be d763 1bbe
00000260: a0ab 1bbd 466c 9f3d adfa bc3d 0ed7 2abe
00000270: f7e1 cf3d d553 09be ca9f 14bd c457 a0bd
00000280: f82e 3fbd 6cd2 7dbb fc27 22be 981c 12be
00000290: 7387 ccbc d3d5 8bbc 3de2 8cbd a115 5f3d
000002a0: 5175 17be 5d04 94bc 23b3 0f3e 8e99 8dbd
000002b0: 806a 133e 8434 673d 3ae0 14be f818 bd3d
000002c0: 6e88 f038 0bdc a6bd 2c29 023e 8bfa 0ebe
000002d0: 8f87 7b3c b30d 3dbd 6045 f03d 9f31 1e3d
000002e0: b2e3 903d 8be6 313d 9c53 36bd acb7 42bd
000002f0: 40db 1dbe 441e bd3d 14d8 073e 7f54 d33d
00000300: 3a41 f3bd 1397 d0bc ea3f 00be 4e4b d8bd
00000310: bba4 d3bd 04d4 4e3d b437 16be d763 87bc
00000320: b739 4bbb b6a3 b83d 7500 02be 9d88 febd
00000330: 398e bfbd 0bf9 e13d d1f0 85bd 3f33 ef3d
00000340: 7a7f 553d 8b43 0e3c 0c8c 98b9 bbd2 6cbd
00000350: 6b25 103c 0a07 ffbc 50d1 a2bc 2f9b ed3c
00000360: 5dfe fcbd c504 f7bd dded e23d 8124 11be
00000370: 1427 09bc d1d4 0e3e be36 4a3d 3320 ccbb
00000380: 57c2 11be d629 bd3d c3a9 05be e6be 48bd
00000390: aec3 38bd 3226 f8bc 91ac 10bc e232 fc3d
000003a0: e4f3 c33b 667d 1d3e cf2c d13d c535 dfbd
000003b0: 2aa7 8f3d c002 ebbd aa2a 94bd 33b1 433d
000003c0: d026 b03c ae2e fe3d 1fdb 8cbd 5fb4 9a3c
000003d0: ca42 9b3d 33d2 33be 8557 f43d d6c2 11be
000003e0: 2786 62bb a0e8 e1bc f3a9 c4bd 5a9a 5f3c
000003f0: 5c06 023e 1275 47bd c03b d4bd 96aa 4bbd

fp1.bias f4 [128]
-0.020015314 0.041530803 -0.075535774 -0.05353681 -0.025076848 -0.103989445 0.09609104 0.10292434
-0.14832403 0.042570982 -0.076314196 -0.11023142 -0.032108057 -0.037137926 -0.084135376 0.012781292
0.082346335 -0.045194168 -0.014513359 0.010147138 -0.080865905 0.06650701 0.14753643 -0.01681994
-0.0014891934 0.12815173 0.11360036 -0.12619904 -0.09724943 -0.15883012 0.090444244 0.12536423
-0.065020666 0.042425092 0.032031827 -0.1533917 0.060641125 0.07289266 0.016692724 0.015448535
0.034979757 0.11212989 0.13704443 0.02030051 0.045363806 -0.05748001 0.07795133 -0.08033289
-0.14619757 0.072008744 0.052106664 0.02510495 0.062019188 0.028384378 0.046821743 0.048034914
-0.09310161 -0.030725555 0.011560442 -0.035872675 -0.14956911 0.010877703 0.08821329 -0.1002818
0.1530545 0.0318831 0.05933239 -0.06679035 -0.13783997 -0.07542112 -0.011021865 -0.07397093
0.14506662 -0.111658946 -0.11337379 -0.06858091 0.13979675 -0.09669435 0.14003332 0.06989331
-0.031562254 0.0682432 0.07131997 -0.105377994 -0.04156 0.15187924 0.08434476 -0.11297315
-0.05016593 0.07802878 0.088902265 0.006213616 -0.10736991 -0.12611015 -0.044220142 0.060650382
-0.037703324 -0.1488618 -0.049815673 0.16102372 -0.16081513 -0.12976743 0.10270453 0.15383522
-0.1776531 -0.15165442 -0.05788108 0.15704301 -0.09846766 0.025194738 0.12431838 -0.047763903
-0.057349104 -0.11987347 -0.00026173372 0.1458526 0.05155297 0.11467651 -0.023398224 -0.03984244
-0.03210376 0.08052427 -0.036531452 -0.15710229 -0.061764847 0.059801348 0.14172392 -0.03592647
00000000: 28f7 a3bc 341c 2a3d 80b2 9abd 6a49 5bbd
00000010: f66d cdbc 6bf8 d4bd 61cb c43d ffc9 d23d
00000020: 41e2 17be e95e 2e3d 9e4a 9cbd 03c1 e1bd
00000030: bd83 03bd f01d 18bd 2b4f acbd a068 513c
00000040: 32a5 a83d 851d 39bd 71c9 6dbc 2e40 263c
00000050: 069d a5bd d434 883d ca13 173e f9c9 89bc
00000060: 0a31 c3ba 353a 033e 4ea7 e83d 523a 01be
00000070: b62a c7bd 5da4 22be d53a b93d 7b5f 003e
00000080: 8e29 85bd efc5 2d3d ce33 033d b712 1dbe
00000090: d462 783d bf48 953d 2ebf 883c da1b 7d3c
000000a0: ef46 0f3d 5ba4 e53d 6055 0c3e 414d a63c
000000b0: 66cf 393d 2970 6bbd f2a4 9f3d 9285 a4bd
000000c0: d1b4 15be 5279 933d cc6d 553d e5a8 cd3c
000000d0: d507 7e3d 5b86 e83c 28c8 3f3d 42c0 443d
000000e0: 0fac bebd 29b4 fbbc 0268 3d3c 3aef 12bd
000000f0: a528 19be 6538 323c 2ba9 b43d 8b60 cdbd
00000100: 52ba 1c3e da97 023d 8506 733d 61c9 88bd
00000110: ec25 0dbe 6376 9abd 0d95 34bc 127e 97bd
00000120: 588c 143e 72ad e4bd 8530 e8bd 2674 8cbd
00000130: e126 0f3e b007 c6bd e564 0f3e 3924 8f3d
00000140: 6c47 01bd 17c3 8b3d 3410 923d 6bd0 d7bd
00000150: d23a 2abd 3b86 1b3e f2bc ac3d 785e e7bd
00000160: ca7a 4dbd 8ecd 9f3d 6412 b63d 979b cb3b
00000170: c1e4 dbbd 0523 01be 2e20 35bd 896c 783d
00000180: cd6e 1abd 3a6f 18be 850b 4cbd 67e3 243e
00000190: b9ac 24be c1e1 04be c156 d23d fb86 1d3e
000001a0: b2ea 35be 4c4b 1bbe b614 6dbd e2cf 203e
000001b0: 6aa9 c9bd 3265 ce3c a39a fe3d 15a4 43bd
000001c0: e5e6 6abd 3980 f5bd 4e39 89b9 625a 153e
000001d0: 3529 533d 85db ea3d a2ad bfbc d431 23bd
000001e0: 3b7f 03bd e9e9 a43d 01a2 15bd 6cdf 20be
000001f0: 23fd 7cbd 42f2 743d 1320 113e a227 13bd

fp2.weight f4 [256, 128]
-0.0986566 -0.06974088 -0.0693635 0.038873654 0.06237466 0.047481034 0.029887378 0.05888683
0.075791255 0.039170105 0.045061916 0.028650552 0.050566502 -0.072140485 -0.06652787 0.022585545
0.010309303 -0.05454543 -0.06206167 -0.060022835 0.0732765 0.066583715 -0.05045682 0.020989608
-0.030810028 0.10077986 -0.093363345 -0.06891582 -0.064653486 0.050162382 -0.012025533 0.055211768
0.06079658 -0.04466475 -0.021833178 -0.030805606 0.03777808 -0.048515588 0.03544236 0.006925565
-0.0904558 -0.05704442 -0.06985785 0.030472556 0.018449215 -0.0035455856 -0.059953228 -0.050270148
-0.015276094 -0.0710388 -0.10103606 -0.08363282 -0.044978987 -0.088572495 0.027365247 0.019131567
0.050529767 -0.09339055 0.043512482 0.02163079 0.06514698 -0.02181451 0.048349764 -0.11308757
0.041187532 0.035854887 0.04337631 -0.075342365 -0.0214682 -0.017512795 0.05952371 -0.054069206
-0.008046263 -0.028323306 -0.012765809 -0.010308786 -0.056130815 -0.06675973 0.06349117 0.076892555
-0.008265661 0.07760187 0.061783135 -0.05116247 -0.04193437 -0.066293456 0.0500486 -0.018721608
-0.030912668 0.05747027 -0.04019506 -0.048242155 -0.08705283 -0.0419531 0.0798151 -0.045616515
-0.041447114 0.0481765 -0.07021846 -0.05496853 0.052044306 -0.042957213 -0.043760993 0.004115379
-0.006394883 0.0021604404 0.02841122 -0.089526534 0.075378135 -0.07881742 0.017055728 -0.03615402
-0.031183416 0.08202355 -0.08576044 0.0055659167 0.06183447 0.082687356 -0.038260713 0.004911481
0.07278414 -0.08985859 0.018429972 -0.053330537 0.009382927 -0.07587244 0.04788208 -0.03812165
0.06686572 -0.0017726796 -0.03140201 -0.04315811 -0.08407886 -0.034922272 0.004936421 -0.10494821
0.07690504 -0.0593214 -0.030704184 -0.015146253 -0.13285416 -0.010776476 -0.05218125 -0.090551905
0.012757343 0.07834492 0.0040105665 0.024243275 -0.002679997 -0.06106306 0.07510666 -0.054287303
-0.08430113 0.0033853818 0.03822886 -0.07979229 0.032421865 -0.035825394 0.0005801485 -0.04258135
-0.008905492 -0.11063658 0.0245448 -0.028035345 0.08092268 0.0047203535 -0.08435949 -0.078065366
-0.056994963 0.035292547 -0.05749389 -0.038750272 -0.008004563 -0.08592531 -0.04025327 0.07956363
-0.052729025 -0.057694994 0.065069795 0.015184897 0.0674637 -0.14017653 0.048342902 -0.012277485
-0.05981658 -0.04153449 -0.086918525 0.055778965 -0.019611644 -0.07635268 0.0743359 0.056127917
-0.013912117 0.08083693 0.07681504 0.06723294 0.07215206 0.06882446 0.026137942 -0.038081907
0.0037404366 -0.05156288 0.042773016 0.000913656 0.01944334 -0.0558276 -0.030858975 0.054715965
0.011136245 0.026214669 -0.07784003 -0.037986193 0.003129621 -0.008906648 0.05383469 -0.034617104
0.06296331 -0.014933426 0.035861384 -0.09737771 0.010731357 -0.09113349 -0.122115314 -0.056179
0.027389811 0.009588498 -0.0025623362 -0.04543912 0.06106427 0.102092065 0.02684676 0.07245959
-0.014358052 -0.09981067 -0.0015083004 0.051169246 -0.004505129 -0.05612527 0.033477325 -0.07260151
-0.090914205 0.048084944 -0.011639561 -0.06859274 -0.050297022 0.06772394 0.056976076 -0.06611038
0.0059542153 0.0024824773 0.0370874 -0.07289265 -0.0037311136 0.026509997 0.03077815 0.007435656
00000000: 790c cabd 4ed4 8ebd 730e 8ebd fb39 1f3d
00000010: 927c 7f3d 797b 423d 60d6 f43c 5133 713d
00000020: 7238 9b3d d570 203d d892 383d 90b4 ea3c
00000030: d21e 4f3d 64be 93bd c43f 88bd 5205 b93c
00000040: 5ae8 283c 076b 5fbd 6134 7ebd 81da 75bd
00000050: fd11 963d 0b5d 883d cfab 4ebd 66f2 ab3c
00000060: 5065 fcbc ac65 ce3d 4835 bfbd bd23 8dbd
00000070: 0c69 84bd 1277 4d3d be06 45bc bc25 623d
00000080: d605 793d 63f2 36bd 7edb b2bc 0a5c fcbc
00000090: 30bd 1a3d 48b8 46bd 022c 113d daef e23b
000000a0: e440 b9bd 69a7 69bd a211 8fbd 95a1 f93c
000000b0: cf22 973c 0e5d 68bb 8491 75bd 12e8 4dbd
000000c0: 9548 7abc ca7c 91bd feeb cebd af47 abbd
000000d0: e33b 38bd 7f65 b5bd 152d e03c ceb9 9c3c
000000e0: 4df8 4e3d 8b43 bfbd 253a 323d 0e33 b13c
000000f0: c86b 853d 58b4 b2bc 670a 463d 759a e7bd
00000100: 42b4 283d 93dc 123d 5cab 313d 194d 9abd
00000110: 14de afbc fe76 8fbc 22cf 733d ac77 5dbd
00000120: 79d4 03bc 4706 e8bc af27 51bc 2fe6 28bc
00000130: 6de9 65bd 53b9 88bd a907 823d d879 9d3d
00000140: b26c 07bc bbed 9e3d 5010 7d3d bd8f 51bd
00000150: 60c3 2bbd ddc4 87bd c3ff 4c3d 0f5e 99bc
00000160: 903c fdbc f265 6b3d 93a3 24bd 9199 45bd
00000170: c148 b2bd 04d7 2bbd 1976 a33d 62d8 3abd
00000180: 73c4 29bd b954 453d b2ce 8fbd ae26 61bd
00000190: 692c 553d e7f3 2fbd ba3e 33bd 4dda 863b
000001a0: 2b8c d1bb 2d96 0d3b a6be e83c b059 b7bd
000001b0: da5f 9a3d 076b a1bd 74b8 8b3c 3d16 14bd
000001c0: 5d74 ffbc f7fb a73d 2ba3 afbd 4b62 b63b
000001d0: 2446 7d3d fd57 a93d 44b7 1cbd 7df0 a03b
000001e0: da0f 953d c807 b8bd 74fa 963c 1f71 5abd
000001f0: d9ba 193c 0363 9bbd 0020 443d 7325 1cbd
00000200: e5f0 883d 4259 e8ba 659f 00bd 8fc6 30bd
00000210: 8a31 acbd a80a 0fbd b3c1 a13b 16ef d6bd
00000220: 6480 9d3d fffa 72bd 5787 fbbc fd27 78bc
00000230: ec0a 08be d18f 30bc 02bc 55bd 4773 b9bd
00000240: 2d04 513c 4d73 a03d 126b 833b d599 c63c
00000250: e3a2 2fbb 421d 7abd 85d1 993d 5d5c 5ebd
00000260: 12a6 acbd 48dd 5d3b dd95 1c3d 246a a3bd
00000270: cacc 043d a6bd 12bd 1b15 183a c869 2ebd
00000280: 57e8 11bc 6e95 e2bd 2d12 c93c 61aa e5bc
00000290: caba a53d 32ad 9a3b abc4 acbd bce0 9fbd
000002a0: 8d73 69bd eb8e 103d b77e 6bbd 9bb8 1ebd
000002b0: 9225 03bc 9cf9 afbd 9de0 24bd 42f2 a23d
000002c0: 64fa 57bd 9651 6cbd 5043 853d 13ca 783c
000002d0: 692a 8a3d 708a 0fbe 3503 463d 8127 49bc
000002e0: 3b02 75bd 1220 2abd 5702 b2bd 7c78 643d
000002f0: 99a8 a0bc cb5e 9cbd 6c3d 983d 63e6 653d
00000300: a6ef 63bc d58d a53d 3451 9d3d 6cb1 893d
00000310: 76c4 933d d7f3 8c3d 3d1f d63c c6fb 1bbd
00000320: 1d22 753b 9933 53bd c232 2f3d 6b82 6f3a
00000330: a447 9f3c 7bab 64bd f6cb fcbc d91d 603d
00000340: cc74 363c 25c0 d63c 986a 9fbd 6997 1bbd
00000350: 541a 4d3b 30ed 11bc c481 5c3d aaca 0dbd
00000360: e8f2 803d 54ab 74bc 63e3 123d f76d c7bd
00000370: 93d2 2f3c 32a4 babd 9817 fabd f31b 66bd
00000380: 9960 e03c 1319 1d3c deec 27bb 5f1e 3abd
00000390: 871e 7a3d a515 d13d bded db3c b265 943d
000003a0: 093e 6bbc 8969 ccbd 2ab2 c5ba d896 513d
000003b0: c39f 93bb 9ce3 65bd 851f 093d 1ab0 94bd
000003c0: 3a31 babd b8f4 443d dbb3 3ebc 5a7a 8cbd
000003d0: 4004 4ebd d9b2 8a3d bf5f 693d e164 87bd
000003e0: 941b c33b 0fb1 223b f5e8 173d be48 95bd
000003f0: b385 74bb 7e2b d93c 7522 fc3c cea6 f33b

fp2.bias f4 [256]
0.001654915 0.004625374 0.06297111 -0.034497526 0.04666567 0.046176456 -0.07257864 0.076575294
-0.007860854 0.012078363 0.0026478984 0.056445263 -0.012147075 -0.047824744 -0.010962463 0.033914115
-0.016205199 -0.02850152 0.058078866 0.0431627 -0.07526895 0.0331133 0.03134275 -0.010260445
0.06501338 0.037611816 0.07670675 -0.018692065 -0.019471653 -0.030382324 0.022389695 0.016656712
-0.013167443 0.035208024 0.07139806 0.023206552 -0.0074196765 -0.088735975 -0.07587464 -0.06776105
-0.034881994 -0.028234512 0.044902667 0.051827054 0.06694457 -0.01727235 -0.049403857 -0.046353426
-0.055610903 0.01868709 0.023640834 0.036575492 0.00042469084 -0.0017992876 0.06507001 0.021231685
0.01188368 -0.08356252 -0.04860586 0.037492532 -0.0012879047 0.04045697 -0.0058577997 0.013546542
0.06470768 -0.06374242 0.03638693 0.022003721 -0.05969155 0.06345136 -0.0045649153 -0.0866557
0.035755433 -0.036604002 -0.015787758 0.08999449 0.0494899 -0.06348948 0.046327986 0.0012420508
-0.04276074 -0.034067098 -0.022818407 0.06325569 0.032194786 0.05686759 -0.07073657 0.06878627
0.08813232 0.068625204 0.038131163 0.034470096 0.05051917 0.04705297 0.044867557 -0.00856793
-0.018678626 0.007425543 0.04136294 -0.026558414 -0.08702801 0.041090768 0.076127715 0.07648646
0.019016724 -0.06607624 0.05567516 0.02728193 -0.06387195 0.069363095 -0.052247837 -0.02963365
0.020016916 -0.036995996 0.029494775 -0.068602115 0.07224865 0.08874532 -0.03588304 0.065660864
-0.032408655 0.06252011 -0.07916089 0.07928843 -0.02258515 -0.07215983 0.07160193 0.023268726
0.047042985 -0.0461506 -0.051023714 -0.03617274 -0.018316125 0.015065121 0.052347377 0.035868023
-0.085187346 -0.042307425 0.028549744 0.063822426 0.041721616 0.024024805 0.009405469 -0.0831888
-0.033509444 0.06444785 0.0087463055 0.0036613306 -0.059078738 0.0023989645 -0.021360291 0.020225111
0.01963493 -0.05773314 -0.04048133 0.071154386 0.0422776 -0.04254726 0.032038495 -0.025750617
-0.023140606 -0.06754107 -0.009028362 -0.026672855 0.045568753 -0.00821237 -0.08605986 0.013134039
0.03792252 -0.045769103 -0.032339875 -0.06705609 -0.06568991 -0.07025765 0.0667358 0.014418169
-0.015118925 0.0508708 0.0031743846 0.022067012 -0.07672187 0.051567037 -0.08770533 0.07193301
-0.031927146 0.041259155 0.017245892 0.014977873 -0.024373164 -0.019798826 0.06657972 -0.08043148
-0.01870655 0.014025932 -0.05401465 0.04448131 -0.0119879525 -0.016149873 0.056445744 0.061163437
0.06700706 -0.017835833 0.012539381 -0.0667158 -0.08181895 -0.071261175 -0.09196009 0.031426366
-0.022997048 -0.08559969 0.008536604 -0.083499126 0.0046512494 0.0052835657 0.023315134 0.01116692
-0.05233147 -0.038245637 -0.0913866 -0.0041470276 -0.010790718 -0.08582225 0.030451097 0.066487424
0.08785789 0.079189725 -0.006978788 -0.06582258 -0.06721292 0.011948135 -0.037674688 0.010199061
-0.08355563 0.01919481 -0.0066891965 -0.06551327 -0.0151689695 -0.031763006 -0.0024095525 -0.09089321
-0.004384165 0.0667633 -0.041724354 -0.037239842 -0.01659457 -0.0065557067 -0.07425756 -0.07774291
0.06797169 -0.090854235 -0.033961028 -0.030313607 0.013857832 0.052973907 -0.05359091 0.0069241193
00000000: bce9 d83a 7390 973b fff6 803d 474d 0dbd
00000010: 8024 3f3d 8623 3d3d 1ca4 94bd 82d3 9c3d
00000020: d0ca 00bc 54e4 453c 5d88 2d3b 2633 673d
00000030: 8604 47bc e1e3 43bd e79b 33bc 87e9 0a3d
00000040: c4c0 84bc 057c e9bc 1be4 6d3d 5fcb 303d
00000050: 9b26 9abd d0a1 073d 4161 003d 6d1b 28bc
00000060: bc25 853d d90e 1a3d 6e18 9d3d 1a20 99bc
00000070: 0483 9fbc 5ae4 f8bc 986a b73c a873 883c
00000080: 42bc 57bc 4a36 103d 2539 923d ab1b be3c
00000090: c220 f3bb 35bb b5bd 2a64 9bbd 4ec6 8abd
000000a0: 6ce0 0ebd 104c e7bc dceb 373d 9b48 543d
000000b0: 3c1a 893d be7e 8dbc b35b 4abd 17dd 3dbd
000000c0: 42c8 63bd ab15 993c 6caa c13c 2fd0 153d
000000d0: 0aa9 de39 13d6 ebba 6d43 853d 12ee ad3c
000000e0: c4b3 423c d422 abbd f016 47bd c591 193d
000000f0: e9ce a8ba 35b6 253d c9f2 bfbb 51f2 5d3c
00000100: 7685 843d 638b 82bd 760a 153d 2641 b43c
00000110: 207f 74bd c9f2 813d 4995 95bb 8b78 b1bd
00000120: 4a74 123d 14ee 15bd 5455 81bc 084f b83d
00000130: ecb5 4a3d c606 82bd 6ac2 3d3d 4fcc a23a
00000140: e325 2fbd f189 0bbd abed babc 338c 813d
00000150: aede 033d fded 683d 56de 90bd d1df 8c3d
00000160: b87e b43d 5f8b 8c3d 6c2f 1c3d 8430 0d3d
00000170: 30ed 4e3d 9dba 403d 0bc7 373d 8160 0cbc
00000180: eb03 99bc f851 f33b 306c 293d 0891 d9bc
00000190: be3b b2bd cb4e 283d d9e8 9b3d efa4 9c3d
000001a0: f6c8 9b3c fb52 87bd a30b 643d 5b7e df3c
000001b0: 4ccf 82bd 3d0e 8e3d d401 56bd 45c2 f2bc
000001c0: 84fa a33c 1d89 17bd 079f f13c 447f 8cbd
000001d0: 1af7 933d 1bc0 b53d 18fa 12bd 3479 863d
000001e0: f0be 04bd 8b0a 803d 1b1f a2bd f961 a23d
000001f0: 7e04 b9bc 88c8 93bd 08a4 923d 0e9e be3c
00000200: 25b0 403d 6908 3dbd 3efe 50bd de29 14bd
00000210: b30b 96bc b3d3 763c 346a 563d 59ea 123d
00000220: b476 aebd 8d4a 2dbd 27e1 e93c 55b5 823d
00000230: 49e4 2a3d abcf c43c 6519 1a3c e45e aabd
00000240: 3341 09bd 3cfd 833d aa4c 0f3c eff2 6f3b
00000250: 8cfc 71bd f237 1d3b c7fb aebc 22af a53c
00000260: 6fd9 a03c 9679 6cbd c0cf 25bd 64b9 913d
00000270: 472b 2d3d 0946 2ebd cc3a 033d f5f2 d2bc
00000280: 5e91 bdbc f952 8abd b2eb 13bc 0881 dabc
00000290: 4da6 3a3d 2d8d 06bc 2740 b0bd 2730 573c
000002a0: a554 1b3d 6278 3bbd d176 04bd b454 89bd
000002b0: 6e88 86bd 3ee3 8fbd c7ac 883d 2f3a 6c3c
000002c0: 5eb5 77bc e65d 503d 5609 503b e1c5 b43c
000002d0: 5b20 9dbd f537 533d da9e b3bd 9d51 933d
000002e0: 0ac6 02bd 5cff 283d 4247 8d3c c165 753c
000002f0: 3baa c7bc 2631 a2bc f35a 883d 43b9 a4bd
00000300: 7b3e 99bc 06cd 653c 773e 5dbd 0932 363d
00000310: 1e69 44bc bd4c 84bc a733 673d 8386 7a3d
00000320: ff3a 893d 741c 92bc fa71 4d3c 4ba2 88bd
00000330: b290 a7bd 61f1 91bd 9255 bcbd efb8 003d
00000340: 4e64 bcbc e44e afbd 1ddd 0b3c 9701 abbd
00000350: 8269 983b c321 ad3b 61ff be3c 75f5 363c
00000360: 8659 56bd 75a7 1cbd e628 bbbd cae3 87bb
00000370: 8dcb 30bc 93c3 afbd 9474 f93c 8f2a 883d
00000380: d6ee b33d 392e a23d 51ae e4bb fdcd 86bd
00000390: eda6 89bd 1cc2 433c c650 1abd f619 273c
000003a0: 371f abbd 6f3e 9d3c 0c31 dbbb d22b 86bd
000003b0: 4587 78bc ed19 02bd 95e9 1dbb 3826 babd
000003c0: 0ba9 8fbb 32bb 883d 28e7 2abd ce88 18bd
000003d0: 56f1 87bc 41d1 d6bb 5914 98bd ad37 9fbd
000003e0: be34 8b3d c911 babd b81a 0bbd 3e54 f8bc
000003f0: f60b 633c 2bfb 583d 2482 5bbd b9e3 e23b

head_values.weight f4 [1, 256]
-0.042614676 -0.030774442 -0.014490488 -0.026391065 0.021686478 0.028770313 -0.017529458 0.040005147
-0.018894149 0.0425781 0.055721123 0.034015104 -0.05215942 0.048369322 -0.0055667195 -0.033427577
0.03665927 -0.05277982 0.0060637943 -0.002537483 0.014886703 0.046777517 -0.028986089 -0.028831072
0.007951209 0.023989383 -0.044830646 0.028429953 -0.014289685 -0.040001288 -0.0063118413 -0.04557501
0.025262587 -0.048367437 0.024228334 -0.024729496 0.024171237 0.03825689 -0.0057942653 0.022831123
0.046710685 0.054389395 0.0487123 -0.008138726 -0.053230386 0.026168603 -0.012907828 -0.007714835
0.020049496 0.03704552 -0.048922244 -0.00977119 -0.036839254 0.050532565 -0.057795834 0.0078418655
0.02960095 -0.048908282 0.016407277 0.020999748 0.0070817713 0.0055211545 -0.05270572 0.036466483
0.0472848 0.019418173 -0.01890553 0.0049016722 -0.0208797 -0.05363275 0.0018400305 0.05380548
-0.028783834 -0.026822165 -0.035843574 -0.012940708 0.057214435 0.022750407 0.028547341 0.05589253
0.023246031 -0.0012738318 -0.0467204 0.047612358 -0.020772574 0.05172345 0.011718216 -0.022959996
0.057725485 0.018202782 0.033086326 -0.04964691 -0.021621421 0.032876574 0.01079445 0.0548408
0.024011154 0.014268959 0.043647155 0.026672853 0.024773916 0.05499363 0.012448918 0.04261724
-0.041472536 0.010697213 0.0055676564 0.004065769 -0.048530266 -0.032417048 0.028768867 0.033938233
-0.013435584 0.04375225 0.025958942 0.046689 -0.05893817 -0.025761573 0.0070919166 0.041658726
0.04012201 -0.04176816 -0.04072093 -0.025887417 -0.019556748 0.007054852 -0.037512153 0.03559427
0.045752518 0.020648077 -0.024797076 0.0059846034 0.017492957 9.52655e-05 -5.6411878e-05 -0.037070733
0.0010098219 -0.055857364 -0.025772639 -0.032540776 0.022983234 -0.056069467 0.011592152 0.05744633
-0.026915928 0.0054703457 -0.0284324 0.004352673 0.017577268 0.021202642 -0.031521913 0.008666241
-0.02422764 0.039806083 -0.0063088005 -0.005011504 -0.01071956 0.032170568 -0.021979094 -0.009129002
0.002992187 -0.033401433 0.050305896 -0.050840285 0.031628337 -0.041195337 -0.0045543276 -0.0016831987
0.005588088 -0.030992003 -0.04605667 -0.014922774 0.041442987 -0.016524047 -0.029626574 0.047330033
0.038562436 0.05449073 -0.0066146576 -0.034014884 0.03764701 -0.009823443 0.044522297 0.048196487
-0.012252896 -0.02986252 0.0041180872 0.01563435 -0.057890214 0.019171502 -0.0266985 -0.040685337
0.04447831 -0.018094849 0.00840182 -0.0048480458 0.0057105417 0.021524634 0.047298383 0.016721316
-0.054801207 -0.03050632 0.028313031 0.0013334445 -0.008469793 0.03486314 -0.013727068 -0.043368243
-0.013234979 -0.04956711 -0.0064138044 -0.019759912 0.02601501 -0.015899852 0.019399421 0.035515632
0.043572426 0.03728881 0.029609907 0.015505396 -0.015038836 -0.035488583 -0.05238636 -0.016611163
0.051562764 0.05333988 -0.04864864 0.048417673 -0.0013134339 -0.010441602 -0.012163793 0.06180961
0.010345373 0.028455248 0.017009577 0.010029767 -0.038557537 -0.02547184 0.028816598 0.042556684
0.04457487 -0.036054507 -0.006026239 0.010715593 -0.05760979 0.019727223 0.0023252398 0.0037611795
-0.031150872 -0.02343019 -0.0042720498 -0.03253812 0.008917145 0.03859156 0.039406434 -0.02503894
00000000: ba8c 2ebd af1a fcbc 8369 6dbc 1332 d8bc
00000010: d7a7 b13c b8af eb3c f099 8fbc 70dc 233d
00000020: e7c7 9abc 6066 2e3d d53b 643d 6c53 0b3d
00000030: 1ea5 55bd e91e 463d 0769 b6bb 5beb 08bd
00000040: 0828 163d a72f 58bd cbb2 c63b e64b 26bb
00000050: 5ce7 733c c899 3f3d 3c74 edbc 242f ecbc
00000060: ca45 023c 6285 c43c 57a0 37bd efe5 e83c
00000070: 481f 6abc 64d8 23bd 90d3 cebb ddac 3abd
00000080: 7cf3 ce3c ef1c 46bd 807a c63c 8395 cabc
00000090: c202 c63c 42b3 1c3d d2dd bdbb 5608 bb3c
000000a0: b453 3f3d 6ac7 5e3d 8c86 473d 4b58 05bc
000000b0: 1b08 5abd 8a5f d63c 5b7b 53bc bacc fcbb
000000c0: d73e a43c 0bbd 173d b162 48bd 5717 20bc
000000d0: c2e4 16bd 3cfb 4e3d 53bb 6cbd 2b7b 003c
000000e0: b17d f23c 0d54 48bd 8e68 863c aa07 ac3c
000000f0: 340e e83b cdea b43b f4e1 57bd e15d 153d
00000100: b5ad 413d dc12 9f3c c5df 9abc 359e a03b
00000110: e80b abbc 04ae 5bbd 2e2d f13a 2363 5c3d
00000120: 13cc ebbc 28ba dbbc b6d0 12bd 4305 54bc
00000130: af59 6a3d 105f ba3c 1ddc e93c 91ef 643d
00000140: 766e be3c b4f6 a6ba e45d 3fbd 2d05 433d
00000150: 3f2b aabc f8db 533d c3fd 3f3c 9a16 bcbc
00000160: 8f71 6c3d 001e 953c 8785 073d 8f5a 4bbd
00000170: 681f b1bc 96a9 063d 34db 303c bfa0 603d
00000180: 0ab3 c43c 5ac8 693c 5cc7 323d 0781 da3c
00000190: abf2 ca3c 0041 613d 8cf6 4b3c 6a8f 2e3d
000001a0: 1bdf 29bd 5d43 2f3c e370 b63b 243a 853b
000001b0: acc7 46bd bdc7 04bd b0ac eb3c d102 0b3d
000001c0: ec20 5cbc 8f35 333d d9a7 d43c f73c 3f3d
000001d0: 2769 71bd ef09 d3bc 4f63 e83b 57a2 2a3d
000001e0: fa56 243d 1715 2bbd fdca 26bd d911 d4bc
000001f0: 7935 a0bc 632c e73b 58a6 19bd 4ccb 113d
00000200: fe66 3b3d 2826 a93c 3d23 cbbc 7e1a c43b
00000210: 644d 8f3c 47c9 c738 cb9b 6cb8 7bd7 17bd
00000220: 005c 843a b1ca 64bd 2421 d3bc 7a49 05bd
00000230: 5647 bc3c 19a9 65bd 02ed 3d3c d84c 6b3d
00000240: cb7e dcbc 9640 b33b 11eb e8bc dea0 8e3b
00000250: 34fe 8f3c 2ab1 ad3c 1f1d 01bd d9fc 0d3c
00000260: 0b79 c6bc b40b 233d 0eba cebb 8b37 a4bb
00000270: 18a1 2fbc 49c5 033d 800d b4bc cf91 15bc
00000280: 9118 443b f1cf 08bd 8e0d 4e3d e73d 50bd
00000290: b78c 013d 71bc 28bd 783c 95bb c79e dcba
000002a0: 481c b73b f1e2 fdbc eba5 3cbd a77e 74bc
000002b0: 1fc0 293d 705d 87bc 6eb3 f2bc 23dd 413d
000002c0: a5f3 1d3d ac31 5f3d c5bf d8bb 3153 0bbd
000002d0: c033 1a3d 82f2 20bc 035d 363d ae69 453d
000002e0: 5fc0 48bc 3ea2 f4bc 05f1 863b 9c13 803c
000002f0: 4a1e 6dbd 8e0d 9d3c d0b6 dabc aba5 26bd
00000300: e32e 363d a63b 94bc caa7 093c 5bdc 9ebb
00000310: 7f1f bb3b 6e54 b03c f3bb 413d 24fb 883c
00000320: 3b77 60bd 64e8 f9bc bbf0 e73c f9c6 ae3a
00000330: e3c4 0abc a7cc 0e3d 7fe7 60bc e6a2 31bd
00000340: 86d7 58bc e206 4bbd e42a d2bb 8adf a1bc
00000350: 6e1d d53c 6840 82bc 89eb 9e3c d778 113d
00000360: 0079 323d 27bc 183d 7a90 f23c 580a 7e3c
00000370: 7365 76bc 7a5c 11bd 1493 56bd 2214 88bc
00000380: 7a33 533d eb7a 5a3d cc43 47bd 9c51 463d
00000390: 8727 acba 4113 2bbc a54a 47bc 132c 7d3d
000003a0: a47f 293c fb1a e93c ab57 8b3c e453 243c
000003b0: 82ee 1dbd 52aa d0bc c910 ec3c eb4f 2e3d
000003c0: 2494 363d e4ad 13bd c277 c5bb 7490 2f3c
000003d0: 3ef8 6bbd fc9a a13c 0d63 183b 1f7e 763b
000003e0: 1d30 ffbc abf0 bfbc 8dfc 8bbb b146 05bd
000003f0: 3819 123c 2f12 1e3d a468 213d 771e cdbc

head_advantages.weight f4 [4, 256]
0.004709871 0.016273128 -0.048547424 -0.028543543 -0.03820447 0.008725267 0.002997814 -0.054643147
0.0022658822 -0.056365475 0.035730142 -0.0050872327 -0.0028664852 -0.01429007 0.01668553 -0.048904624
-0.02358228 0.010252701 0.02321731 -0.00201867 -0.030250335 0.00039958925 -0.016706303 -0.0031885451
-0.021412492 -0.03203809 0.004761355 0.020776559 0.031245997 -0.053726763 -0.017757714 -0.050164405
0.036332235 0.037330274 -0.04844296 -0.04643995 -0.0053981557 0.03375336 0.0035452128 -0.020822046
-0.047107514 0.018048842 -0.044618666 -0.049929645 0.029868133 -0.022035722 0.02958775 -0.05291338
0.032328323 0.032038365 0.036669955 -0.004212015 -0.04158467 -0.0017501633 -0.012376588 -0.008315084
-0.023200372 -0.014278014 -0.02284823 0.058480468 0.10549494 0.0065863407 -0.050397452 -0.011020799
0.009486696 0.008187507 0.0036881398 0.057097692 0.032740306 0.027664093 0.034520645 -0.044410374
-0.02513637 -0.034514584 -0.02996949 0.026972085 -0.023995845 -0.023867302 -0.03548215 -0.051593933
0.035757486 -0.04657401 -0.034875892 -0.06091892 0.032621197 0.0078971395 -0.06492129 0.029279359
0.023668155 0.048315052 0.0019142517 0.014640302 0.0032030088 0.04149038 -0.03519449 -0.054252774
-0.05455992 -0.037131898 -0.021448193 0.021515952 -0.043987967 -0.019572195 -0.04242746 0.0004127386
-0.028985467 0.051315498 -0.03101674 0.002395818 -0.025268381 -0.045884497 0.014877245 0.016331589
-0.034359585 -0.032833416 -0.025039965 -0.03712504 0.0051402966 0.011018897 0.020549508 0.03265768
-0.037564203 0.010819407 0.03719765 0.036493514 0.033431344 -0.04334645 0.04713699 0.025342245
-0.017970333 -0.030486502 0.008268484 -0.017376928 -0.025863953 -0.00039310686 0.03866264 0.06259539
0.008966204 0.048280958 -0.038854744 0.048428472 0.024086796 0.057681315 0.006955571 0.014419106
0.00024727196 0.05177597 0.052873667 0.035705183 -0.013903714 -0.0426445 0.013097816 -0.010401147
0.005097646 -0.03423365 0.009741751 -0.04879157 -0.013949063 0.028605929 0.019074364 0.024248812
0.03427525 -0.04516037 -0.018076029 -0.01868517 -0.050930064 0.0020451797 -0.04301195 -0.042093765
0.011703748 0.04874105 -0.04277917 -0.015662491 -0.029261317 0.012704946 -0.050258085 0.044843644
-0.03930139 -0.009812537 0.039465595 -0.0013475653 0.0469738 -0.024699662 0.049734242 0.023810225
0.044582985 -0.020860976 -0.0024217896 0.025554417 0.014604139 -0.049915157 -0.02861775 0.041074976
-0.06481782 -0.010899199 0.010119048 0.043871276 0.06637217 0.051570453 0.0057034055 -0.05227185
0.060137026 0.051571783 -0.02846261 -0.0033777906 -0.0023890533 -0.030247277 0.02017881 -0.0034056746
-0.019439798 -0.031177612 -0.0055361455 -0.047363203 -0.0006951255 -0.04354087 -0.028230034 -0.0020408109
0.037474617 0.0230375 -0.042067837 -0.009734552 0.032834057 -0.050873622 0.049762253 -0.045450985
0.064999886 -0.00581371 0.058751915 0.022859855 0.012889309 0.004737744 -0.045329858 0.058168653
0.004538585 -0.061267786 0.0033157398 0.027053453 -0.0052779815 0.05150357 -0.039217964 0.029515889
-0.02025432 -0.050993886 0.009446093 -0.01737309 -0.012933335 -0.00484279 -0.016630838 -0.00393599
-0.03726037 0.010405839 0.0005910474 -0.051347382 -0.049414404 -0.045601863 -0.017543007 0.051498737
00000000: 4355 9a3b 394f 853c aad9 46bd 26d4 e9bc
00000010: 4a7c 1cbd 6cf4 0e3c f976 443b 7ed1 5fbd
00000020: 327f 143b 7cdf 66bd c559 123d cdb2 a6bb
00000030: a4db 3bbb e620 6abc 18b0 883c 3750 48bd
00000040: a02f c1bc f2fa 273c 3a32 be3c aa4b 04bb
00000050: 8dcf f7bc f67f d139 a8db 88bc e9f6 50bb
00000060: 4069 afbc 5f3a 03bd 2405 9c3b 9a33 aa3c
00000070: 9bf7 ff3c 9810 5cbd a078 91bc 3179 4dbd
00000080: 1cd1 143d a1e7 183d 206c 46bd d137 3ebd
00000090: 03e3 b0bb f740 0a3d cd56 683b ff92 aabc
000000a0: cff3 40bd 2adb 933c 10c2 36bd 0783 4cbd
000000b0: 04ae f43c 4284 b4bc 0262 f23c b3bb 58bd
000000c0: b46a 043d a93a 033d 3c33 163d f104 8abb
000000d0: b054 2abd bc65 e5ba 2cc7 4abc fd3b 08bc
000000e0: b50e bebc 55ee 69bc 362c bbbc 3789 6f3d
000000f0: bb0d d83d 3bd2 d73b 8f6d 4ebd 9590 34bc
00000100: 166e 1b3c e524 063c b8b4 713b 45df 693d
00000110: b31a 063d cf9f e23c 8565 0d3d a7e7 35bd
00000120: caea cdbc 2a5f 0dbd 9382 f5bc 90f4 dc3c
00000130: ef92 c4bc 5c85 c3bc bb55 11bd 2954 53bd
00000140: 7176 123d 64c4 3ebd 06da 0ebd 1e86 79bd
00000150: ce9d 053d 0163 013c 74f5 84bd 44db ef3c
00000160: b8e3 c13c 01e6 453d a1e7 fa3a e1dd 6f3c
00000170: 92e9 513b d1f1 293d 1928 10bd 2838 5ebd
00000180: 397a 5fbd 9e17 18bd 1fb4 afbc 3942 b03c
00000190: ba2c 34bd de55 a0bc 6bc8 2dbd d664 d839
000001a0: ee72 edbc 3330 523d d116 febc 2803 1d3b
000001b0: a3ff cebc 62f1 3bbd b0bf 733c d3c9 853c
000001c0: a3bc 0cbd 557c 06bd 9d20 cdbc 6d10 18bd
000001d0: ef6f a83b 9b88 343c 7157 a83c 0fc4 053d
000001e0: ecdc 19bd e243 313c 905c 183d 397a 153d
000001f0: 4eef 083d 0c8c 31bd b712 413d 8a9a cf3c
00000200: 8536 93bc d4be f9bc 8978 073c 0f5a 8ebc
00000210: a4e0 d3bc e919 ceb9 b75c 1e3d 0332 803d
00000220: fce6 123c 41c2 453d 2726 1fbd ef5c 463d
00000230: ac51 c53c 3e43 6c3d 8feb e33b 1d3e 6c3c
00000240: 48a4 8139 0a13 543d 0f92 583d 993f 123d
00000250: 67cc 63bc 00ac 2ebd 3998 563c 9369 2abc
00000260: 270a a73b 9538 0cbd dd9b 1f3c abd9 47bd
00000270: 9c8a 64bc fb56 ea3c d741 9c3c 72a5 c63c
00000280: 3464 0c3d 15fa 38bd 2e14 94bc a411 99bc
00000290: 0b9c 50bd 6c08 063b 4c2d 30bd 836a 2cbd
000002a0: 14c1 3f3c b2a4 473d 3639 2fbd a04e 80bc
000002b0: 6eb5 efbc 6828 503c 6cdb 4dbd f8ad 373d
000002c0: 7ffa 20bd c3c4 20bc ada6 213d caa0 b0ba
000002d0: 9967 403d f256 cabc 22b6 4b3d a90d c33c
000002e0: a69c 363d a3e4 aabc e3b6 1ebb 7f57 d13c
000002f0: 3346 6f3c d673 4cbd c66f eabc 3c3e 283d
00000300: 35bf 84bd 8e92 32bc 5dca 253c 5eb2 333d
00000310: 22ee 873d 8a3b 533d a2e3 ba3b 021b 56bd
00000320: 3e52 763d ef3c 533d 6b2a e9bc ec5d 5dbb
00000330: aa91 1cbb 23c9 f7bc 084e a53c bd31 5fbb
00000340: 3640 9fbc 3168 ffbc 8e68 b5bb ebff 41bd
00000350: 1539 36ba e957 32bd ac42 e7bc 20bf 05bb
00000360: fc7e 193d 24b9 bc3c 534f 2cbd ac7d 1fbc
00000370: 017d 063d dc60 50bd 81d3 4b3d d02a 3abd
00000380: a91e 853d ef80 bebb d9a5 703d 9744 bb3c
00000390: ae2d 533c 143f 9b3b cdab 39bd 4142 6e3d
000003a0: 69b8 943b eef3 7abd e24c 593b 349f dd3c
000003b0: ebf2 acbb 68f5 523d 04a3 20bd 4ecb f13c
000003c0: 63ec a5bc f7de 50bd c9c3 1a3c 0352 8ebc
000003d0: 57e6 53bc 44b0 9ebb 653d 88bc 7af9 80bb
000003e0: 549e 18bd 417d 2a3c 85f0 1a3a a251 52bd
000003f0: c266 4abd 05c9 3abd 5ab6 8fbc 57f0 523d

head_advantages.bias f4 [4]
0.020525964 -0.0375303 0.0049768123 0.0067164577
00000000: 1126 a83c 5fb9 19bd 8714 a33b bb15 dc3b
